TEMP_NAME.pt (torch, 102545 bytes, 16 tensors)

conv1.weight f4 [8, 3, 3, 3]
00000000: 0f79 64bd 8cb2 4abd b733 de3d 7f4e 8f3d
00000010: 471d 1c3e 4cac 93bd 38a7 843d 083c 8c3d
00000020: 941b 24be 5430 3fbe 5a92 ccbd 5edf 063e
00000030: 2b88 39be c489 2bbe 93bc dc3d 67a6 d43d
00000040: e810 223e 16ce 14be 4e43 10be 2021 ca3d
00000050: bc58 2b3e cfd3 eb3d d7f1 f63c a6d6 813d
00000060: 100b 3b3e e34d febd d000 b3bd bcd0 093e
00000070: 1ede 06be e062 d9bd 31d4 0f3e c29d 783d
00000080: c6b1 7e3d af1c a7bd be47 2dbb be60 343e
00000090: 5f9c ecbd 7a28 c93a 1e82 bb3d a313 08be
000000a0: c669 3f3e 26dc c4bd c640 3dbd 3c2d 55bd
000000b0: f464 00be 7863 41be 5349 de3d 448a 513d
000000c0: 8091 38be a99f fdbd 0ece 423e 8bb0 963d
000000d0: 7a33 9e3d 96c1 ebbd a7c2 acbd 61dd edbc
000000e0: 271f 10bd 2e08 07be 14f4 813c 7c73 9c3c
000000f0: 41bd c7bc a25e da3c e046 9cbd 1a37 4d3d
00000100: 80ad 943d 6096 cfbd 8165 43be ae53 ce3d
00000110: 50ec 3b3d 5f6e c8bd 9eea 3d3e 514e b2bd
00000120: 712f 053e 73fd c73d b036 25be 0d39 fe3d
00000130: 3b30 35be 4e69 dabd 5d5e 03bd 04d5 04be
00000140: 6b7d 403e b506 1ebd e69a 9c3d 3bef 2fbe
00000150: 40ec e23d f0de 74bd 27e0 15be c59d e63c
00000160: 66ff be3d 5f92 2a3e 23b9 f0bd f9e6 c1bd
00000170: c5ac 173d 5cd6 553d a695 973d 2957 d83d
00000180: dfbd 32bd 9001 db3d ee4a 113e f0e7 4dbd
00000190: 8e3b 0c3e 03a0 c03d 1fd3 2d3e 95ee dfbd
000001a0: 04a0 c2bd f2ec 63bd d622 203c aa8a ec3d
000001b0: 120b e1bd 7c4a c53d 5836 8dbd 3914 ee3d
000001c0: a4c6 15bc 30a1 2cbe 30dd d8bd f899 0ebe
000001d0: a584 c33d c32c 04be 3997 83bc 9119 2a3d
000001e0: a331 d8bd 1d47 633d ec69 40be 1f05 0dbe
000001f0: 2d8f 32be 2d69 6ebd 15a5 8fbd 0584 e13c
00000200: 6dc0 11bd e538 b93d 8ea4 343e 116c 8d3d
00000210: 994f 9bbd 5a89 38be 45c2 8e3d eb54 c3bd
00000220: 7e99 c83d 3dba 033e c9f9 973d 10ea 383e
00000230: d926 3b3e 68d0 263d a39c 0fbe 340c 303e
00000240: f5fc babd ad20 babd 13ed 243e a5a9 183e
00000250: 9c41 6e3d 4f07 463c c6ca 25be 9e7d a3bc
00000260: f40a 3d3e d9ce 483d 9229 873c dd97 23bd
00000270: bb86 89bd c9f4 ea3d 6bd4 423c 072f 003e
00000280: 2e70 0bbd 9c41 ac3d 15b6 a23d bd40 fb3c
00000290: 74b5 f73d 34f2 f63d 8aa4 363e e47f 173e
000002a0: 07a1 49bd 1add 26be 2313 103d f86e d8ba
000002b0: 2e99 4dbd a1e3 03bd fe11 143c c7c4 0f3e
000002c0: a2d6 753d 4de7 8bbd b71b a2bd 0f16 43bd
000002d0: b846 98bd 9536 313e 34cf d03d 4cef 313e
000002e0: 2d11 1d3a 7113 1f3d 6cba 883d dd8a 3abe
000002f0: 2203 8d3c 0029 53bc acea dcbd 75e2 18be
00000300: 616e 2e3e 0937 203e eead b63d 5006 3c3e
00000310: 27f4 9fbd 4d23 08bd 672b 953d 4629 02bd
00000320: bc93 1abd 68eb 22be 55a9 533d f93e eebd
00000330: 3860 e43b ea1b 403e d4c1 72bd 5393 78bd
00000340: ecd2 ed3d f1db 90bd 86a1 87bc 26fb 373e
00000350: 3aa5 a1bd df03 0dbe 8ca2 dcbd f4a9 5abd
-0.055779513 -0.04948668 0.108497076 0.06997394 0.15245543 -0.072105974 0.06477207 0.068473876
-0.16026145 -0.1867078 -0.09988852 0.13171145 -0.1811835 -0.16751772 0.10778155 0.10383301
0.15826762 -0.1453174 -0.14088175 0.09869599 0.16733068 0.11515009 0.030144615 0.06339769
0.18265939 -0.124171995 -0.08740389 0.13458532 -0.13170668 -0.10614562 0.14045788 0.060697325
0.062181257 -0.08159768 -0.0026440467 0.17615029 -0.11553263 0.0015347146 0.09155677 -0.13288741
0.18692693 -0.096123025 -0.04620435 -0.052045092 -0.1253851 -0.188856 0.10853829 0.05115725
-0.18024254 -0.123839684 0.19023916 0.07357892 0.07724662 -0.11511533 -0.084355645 -0.029036226
-0.03518596 -0.13186714 0.015863456 0.019098036 -0.024382235 0.026656453 -0.07630706 0.050101377
0.07259655 -0.10136104 -0.1908169 0.100745544 0.045879662 -0.097866766 0.1854653 -0.08706344
0.13006379 0.097651385 -0.16134143 0.12413225 -0.1769418 -0.106646165 -0.032072414 -0.12971884
0.18797843 -0.038580615 0.07646732 -0.17181103 0.11080217 -0.059782922 -0.14636289 0.028151402
0.09326057 0.16657399 -0.11754062 -0.09467883 0.03703 0.052206382 0.0740159 0.105634995
-0.043638106 0.106936574 0.1418874 -0.05027002 0.13694593 0.0940552 0.16975068 -0.10934178
-0.09503177 -0.05564589 0.009773931 0.115498856 -0.109884396 0.096333474 -0.06895131 0.11624951
-0.009141598 -0.16858363 -0.10589063 -0.13925922 0.09546784 -0.129077 -0.01606332 0.04152829
-0.105563425 0.05548774 -0.18790406 -0.13771485 -0.1743743 -0.058205772 -0.07013909 0.027528772
-0.035583902 0.09044055 0.17640898 0.06905378 -0.075835414 -0.18021145 0.06970648 -0.09537681
0.09794901 0.12864013 0.074206896 0.18058038 0.18276538 0.040726095 -0.14024596 0.17192155
-0.09130279 -0.09088264 0.16106062 0.14908464 0.05816804 0.012086703 -0.16190633 -0.01995736
0.1846121 0.04902539 0.016499314 -0.03993975 -0.06715151 0.1147247 0.011891465 0.1251794
-0.03404253 0.084109515 0.07944886 0.030670518 0.12095156 0.12057915 0.17836204 0.1479488
-0.049225833 -0.16295281 0.0351745 -0.0016512563 -0.05019491 -0.032199506 0.009037493 0.14039908
0.060019143 -0.068312265 -0.079154424 -0.04762846 -0.074353635 0.17305978 0.10195771 0.17376441
0.0005991634 0.0388369 0.06676182 -0.18217035 0.017213408 -0.012888193 -0.107869476 -0.14930137
0.17034294 0.15645994 0.08919893 0.18361783 -0.0781024 -0.03323679 0.07283669 -0.031777643
-0.037738547 -0.15910113 0.05167516 -0.11633105 0.006969478 0.18760648 -0.05926688 -0.060687374
0.11612496 -0.070732005 -0.016556513 0.179669 -0.078928426 -0.13771008 -0.10773191 -0.053384736

bn1.weight f4 [8]
00000000: df00 803f 3ffe 7f3f 03ff 7f3f d600 803f
00000010: fa00 803f 48fe 7f3f 3eff 7f3f 18fe 7f3f
1.0000266 0.99997324 0.9999849 1.0000255 1.0000298 0.9999738 0.99998844 0.9999709

bn1.bias f4 [8]
00000000: 3d40 bdb7 5a1e f6b7 dda1 88b7 5fee e0b7
00000010: 7033 f537 7abc e537 b047 f337 42d0 f1b7
-2.2560469e-05 -2.9339619e-05 -1.6287837e-05 -2.6813881e-05 2.9230228e-05 2.7386694e-05 2.900124e-05 -2.8826416e-05

bn1.running_mean f4 [8]
00000000: 08c9 4f3d 45d6 a13d d6d8 3f3d 8461 213e
00000010: 60ce 003e 4397 673e b137 2e3e e99e 203d
0.050728828 0.07902197 0.04683765 0.15759856 0.12578726 0.22616296 0.17013432 0.03921405

bn1.running_var f4 [8]
00000000: 84c7 0c3f 535e 1a3f 1bf8 0d3f 2f8a 1a3f
00000010: c7d9 243f bdac 413f b559 213f be34 103f
0.54991937 0.6030018 0.55456704 0.603671 0.643948 0.756542 0.6302751 0.5633048

conv2.weight f4 [8, 8, 5, 5]
00000000: 118b 09bd 4952 16bd f0c1 e93c 5f6a 443c
00000010: e1a3 b9bc fd23 61bd b4a0 b6bc 0eb7 f4bc
00000020: 17bf bcbc b5b3 82bd 7117 793c 2cea 54bd
00000030: a4ae 61bd 27c2 6cbd fc87 f13c ce7c 2ebd
00000040: 1851 efbc edf1 623d 5bc3 193d 1911 263d
00000050: ce83 89bd 25b6 4fbd 11e8 dabc fe48 6f3d
00000060: 1d47 ed3b 93bc 58bd c489 f639 5d02 61bd
00000070: 3173 7dbc 3f6d 9fbc 519b 7a3d d7a4 b33c
00000080: 7742 4abc 39fb 433c bf58 a7bc 2f5e e33c
00000090: 9a56 e53c e97f 9b3c daa0 e1bc 3c31 773d
000000a0: bfb0 27bc 636a e1bc 8356 353d 3d29 6c3d
000000b0: 8a2b 903d e661 ab3c 7551 c5bc e609 133d
000000c0: 8f90 783d c40e 8ebd 600a 0fbc 1e66 45bd
000000d0: a52f 583c 8ea6 ef3c 540c 6fbc 79dd c0bb
000000e0: 427b 023d 2d4c 42bc 5228 73bd 36d8 673d
000000f0: 4fa7 11bd c794 fdbb 9073 db3b 4f77 8abb
00000100: 732b 88bd 2201 053d f170 03bd c51d 16bd
00000110: 51a0 8a3c 5a08 17bd b8bb 05bd 2df5 c2bc
00000120: 89a7 d9bc c809 f2bc 650f 9cbc 8d4a 963c
00000130: e17e 6abd 9d6d 2fbd 2a64 833a f5a0 203c
00000140: 94d6 1f3d 9592 4bbd 4fa7 b83c 4e80 243d
00000150: d1b2 203d 1cf2 86bd 404b ddbc 4714 79bd
00000160: 5567 37bd 9f32 213d de7a 2dbc f2c6 f53c
00000170: ea22 2abd fd8f 2f3c 674e 2fbd 66a9 103d
00000180: 1399 fdbc 727f 91bc 3c6a 7bbd 9898 5539
00000190: e98e 893d c1b2 0c3d b782 1abd 85d4 7a3a
000001a0: aa99 fdbb f20e 69bd 0837 633d 39b0 973a
000001b0: ad36 743c 45c1 e9bc a767 07bd 7681 3f3c
000001c0: 6a56 d63c 0113 823c 4c7e 0bbd f9a8 8c3d
000001d0: 1b0e 2abc 5444 31bd 7d65 07bd da9a 8e3d
000001e0: 235d 0738 30ca 1cbc c337 f1bc a702 98bc
000001f0: 55dd 73bd 6049 66bd f465 293d c4a4 773d
00000200: 2c23 8a3d 0338 51bd 1d87 1c3d 1465 33bd
00000210: eea8 2c3d aadc 503d b503 603d 1e6d 503d
00000220: 0010 353d a478 b03a 46f5 043d e47c cfbc
00000230: a5fc fb3c 766b babc b489 9fba d235 7cbd
00000240: b8b4 97bc 326e 18bd aca3 c3bc 9813 39bd
00000250: 7850 82bd d0e6 953b a2d7 3b3d a3d4 833d
00000260: 49e5 283d 103f 16bd da48 8fbd ea79 db3c
00000270: 4429 223d 2ac6 78bd 5d78 cf3c 02c1 743d
00000280: 3d60 8b3b 229d 2ebd c456 6d3d 141c f73c
00000290: 00ac 3f3d 01ff 43bd 446d 283d 48f6 45bd
000002a0: 9c3b 8f3d 4dad f5bc 5d66 2e3d 2d7f 673c
000002b0: ee43 993c 3627 32bc 53ae ed3c db3a f1bc
000002c0: bc8f 88bd f44f debc bc04 633d e9bb 98bc
000002d0: 84d7 b53c 8269 d6bc 653f 593d 875a 2d3d
000002e0: 633e cc3c b10e 14bd 1bc9 6cbd 6465 303b
000002f0: c3ce 29bd 9905 6e3d 3a1e 8bbd e375 013d
00000300: a46c 903d 4c27 113d 5c84 c53c 1b4e 8bbd
00000310: b350 8b3d 08b4 45bc b048 87bd 68e8 8e3d
00000320: 0dbc ebbc 7dbe a3bb 1f7f 843d 7bbe 48bd
00000330: aefe 4cbd b8d2 3c3c fda3 1abc 3aa8 853c
00000340: eed3 72bd 98a3 0a3b 48ed 00bd 9843 0ebd
00000350: 0d8b 84bd 0675 193d c1c1 5e3c 07f6 74bd
00000360: 82f2 653d bf79 ae3c 2605 573c 0703 2abd
00000370: 40b3 2e3c 5a88 8b3d c5a7 463d 58b2 61bd
00000380: 933e 843d bfa1 b23b 9e69 0b3d cf11 613d
00000390: e7d6 763d 84e0 61bd 277f 7d3d f297 44bd
000003a0: 1cab ae3b de7d 4abd af79 7ebc 4484 54bb
000003b0: 5b3e 0abc 3d89 36bc dbde b53b e1c9 8e3d
000003c0: 5328 283d 291a 223d 5416 e83c b01d 603d
000003d0: afbb 57bb 4c48 b73b 26c2 6e3c 2c7b 7cbd
000003e0: 2442 69bd 0f99 0d3c 307c e2bc af40 a6ba
000003f0: fef2 84bc 1815 343c 568b 3c3d 45fd bfbc
-0.03357989 -0.036699567 0.02853486 0.0119882515 -0.022661151 -0.05496596 -0.022293426 -0.029872444
-0.023040337 -0.06381933 0.015203343 -0.051981136 -0.05509819 -0.057802346 0.029483788 -0.04259949
-0.029213473 0.0554065 0.03753982 0.04054365 -0.06714593 -0.050710816 -0.026721986 0.05841922
0.0072411434 -0.052914213 0.0004702342 -0.054933894 -0.015469358 -0.019461272 0.061183278 0.021929188
-0.012344948 0.011961752 -0.02042806 0.027754871 0.027995396 0.01898189 -0.02754252 0.060349688
-0.010235011 -0.02751655 0.044271957 0.057656515 0.070395544 0.020920705 -0.024086693 0.03589811
0.060684737 -0.0693641 -0.008730501 -0.04819309 0.013194953 0.029254224 -0.014590342 -0.0058857766
0.03185583 -0.011858982 -0.059364624 0.05660268 -0.03555995 -0.007738683 0.0066971257 -0.0042256485
-0.06648912 0.032471783 -0.03209013 -0.036649484 0.016922148 -0.0368732 -0.032649726 -0.02379855
-0.026569145 -0.02954568 -0.01905031 0.018346095 -0.057249907 -0.042829145 0.0010024358 0.009804
0.039022997 -0.04970034 0.022540716 0.040161423 0.039233033 -0.065891474 -0.027013421 -0.060810354
-0.04477628 0.039354917 -0.010588376 0.030002091 -0.041537203 0.010715482 -0.04279938 0.0353178
-0.03095678 -0.017760966 -0.06138061 0.00020370109 0.06716711 0.03435016 -0.037722316 0.0009568411
-0.0077392654 -0.05689902 0.055472404 0.0011572904 0.014905614 -0.02853454 -0.033057835 0.011688581
0.026164252 0.015878202 -0.034055993 0.068681665 -0.01037934 -0.043278053 -0.03305577 0.06963129
3.227325e-05 -0.00956969 -0.029445535 -0.018555952 -0.05953725 -0.05622232 0.041356996 0.060459867
0.0674499 -0.051078808 0.03821479 -0.043797567 0.04215329 0.05099169 0.054691035 0.050885312
0.044204712 0.0013463688 0.032460473 -0.025328107 0.030760119 -0.02275632 -0.0012171776 -0.061574765
-0.01851879 -0.037214465 -0.023881756 -0.0451847 -0.063630044 0.004574634 0.04585994 0.064370416
0.04123429 -0.036681235 -0.06996317 0.026791532 0.039590135 -0.06073586 0.025325948 0.05975438
0.004253416 -0.042630322 0.057944074 0.030164756 0.04679489 -0.047850613 0.04111983 -0.048330575
0.069937915 -0.029989863 0.04257809 0.014129442 0.01870915 -0.010873606 0.029013788 -0.02944701
-0.0666804 -0.027137734 0.055424437 -0.01864429 0.022197492 -0.026173357 0.053038973 0.04232266
0.024932092 -0.036146823 -0.057808977 0.0026915902 -0.04145695 0.058110807 -0.06792875 0.031606566
0.070519716 0.035437867 0.024110965 -0.06802007 0.068025015 -0.012066849 -0.06605661 0.06977922
-0.028776193 -0.004997073 0.06469559 -0.04900978 -0.05004757 0.011524849 -0.009438512 0.016315568
-0.059284143 0.0021154638 -0.03147629 -0.03473243 -0.06471834 0.037465118 0.013595999 -0.059804942
0.056139477 0.021298287 0.013123786 -0.041506793 0.010662854 0.06813116 0.04849984 -0.055101722
0.064572476 0.0054514105 0.03403627 0.054948624 0.06026354 -0.055145755 0.06188884 -0.04799647
0.0053304564 -0.049436443 -0.015531941 -0.003242747 -0.008437718 -0.011141119 0.005550248 0.06972099
0.04105408 0.03957573 0.02833096 0.054715812 -0.0032918265 0.0055933353 0.014572656 -0.061640903
-0.056947842 0.008642449 -0.027647108 -0.0012684072 -0.016229149 0.010991357 0.04603132 -0.023436198

bn2.weight f4 [16]
00000000: fb00 803f 23fe 7f3f 7cfe 7f3f 1dfe 7f3f
00000010: ee00 803f f300 803f f600 803f d3ff 7f3f
00000020: 7400 803f 13fe 7f3f 09fe 7f3f 14fe 7f3f
00000030: 19fe 7f3f adfe 7f3f 4600 803f 29fe 7f3f
1.0000299 0.99997157 0.9999769 0.9999712 1.0000284 1.000029 1.0000293 0.9999973
1.0000138 0.9999706 0.99997 0.9999707 0.999971 0.9999798 1.0000083 0.9999719

bn2.bias f4 [16]
00000000: ec20 0136 0e7d ebb7 9dc4 f2b7 9076 f9b7
00000010: 26f4 ee37 971d e7b7 8256 e9b7 7efe ddb7
00000020: 6da4 d937 96fc f4b7 f3e7 f0b7 6688 e937
00000030: 59fa f0b7 f5bc f7b7 55a6 f137 0f84 ee37
1.924166e-06 -2.8072416e-05 -2.8940203e-05 -2.9738323e-05 2.8485501e-05 -2.7551125e-05 -2.7816048e-05 -2.646376e-05
2.5944983e-05 -2.9204686e-05 -2.871824e-05 2.783928e-05 -2.8726807e-05 -2.9532684e-05 2.8806893e-05 2.8433305e-05

bn2.running_mean f4 [16]
00000000: 00cf cf3d b558 f53d 0cad 073e 2838 6a3d
00000010: 536a 983d 7b53 8a3d 3854 2f3e fa5a fa3d
00000020: 0141 173e 565d 863d d8e4 f53d 9837 503d
00000030: 7586 053e 3b3e 183e 7b1f cf3d 0f73 f73d
0.10146904 0.1197981 0.13249606 0.05718246 0.07442155 0.06754204 0.1712197 0.12224384
0.14770891 0.06560771 0.12006539 0.05083427 0.13039573 0.14867489 0.10113426 0.120824926

bn2.running_var f4 [16]
00000000: 8c4a 1b3f 0df3 1d3f cdf6 1d3f 8fcc 0d3f
00000010: 5fc6 123f c2d5 133f 2bef 2c3f ea43 213f
00000020: 6cf8 1a3f 75a7 143f 841e 183f 6dcd 0e3f
00000030: 5a4d 243f 7c15 1a3f bba9 1e3f 3d0e 203f
0.60660625 0.6169899 0.61704713 0.55390257 0.5733394 0.57748044 0.6755244 0.62994254
0.6053531 0.5806802 0.59421563 0.55782205 0.6418053 0.6018903 0.6197774 0.62521726

conv3.weight f4 [16, 8, 5, 5]
00000000: bcb4 543b c667 733c 44c5 2f3d dd1d c03c
00000010: a5d7 34bd 087b 703d d9d0 313d a4ad 32bd
00000020: 1317 5b3d 9719 a43c a788 64bc d73f 4fbd
00000030: 41bf 3fbc 2dee 8dbd 0c30 253d 52a5 513d
00000040: 5e02 a7bc b54f 863d b941 d6bc c2f0 453c
00000050: a0f6 49bd acca 45bb 6d63 ea3c 4fbe f93c
00000060: 8529 1dbb baf3 11bd 1969 4a3d 5da9 3f3d
00000070: b767 3a3c a62b 05bd d911 763c b127 3739
00000080: b643 843d 012c 2c3c e8b8 b23b 2524 9f3b
00000090: f903 1a3d 35a1 6bba 5f60 783d f4e5 163d
000000a0: a1c3 5abd cd1d 04b7 c1f0 75bd 4e42 5ebd
000000b0: 2a29 613c 3464 823c 91e8 cabb 9d99 893d
000000c0: 7b78 1bbd 50cb f2bc 74f6 39bc 8524 d339
000000d0: edf2 c4bb 3d71 823d dd6a f4bc e29e 17bd
000000e0: 8ef9 c63b d76e 593d d3b4 893c 4115 1c3d
000000f0: 0f31 603c 1bd3 763d edd7 2d3d 925d 4f3d
00000100: 7ba5 1bbc 6ece 6fbd c980 09bd f41d c53c
00000110: 874e 4b3d 5d21 e2bc 5b87 6f3d 440a 263c
00000120: 0d9d 8439 6a05 353b a458 4cbc 6d85 873d
00000130: 2715 483b 5e61 313d 2383 74bd df3a 15bd
00000140: 0ccf 013c ee25 673d 2be5 093d 5774 5c3c
00000150: a41c 8fbd e172 aa3a 3135 3fbd 754c 77bd
00000160: 6afb 1d3c 6b51 37bd 4261 833d 6767 1dbd
00000170: 579d ba3c 60e7 293d 682a 61bd cf1c 143d
00000180: 651d 1bbc 700c 163d df2c 8c3d 1cb4 f6bc
00000190: dea8 fabc e203 663d 3258 003c 41ec e7bb
000001a0: feb5 5b3d 17d1 0bbd cd77 66bb 58d1 463d
000001b0: 4356 e23c 8275 3bbd 12ce 963c 56ea 5cbd
000001c0: 8a69 1dbd 8423 3a3d 609d 9abc ce67 13bd
000001d0: 5781 a33b 5d4f 8d3c 8c04 34bd 8b6e 43bd
000001e0: 2930 8cbd b38a 953c 2600 3bbd 1f0a b13b
000001f0: 0ec6 81bc a97a 3dbd 8b15 b9bc 31b5 5ebd
00000200: 5d30 19bd c142 12bb 50a1 77bd d521 7ebd
00000210: 0ede 583d 49fd da3b bd34 00bd 8143 1abb
00000220: 99a9 563d e0b8 71bd ac6f 19bd 8c8f 51bd
00000230: 8a8a a8bb 2857 21bb f8cb 61bd 1b26 493d
00000240: 2c89 5ebd 5c27 873d d47c 47bd 6b27 1fbc
00000250: d915 593c 7adb 00bd 1324 853d 15cb 47bd
00000260: 2d55 81bb 1ba7 54bd acee a03c 9ed3 763d
00000270: 2845 863d 982a 093c b00d 11bd 53ae 8c3d
00000280: c41e ac3b e2d7 433d 158e 16bd 5680 06bd
00000290: 3a8d 70bd b63e 853d 27b4 3f3c 8820 50bd
000002a0: cf73 c63b a774 f8bc fd5c 673b f007 c03c
000002b0: 5ed5 0fbd 4ff1 493c 4fde 36bd abc8 5e3c
000002c0: c1e2 8bbd 5913 393c fbef 8f3d b76c 853d
000002d0: 8d14 d33c 7fff 543d 33ce 8c3d fd63 a43c
000002e0: d764 c13c 9029 163c e025 803d f1b7 783d
000002f0: fa14 08bd be1d 3ebb f706 12bd f49e cf3c
00000300: 7659 8cbd b739 cd3c cadd 9ebc 1613 d23c
00000310: b18e b43c 5401 10bd f262 163d 4c0d f63c
00000320: 5451 76bd 5a8c 903d 0061 793d da4e 343d
00000330: 913a eabb 3efb cc3c 7d92 1cbd 309a c4bc
00000340: 8bab 083d 420e 013d 6924 e53c c50e 8abd
00000350: d120 703d 17b8 f1bc ebc4 7a3d 5587 6e3d
00000360: 50ef d63c b256 903d ad6d 263d fcfb 293d
00000370: e3f1 c4bc 2960 863d a90e 983c 933d 2b3d
00000380: 83bb 82bc dbc7 513d b585 803d 8dd3 5dbd
00000390: cd56 6d3d cf4b 3fbd fb85 47bd 7ceb 71bd
000003a0: 9d96 a73c 648b 59bd c209 dabc 2fb7 11bd
000003b0: 1bad 9a3c de2d 8ebd bfdc 04bd 1704 063a
000003c0: 2d1e cf3b cfd4 02bd 01b9 cf3c 6327 3fbd
000003d0: 7e2e 75bd df2a 25bc c995 1cbd caad 363d
000003e0: e4f9 45bd 8b9b c1bb 075c f03c 9db9 7dbd
000003f0: ed54 603d 2f80 03bd 9163 9dbc 414b 31bd
0.003245636 0.0148562845 0.042912737 0.02345174 -0.044150967 0.05871108 0.043412063 -0.043622628
0.053488802 0.020031733 -0.013948596 -0.05059799 -0.011703313 -0.06930194 0.040329024 0.051183052
-0.020386871 0.06558172 -0.026154386 0.012081327 -0.049307466 -0.0030180616 0.028611863 0.030486254
-0.0023981046 -0.035632826 0.049416635 0.046792377 0.011377267 -0.03251233 0.015018904 0.00017467026
0.06458227 0.010508538 0.0054541714 0.0048566037 0.037601445 -0.00089885603 0.06063878 0.036840394
-0.053409223 -7.874752e-06 -0.060044054 -0.05426245 0.013742724 0.015916921 -0.006192275 0.067187525
-0.037956696 -0.029637963 -0.011350263 0.00040272265 -0.0060104043 0.06369255 -0.029836113 -0.037016757
0.0060722297 0.05308422 0.016809857 0.038106207 0.0136835715 0.06025992 0.04244225 0.050626345
-0.009499903 -0.058546476 -0.033570085 0.024062134 0.049635436 -0.0276038 0.058478694 0.010134283
0.00025294014 0.0027621635 -0.012472305 0.06617246 0.0030530186 0.043305747 -0.059695374 -0.036433097
0.007922899 0.056432657 0.033665817 0.013455472 -0.06987885 0.0013004207 -0.046681587 -0.06037565
0.009642461 -0.04475538 0.06415035 -0.03842869 0.022780104 0.041480422 -0.054972082 0.036160287
-0.009467457 0.036632955 0.06844496 -0.03011518 -0.0305981 0.056156047 0.007833527 -0.007077724
0.05364036 -0.03413495 -0.0035166622 0.04853949 0.027629023 -0.04576636 0.018408809 -0.053934418
-0.038430728 0.045444027 -0.01887387 -0.035987668 0.0049897837 0.017249757 -0.04394965 -0.047712844
-0.06845123 0.018254614 -0.04565444 0.005402818 -0.01584151 -0.046259556 -0.02259328 -0.054372016
-0.03739964 -0.002231762 -0.060456574 -0.062043983 0.052946143 0.006683026 -0.031300295 -0.002353877
0.052407835 -0.0590142 -0.037460014 -0.051162288 -0.0051434683 -0.00246186 -0.05512616 0.049108606
-0.054330036 0.06599304 -0.04870303 -0.009713988 0.013249838 -0.03145931 0.06501021 -0.04877766
-0.0039469213 -0.051917177 0.019645058 0.060260408 0.06556159 0.008371972 -0.035413444 0.06869187
0.005252691 0.047813304 -0.036756594 -0.032837234 -0.058728434 0.06506102 0.0117006665 -0.050812274
0.006056286 -0.030329062 0.0035303228 0.023441285 -0.035115592 0.012325599 -0.044645604 0.013597648
-0.06830359 0.011296117 0.070281945 0.06514876 0.025766635 0.052001473 0.06875267 0.02006721
0.023607654 0.009165183 0.06257224 0.060722295 -0.03322313 -0.0029009427 -0.035651173 0.02534435
-0.06853001 0.025051935 -0.019392867 0.025643867 0.022040697 -0.035157517 0.036715455 0.030035637
-0.060136154 0.0705802 0.060883522 0.04402051 -0.007148095 0.025022145 -0.03822564 -0.023999304
0.03336672 0.031507738 0.027971463 -0.06741098 0.058625046 -0.029506726 0.06122295 0.05823453
0.02623716 0.07047786 0.04063194 0.041500077 -0.024041122 0.0656131 0.018561678 0.04180677
-0.015958553 0.051215988 0.062755026 -0.05415683 0.057944108 -0.046703156 -0.048711758 -0.059062466
0.02045756 -0.05311145 -0.026615981 -0.035575088 0.018881371 -0.06942342 -0.032437082 0.0005112304
0.006320736 -0.03194123 0.025356771 -0.04666842 -0.05985879 -0.010081022 -0.038228784 0.044599332
-0.048334017 -0.0059084347 0.029340757 -0.061944593 0.05476849 -0.032104667 -0.019212516 -0.04328466

conv4.weight f4 [16, 16, 5, 5]
00000000: 5d95 393d b70b 94bc 93b1 013d b194 43bc
00000010: 865c 21bd e210 1f3d 0734 62bc 528d a9bc
00000020: 37e4 733b 154e 0dba ac0e 673c 81da 46bc
00000030: 8ffc 6bbc 97e4 df3c 7584 bb3c 0d07 353d
00000040: 4cc8 b43b dc36 54bc 45e8 2ebc 0d68 27bc
00000050: 7776 81bc 10f1 8bbc 6b62 66bc 83a5 763c
00000060: 47d5 a13c a8c8 1b3d d065 47bd cfb1 1e3d
00000070: e788 25bc 0e40 48bd e4c9 053d 7274 e8bc
00000080: 6cd0 b8bc 6bb2 873c 3fb2 053c d383 0b3d
00000090: 99f5 0ebd 9c4e de3c 9b40 d53c 264e fd3c
000000a0: 6d7d 88bc 4fc7 0a3c f5b5 703c cafc 403d
000000b0: 1e1f f9bc 6c1b 3cbd 6048 39bd 5307 d83b
000000c0: 80c2 1bbd 861c 18bc d550 bfbc 5ced 133c
000000d0: 533a 11bd 615a fc3c db4f 49bd c733 e0bc
000000e0: e69a 283c 485d 49bd ef70 493c eb79 99bc
000000f0: 06e1 cebc 1db2 123d 860b 84bc ef2e 413c
00000100: 9564 9ebc 04a9 bf3c 1567 3a3d dbb1 443d
00000110: 75fe f7bc cbb3 4bbd 883c 0fbd 7a50 663c
00000120: d5a1 a43c e1e4 d63c a9a1 b13c 885a 473d
00000130: c42f 1bbd f371 20bd a907 80bc 4a10 1f3d
00000140: 6223 1dbd 9f91 193d 57ba 083c e08e fd3c
00000150: 6602 4b3d a774 473d 2194 443d da90 48bc
00000160: d09b aebc b320 ae3c 73c4 2e3d e3db a63a
00000170: 2c77 41bc db12 04bc 43f5 91bc 9fe5 c43c
00000180: ce9b 4bbd 315a 2e3d 9cae edba 7a11 f8bc
00000190: 5142 92bc d670 fbbc 5f11 32bd e1af a43b
000001a0: 049e 39bc 39a2 b7bc 3ffe 0bbc 55b4 e1bb
000001b0: 3a37 b43c dec8 25bd 910a 9cba 0199 3aba
000001c0: d489 27bd 40aa 3c3d 9536 c2bc 136c 223d
000001d0: 9edb 1c3d e4cd ad3a 5a5f 183d 3139 1abd
000001e0: 72d8 b4bb eadb 28bd 9691 f9bc 9c33 813c
000001f0: a17d 183d f6df f2bc e149 a5bc 326d e5bc
00000200: d065 8dbb 40fe 29bd d500 22bd c7ca 31bc
00000210: 51e3 443d de97 0d3c 9542 aabc 8c04 093d
00000220: ac43 173d 7515 0c3d e5a1 013a 388f b0bb
00000230: 0e20 053d 0c69 dc3c 8d66 1b3d f59d 133d
00000240: dd0f 68bc 1593 2d3d 07b5 203c b902 4c3d
00000250: 64db 4b3d 8de1 2b3d 8066 083d 04ea 203d
00000260: 2a4c c0bc 0d38 9fbc 3b70 3ebc 1a7d d1bc
00000270: c593 163d b30c 9a3b 5c05 4fbc d147 b7bc
00000280: 3441 36bd 18ef 6c3b 6223 343d d5c6 063d
00000290: b06f 223d 6306 0c3d 9798 ac3c f415 b9ba
000002a0: cf63 17bd 33b2 163d 1b03 10bd 0d12 f6bc
000002b0: e495 a43c 0a2d e13c 18eb d4bc f4b7 013d
000002c0: de8c 3fbd e7ac 433c f90f b53c 3ca1 183c
000002d0: 2d43 e6bc e531 0abd 2ecc 233d 42f0 343c
000002e0: 19bb afbc ce60 453d e785 2abc 8405 17bc
000002f0: 0952 533c c79f 2a3d b41a b6bc ad73 9339
00000300: 81a7 b7bc f04a b9bc bd61 debb 0b1c bfb7
00000310: dedd db3c 1edb 18bd fbec ed3c 3720 203d
00000320: f0f6 b9bb 06ce 91bb 7679 4a3c a360 3bbd
00000330: decf 163d 29e7 0ebc e3b9 053b c066 c23c
00000340: cfca aa3c 064a bdbc 6a52 16bd 4e74 45bd
00000350: a9e5 2abd ddb9 2bbc 02df 1ebd 5181 a4bb
00000360: 7c28 d8bc 3354 e83c 4834 0c3d 4b5e 2d3d
00000370: 8237 06bd 3e68 10bd a24f 8e3c 969a 3abc
00000380: 046d 1b3d 7b01 3cbd d9cb 3d3d ae2b 0ebd
00000390: 775a 24bd b6b6 aebb 4db1 b5bc 0539 01bd
000003a0: be99 e93c 920c 1e3d 1dce e33c 0504 c73b
000003b0: 53a8 ecbb 26b9 dfbc 0914 433d dd55 dfbc
000003c0: 22af 33bd 03a9 2d3d 5d0f 85bb 217d 093d
000003d0: 6d32 88bc 9464 1f3d 3e86 10bd e13f f63c
000003e0: 4b47 1f3d 0500 3fba 99b3 073d c1fa eb3a
000003f0: eb9d 3bbd bbae b33c 7017 1fbd 6839 ca3a
0.04530846 -0.018071992 0.03166349 -0.011937306 -0.039394878 0.03883446 -0.01380635 -0.02069727
0.0037214884 -0.0005390358 0.014102619 -0.012137056 -0.014403476 0.02733068 0.022890309 0.044196177
0.0055170413 -0.012952533 -0.010675495 -0.010217679 -0.015803559 -0.017082721 -0.014061551 0.0150541095
0.019755019 0.038033158 -0.04868108 0.03874379 -0.010103441 -0.048889212 0.03266324 -0.028375838
-0.02256032 0.016564569 0.008160173 0.034061264 -0.03490219 0.027137093 0.026031783 0.030921053
-0.01666137 0.00847037 0.014691819 0.04711608 -0.030410346 -0.04592459 -0.045235038 0.00659267
-0.038027287 -0.009284144 -0.023353973 0.009028759 -0.035456013 0.030804815 -0.04914842 -0.02736844
0.010290837 -0.049161226 0.012294992 -0.018734893 -0.025253784 0.035814393 -0.016118776 0.011790975
-0.01933507 0.023396023 0.045508463 0.04802118 -0.030272702 -0.04973201 -0.034969836 0.014057273
0.020096699 0.026232185 0.02168353 0.04867032 -0.03788735 -0.03917117 -0.015628653 0.038833894
-0.03836382 0.03749239 0.008345208 0.030951917 0.049562834 0.048695233 0.04799283 -0.012241567
-0.021314532 0.021255827 0.042667817 0.0012730326 -0.011808198 -0.008061136 -0.017817145 0.024035273
-0.049709134 0.042566482 -0.0018133703 -0.030281771 -0.017853888 -0.030693453 -0.043473598 0.005025849
-0.011329178 -0.022416221 -0.008544504 -0.0068879523 0.02199899 -0.040474765 -0.0011905005 -0.0007118136
-0.040902928 0.0460608 -0.023707667 0.03965385 0.03829538 0.0013260213 0.03720031 -0.0376522
-0.0055189664 -0.04122535 -0.030464929 0.01577168 0.037229184 -0.029647809 -0.02017683 -0.02800617
-0.0043151155 -0.041502237 -0.039551575 -0.010851569 0.04806835 0.008642165 -0.020783702 0.033451602
0.03692977 0.03420015 0.00049450836 -0.0053881668 0.032501273 0.026905559 0.037939597 0.03603931
-0.014163938 0.042376596 0.009808785 0.049807284 0.049769774 0.04196315 0.033300877 0.039285675
-0.023473818 -0.019435907 -0.0116234375 -0.025572348 0.036762018 0.004701221 -0.012635555 -0.022373112
-0.044495776 0.0036153253 0.043979056 0.032904465 0.039657295 0.03418578 0.021068854 -0.0014120922
-0.03696042 0.036791038 -0.03515921 -0.030037904 0.020091005 0.027487297 -0.025991008 0.031669572
-0.0467652 0.011943079 0.022102343 0.009315785 -0.028108204 -0.03373899 0.039989643 0.01104361
-0.02145152 0.048188023 -0.010407901 -0.009217624 0.012897977 0.04165628 -0.02222953 0.0002812421
-0.02241874 -0.02261874 -0.0067865537 -2.2782033e-05 0.026839193 -0.03731834 0.029043665 0.039093222
-0.005675189 -0.0044496087 0.01235806 -0.045746457 0.03681933 -0.008722105 0.0020404987 0.023730636
0.02084866 -0.023106586 -0.03669969 -0.04820662 -0.041722927 -0.010481325 -0.038786896 -0.0050202985
-0.026386492 0.028360462 0.034229547 0.042326253 -0.03276778 -0.035255663 0.017371956 -0.011389395
0.037945762 -0.04589985 0.046336982 -0.034709625 -0.040125336 -0.0053318394 -0.02217927 -0.03154852
0.028515693 0.038586207 0.027808243 0.006073477 -0.0072222142 -0.027309965 0.04762653 -0.027262622
-0.04386819 0.04239751 -0.0040606693 0.033566598 -0.016625607 0.03891428 -0.035284273 0.030059757
0.03888635 -0.00072860747 0.033130262 0.0018003808 -0.0458049 0.021933904 -0.03884071 0.0015428485

fc1.weight f4 [16, 784]
00000000: 4e4e 6f3c db08 34bc 4584 5dbb ad25 d0bc
00000010: 14f4 fb3c 26b7 0dbd df64 adbc 7b0e e7bc
00000020: d100 82bc 9528 9fbc 46b8 383c 96ef fc3c
00000030: 007f c83a c080 053c 8dc1 dc3c ea00 12bd
00000040: d87e 1c3b f184 833c 5097 d53b d511 74bc
00000050: f250 44bc 5950 99bc c7cd 103d c432 81bc
00000060: 5aa7 c9bb 0286 2a3a 9bdf dbbc bad0 bfbc
00000070: e7ab c5bc ceb6 ed3b 2649 b1bc e0b1 e6bc
00000080: 76a8 a6bc b932 4abc 6464 1fbc 9df0 b6bc
00000090: b89e 273c 7ad8 92bb 1394 d3bc 7875 883c
000000a0: 510a 073c 85fb b93b 8af7 0f3d e5a1 c7bb
000000b0: f897 b83c 570d 94bc 01f8 8ebc 7223 0e3c
000000c0: e9ef 98bc 01e0 7b3c a9fc 09bd 76d5 56bc
000000d0: e2f6 113d 1689 ecba 10f8 9e3c 95c7 033d
000000e0: 1cb3 27bc 15dc 08bc 1605 a8bb 4e81 91bc
000000f0: e003 8cba b579 8b3c d8a2 fc3c 1729 ca3c
00000100: 1d1c 103d 59b7 93bc 0ce8 c9bc f73a 10bd
00000110: 6050 ac3c 7c81 813c 4787 0cbc 4c05 f23c
00000120: d892 d2bc 2935 bebb fcfc 7bba 38df 6a3c
00000130: ff08 f43c ac96 a6bc f9d9 113d ee56 0b3d
00000140: e249 1b3c 42b6 c0bc f6dc 403c 7700 f43b
00000150: 00a4 54bc 4ce4 0c3d 353a ebbc 074a 50bc
00000160: 2c8c 5bbc 4774 22bc a3ab d83c d5d9 ecba
00000170: 73e6 a13b 9f93 02bd 541c c6bc 30c2 b73c
00000180: 884b 33bc b9dc 503c edb9 e1bc 8757 a6bc
00000190: 0098 8c3c c10b ce3c f385 113b ed79 04bd
000001a0: 1f47 b8bc 7961 55bc 8bf5 873c f2f0 edbc
000001b0: cfe1 bbbc e054 11bd c969 cebc ec8d d33c
000001c0: 05ca 5abc 0e04 0abc 811d 8d3a eb28 e7bb
000001d0: e44d 48bc 423e 3eba 9aea 92bc 5b59 b93c
000001e0: c939 c0ba b2df 823c 0e16 8d3b 2693 dc3c
000001f0: bc1b 8e3c 4d54 93bc 1503 0abc bbd1 063c
00000200: d01c 53bc a105 cbbc 4325 f53c 2d4d c43c
00000210: 6a67 92bc 7d9c 063c bb5a d43c 640a b1bc
00000220: 0df1 c0bb f734 f1bc 6ed4 05bd 4a4e e83c
00000230: a154 4c3c 4116 bebc ea67 2dbb fc19 88bc
00000240: d33a d5bb 5f04 fdbb bcdf 383c d2b5 c93b
00000250: 931f c6bc 63cf 923c 1c6b 2e3b a1c9 98bc
00000260: 6ac3 a9bc 480c 56ba 5c26 4c3c 2bfa 06bd
00000270: 5f94 07bc 6a2a d3bc 2cc4 08bd a708 9d3c
00000280: 2579 49bc 2b4f 0bbd 9407 28bc 0f5a a1bc
00000290: 8f5f 9e3c a2d9 b6bb c214 b1bc ce8a 6fbc
000002a0: 66fc 00bc 601f e03c f0af 563b 0e6d e7bc
000002b0: c64c 17bc 37e9 063d d339 fabc 4bec 5abc
000002c0: 5e11 ff3c b18a 6bbc f2b2 de3c d07d bfbc
000002d0: 60b4 dd3c 601b c13c 21d3 d9bb f497 07bd
000002e0: 8a84 45bc 94c4 123c 50c6 43bc 2a47 e9bc
000002f0: df69 01bd 5f78 8b3c 060a d33c 8953 5dbc
00000300: 49d8 b43a 3718 b3bc 9800 a93c 9378 c0bc
00000310: f827 a6bc a730 6ebc f6e3 d6bb 6ad0 903b
00000320: 06d3 09bd b0f9 55bc ec5c 7ebc 91ad eebb
00000330: 5933 05bb e0cb db3a 1d5d 953c 6670 a6bc
00000340: c9b2 4f3a 9ed3 043d c626 953b ad41 d9bc
00000350: d64b c83c 59cc 01bd 3415 6e3c 2a64 f23c
00000360: 67c0 913b abb0 9c3c ef54 e83c 23b1 853c
00000370: 523a 30bc d3e8 fe3b c0de ec3c 25b5 083c
00000380: 2fc2 e8bc 639f fe3c 71b0 0d3d c48d a93c
00000390: 6224 9f3c 0843 a43c 4adf b1bc 481d 30bc
000003a0: c91c 7d3c cc13 153c e93a 783c e719 2fba
000003b0: a9ee 0cbd 6070 8a3c 9242 b8bc 2aac f1bc
000003c0: 38ac 103d 4cf8 803c c46b 913c d106 80bc
000003d0: 2531 573c 311e 453b f45d c73c f12f 883b
000003e0: a8be 023d 1162 09bc eae4 063d 71e0 103d
000003f0: 8a9c 893b f9bf d6bc c03b 32b7 d5db e83c
0.014606072 -0.010988439 -0.0033800763 -0.02540859 0.030756034 -0.034598492 -0.021166263 -0.028205147
-0.01586953 -0.01942853 0.011274403 0.030875962 0.0015296638 0.008148372 0.026947761 -0.035645403
0.0023879316 0.016054602 0.006518282 -0.01489683 -0.0119821895 -0.01871507 0.035352495 -0.015771277
-0.006153983 0.0006504954 -0.026840022 -0.023414958 -0.024129821 0.007254458 -0.021641325 -0.02816099
-0.020344 -0.012341195 -0.009728525 -0.02233153 0.010230713 -0.0044813724 -0.025827443 0.016657576
0.008242206 0.0056757354 0.03514818 -0.0060922974 0.022533402 -0.018072767 -0.017452242 0.008675443
-0.018669086 0.015373231 -0.03368822 -0.0131124165 0.035635836 -0.0018046226 0.019405395 0.032172758
-0.010235574 -0.008353253 -0.0051275594 -0.017761853 -0.0010682307 0.017025808 0.030839369 0.024677796
0.03518306 -0.018031763 -0.024646781 -0.035212483 0.02103442 0.015808813 -0.0085771745 0.029543541
-0.025704786 -0.005804677 -0.0009612588 0.014335446 0.029789446 -0.020335518 0.035608266 0.03401845
0.009478064 -0.023524407 0.011771431 0.0074463445 -0.012978554 0.03439741 -0.028714279 -0.012712962
-0.013400119 -0.009915418 0.02644903 -0.001807029 0.0049408018 -0.031879064 -0.02418343 0.022431463
-0.010943301 0.012747937 -0.027554477 -0.020305408 0.017162323 0.02515209 0.0022205084 -0.03234284
-0.02249485 -0.013023728 0.016596576 -0.029045556 -0.022934822 -0.035481334 -0.025196927 0.02582451
-0.013353829 -0.008423818 0.0010766239 -0.0070544383 -0.012225602 -0.0007257202 -0.017934132 0.022625616
-0.0014665659 0.015975807 0.0043056076 0.026925635 0.01734721 -0.017984534 -0.008423586 0.008228715
-0.012885287 -0.024782958 0.029924994 0.023962582 -0.017871577 0.008216021 0.02592217 -0.0216114
-0.0058881105 -0.0294442 -0.03267329 0.028357644 0.012471349 -0.02320397 -0.0026459643 -0.016613953
-0.0065072565 -0.0077214683 0.011283811 0.006155708 -0.024184978 0.017921155 0.0026614135 -0.018650832
-0.020723063 -0.0008165282 0.012460317 -0.032953423 -0.0082751205 -0.02577706 -0.03339021 0.019169165
-0.0122969495 -0.034011047 -0.010255713 -0.019696264 0.019332675 -0.005580143 -0.021616343 -0.014620496
-0.0078726765 0.02735871 0.0032758676 -0.028250244 -0.009234613 0.032937255 -0.03054515 -0.013362001
0.031136211 -0.014376328 0.027184937 -0.023375422 0.027063549 0.023572624 -0.006647483 -0.0331039
-0.012055526 0.008958001 -0.011949137 -0.028476316 -0.031595107 0.01702517 0.025761615 -0.013508686
0.0013797368 -0.021862132 0.020630166 -0.023494994 -0.02028273 -0.014537967 -0.006557937 0.004419376
-0.033648513 -0.013060018 -0.015525084 -0.0072838743 -0.0020324795 0.0016769134 0.018232876 -0.020317268
0.00079230644 0.032428376 0.0045517413 -0.026520574 0.024450224 -0.03168902 0.014531422 0.029588778
0.004447985 0.01912721 0.028360812 0.016319817 -0.010756092 0.0077792197 0.02891481 0.0083439695
-0.028412906 0.03108186 0.034592096 0.020697482 0.019426528 0.020051494 -0.021712918 -0.010749169
0.015448757 0.009098958 0.015150764 -0.000667958 -0.03440729 0.016899288 -0.02249268 -0.02950104
0.03532049 0.015743397 0.017751582 -0.01562825 0.013134276 0.003007781 0.024336793 0.0041561057
0.031920105 -0.008385197 0.032933153 0.035370294 0.004199569 -0.026214587 -1.0623538e-05 0.028425137

fc1.bias f4 [16]
00000000: a10c c7bc 3eb8 e43c a6ab e73b 4b65 c43c
00000010: a0ae 423b 0a91 32bc aa29 0ebd aacf 66bb
00000020: 045b 1cbc a3d3 703b 91b1 c1bc 689f de3c
00000030: 7ed7 c9ba d708 f33c a55d 8e3c aa1f a0bc
-0.024298014 0.027919885 0.0070700226 0.023974082 0.0029706135 -0.010898838 -0.034707703 -0.0035218992
-0.009543184 0.003674724 -0.02364424 0.02717562 -0.0015399305 0.029667301 0.017378638 -0.019546349

fc2.weight f4 [2, 16]
00000000: 6325 cebc 0d37 e4bc 7238 f9bd a708 b63d
00000010: c1d6 8b3c 9de2 723e 57a2 083d ebc9 383e
00000020: d13a 1f3e 2a64 be3d ce8f 67be b3af 053e
00000030: 058a d0bb c0e1 c13a 9ac3 2fbe fbb2 2cbe
00000040: 760f 033e abaf 9f3d 32af d83d 85e2 65be
00000050: c99f d1bd e15a 1cbe 844b 22be c63b f63d
00000060: 53c0 1c3c e27d 93bd 4a5a ed3b 2225 93bd
00000070: 05c7 db3b 4272 59be efdb 1d3d 5d81 353e
-0.025164312 -0.027858282 -0.12168969 0.08888369 0.017070176 0.23719259 0.033357944 0.18045776
0.1554978 0.092964485 -0.22613451 0.13055305 -0.0063641095 0.001479201 -0.1716446 -0.1686515
0.12798867 0.07797178 0.10580291 -0.22449692 -0.10235555 -0.15269043 -0.1584912 0.1202312
0.009567338 -0.072017446 0.0072434293 -0.07184817 0.0067070746 -0.21234992 0.038539823 0.1772513

fc2.bias f4 [2]
00000000: 3d77 583e 6110 263e
0.21139236 0.16217186
