Unimodal/weights/video/Meso4_realA_fakeC.pt (torch, 102545 bytes, 16 tensors)

conv1.weight f4 [8, 3, 3, 3]
0	0xbdbe47cb	-0.09291037
1	0x3e429c3a	0.19004908
2	0xbdc1f480	-0.09470463
3	0xbcc3fc0d	-0.023923898
4	0xbdeb95b4	-0.11503163
5	0x3d5eac73	0.05436368
6	0x3e26075a	0.16213742
7	0x3d8269d1	0.06367839
8	0xbc4d107e	-0.012516139
9	0xbd81a88c	-0.06330976
10	0x3e2db88c	0.1696493
11	0x3e28c831	0.16482617
12	0x3cff8b73	0.031194424
13	0xbddd74aa	-0.108132675
14	0x3e42d5e2	0.19026902
15	0xbd2b778d	-0.04186206
16	0x3df17357	0.117895775
17	0x3e12fa42	0.14353278
18	0xbe19b79d	-0.15011449
19	0x3cae317f	0.021263836
20	0x3e07313f	0.1320238
21	0x3e22650e	0.15858862
22	0x3b190b31	0.0023352618
23	0x3dee5605	0.11637501
24	0x3c14166d	0.00903855
25	0xbd02e49f	-0.03195631
26	0x3df59df1	0.119930156
27	0x3d34971f	0.044089433
28	0xbdc156b9	-0.09440369
29	0xbdbd401f	-0.09240746
30	0x3e0a672a	0.13515916
31	0x3ca11296	0.019662183
32	0x3d38ce23	0.045118462
33	0x3e0c911e	0.13727233
34	0x3ddfab1f	0.10921311
35	0x3d27381c	0.040824994
36	0xbc95e4bb	-0.018297544
37	0x3e4222f4	0.18958646
38	0xbe2c6d65	-0.16838606
39	0xbd8189fb	-0.06325146
40	0x3d4bdbe6	0.04977026
41	0x3e20638d	0.15662976
42	0x3e17c411	0.14820887
43	0xbd9f0196	-0.07763974
44	0x3cd5547e	0.026041266
45	0x3e2ddb45	0.16978176
46	0x3e1d970f	0.15389656
47	0x3dd407a0	0.10353017
48	0xbe201cc3	-0.15635972
49	0x3e416a9d	0.18888326
50	0x3dc94cf3	0.0982913
51	0x3b83a9be	0.0040180376
52	0x3d2999db	0.041406494
53	0xbdf49215	-0.119419254
54	0x3df825c9	0.12116582
55	0x3e356b6c	0.1771676
56	0x3d94cf22	0.0726607
57	0x3df64d74	0.12026492
58	0x3e0ee004	0.13952643
59	0x3e364f9c	0.17803806
60	0x3e39f979	0.18161573
61	0x3b5d8b9e	0.0033805142
62	0x3d5ec58d	0.054387618
63	0x3caf822f	0.021424381
64	0x3e047e8d	0.129389
65	0xbd1d9059	-0.03846774
66	0xbd928ebd	-0.071561314
67	0xbdf71e80	-0.12066364
68	0xbb2dde7a	-0.0026530311
69	0xbd916824	-0.070999414
70	0xbe41cfa2	-0.18926862
71	0x3e09347a	0.13398924
72	0xbe22d892	-0.15902928
73	0x3d3c2f0e	0.045943312
74	0xbe28d635	-0.16487963
75	0x3dfeec84	0.124474555
76	0x3c3acc05	0.011401181
77	0x3cf4c73a	0.029880155
78	0x3d1c76d3	0.038199257
79	0x3e1ed130	0.15509486
80	0xbd097b75	-0.033565003
81	0xbe1a97bf	-0.15096949
82	0xbdf693af	-0.12039887
83	0x3dfa4913	0.12220969
84	0x3c93729f	0.017998992
85	0xbdb5ab53	-0.08870568
86	0x3c92c9f7	0.01791857
87	0x3c60a9a4	0.0137123205
88	0x3e0c67be	0.1371145
89	0x3e162917	0.14664112
90	0x3b76fb80	0.0037686527
91	0xbd13f803	-0.036125194
92	0x3e33f894	0.17575294
93	0x3e339495	0.17537148
94	0xbcca1013	-0.024665868
95	0x3e27e3fb	0.16395561
96	0x3dbed86c	0.09318623
97	0xbd966361	-0.07343174
98	0xbcc5a722	-0.024127547
99	0x3ddc919b	0.107699595
100	0xbe2f62ea	-0.17127576
101	0xbdb5f7d2	-0.088851586
102	0x3c38bab3	0.011274981
103	0x3e22fd65	0.15916975
104	0x3dc9c745	0.09852461
105	0x3d613d3b	0.054990035
106	0x3c95023b	0.01818954
107	0x3d20b60c	0.039236113
108	0x3cbbd9a2	0.022930924
109	0xbe0fccd3	-0.14042978
110	0xbc83801a	-0.016052295
111	0xbdd7fc23	-0.10546138
112	0x3e1e5173	0.15460758
113	0xbdd40329	-0.10352165
114	0x3e041056	0.12896857
115	0x3c9caafc	0.0191245
116	0x3dc841b3	0.09778156
117	0x391858cd	0.0001452893
118	0x3e373fb0	0.17895389
119	0x3e2d5503	0.1692696
120	0xbe2f60e1	-0.171268
121	0xbd0ac5db	-0.033880096
122	0x3dc6fedb	0.097165786
123	0x3d3ad145	0.04560973
124	0x3bd49efc	0.006488679
125	0xbe09c9fc	-0.13455957
126	0x3e16a830	0.14712596
127	0x3e313e0f	0.1730883
128	0xbdff808c	-0.1247569
129	0x3e399de6	0.1812664
130	0xbd2894a8	-0.041157395
131	0xbd40ec82	-0.04710055
132	0x3df27acd	0.11839829
133	0xbddec38b	-0.108771406
134	0xbe21c9c4	-0.15799624
135	0xbe1d0b64	-0.15336376
136	0x3e13ac4f	0.144212
137	0x3d67dcda	0.056607105
138	0x3e3bcd4d	0.18340035
139	0x3bb751c4	0.005594464
140	0x3dd46d46	0.10372405
141	0x3dcf33c5	0.10117296
142	0xbdfd5b12	-0.12370886
143	0xbe3676af	-0.17818712
144	0x3ddc73ad	0.10764251
145	0x3e126faf	0.14300416
146	0x3d842c79	0.06453795
147	0xbe37e559	-0.17958583
148	0xbdb449b4	-0.0880312
149	0xbe248507	-0.16066371
150	0xbd545ef8	-0.05184838
151	0x3d2089b5	0.039193828
152	0x3d532a97	0.05155429
153	0xbde2f219	-0.11081333
154	0x3c9b9c79	0.01899551
155	0x3d65cdf6	0.056104623
156	0xbdce058c	-0.10059652
157	0x3d2550bd	0.0403602
158	0xbd41f084	-0.047348514
159	0x3d9f376c	0.07774243
160	0x3e23347b	0.15937988
161	0xbe1d1d9f	-0.15343331
162	0x3ddb520c	0.107090086
163	0x3da8f539	0.082498975
164	0xbe062553	-0.13100176
165	0xbca0a9de	-0.019612249
166	0x3d530c1a	0.051525213
167	0xbbc8ef5f	-0.006132051
168	0xbe0dd050	-0.13848996
169	0x3beab8ec	0.0071631577
170	0x3b2fb42a	0.0026810267
171	0x3da4d068	0.08047563
172	0xbe08a665	-0.13344724
173	0x3bbb3036	0.0057125343
174	0xbde17119	-0.110079
175	0xbe2fc168	-0.17163622
176	0xbd5abdb9	-0.05340359
177	0xbe3f9741	-0.18710043
178	0x3e2db5c7	0.16963874
179	0x3d0f7c96	0.035030924
180	0x3e0685f0	0.1313703
181	0x3db74791	0.08949197
182	0xbe40a1f1	-0.18811776
183	0xbd63a318	-0.05557546
184	0xbd90f9aa	-0.0707887
185	0xbde3b17b	-0.11117836
186	0xbe11c478	-0.14235103
187	0xbd4fe329	-0.050753746
188	0x3e3c7c97	0.18406902
189	0x3e060f72	0.1309183
190	0xbe16ff56	-0.1474584
191	0x3daed9b3	0.085376166
192	0x3dea02d4	0.11426321
193	0x3e392984	0.18082243
194	0xbe3c23b3	-0.18372993
195	0xbdcaed43	-0.09908535
196	0x3e2d7af9	0.16941442
197	0xbd8cbff6	-0.06872551
198	0x3d5b3d6c	0.053525373
199	0xbe20e748	-0.15713227
200	0x3e41550e	0.18880102
201	0x3d39990e	0.04531198
202	0x3e06a071	0.13147141
203	0xbc5bc80b	-0.013414393
204	0x3e3c3c39	0.18382348
205	0xbdd3935f	-0.10330843
206	0x3cfb1636	0.03065024
207	0xbdef11d8	-0.11673325
208	0x3e28c7db	0.16482489
209	0xbd47c857	-0.048775043
210	0x3da93fda	0.08264132
211	0x3da4e5c7	0.08051639
212	0x3e322730	0.17397761
213	0xbdcff00a	-0.10153206
214	0x3e3a0209	0.18164839
215	0x3e36ed24	0.178639

bn1.weight f4 [8]
0	0x3f7f9903	0.9984285
1	0x3f7fc8c8	0.9991574
2	0x3f7fafce	0.9987763
3	0x3f7fe71e	0.9996203
4	0x3f801a45	1.0008017
5	0x3f8041c9	1.0020076
6	0x3f80044a	1.0001309
7	0x3f800fe3	1.0004848

bn1.bias f4 [8]
0	0x3a9d9dfa	0.001202523
1	0xba34d965	-0.00068988494
2	0xba7689bd	-0.000940468
3	0xba5b08ce	-0.0008355499
4	0xb92f4be4	-0.00016717572
5	0xba2599f6	-0.00063171925
6	0xba108ac5	-0.00055138423
7	0xba0f506e	-0.0005467002

bn1.running_mean f4 [8]
0	0x3ed6574b	0.41863474
1	0x3edb50e1	0.42835143
2	0x3ed4e7cd	0.415831
3	0x3ea8ef1b	0.32994923
4	0x3ea7393a	0.32660848
5	0x3e13d5ef	0.14437078
6	0x3e5335bb	0.20625965
7	0x3e97307b	0.29529175

bn1.running_var f4 [8]
0	0x3ec54c2b	0.38534674
1	0x3ec6a374	0.3879658
2	0x3ec867b4	0.3914162
3	0x3e802f68	0.25036168
4	0x3e013c4e	0.1262066
5	0x3e0b1aec	0.13584489
6	0x3d90e52d	0.07074962
7	0x3eaf62ba	0.3425501

conv2.weight f4 [8, 8, 5, 5]
0	0x3d16d414	0.036823347
1	0x3d2dea42	0.042459734
2	0x3c80944c	0.015695713
3	0xbd466d99	-0.048444364
4	0x3d5e8300	0.05432415
5	0xbd014e57	-0.03156885
6	0x3ca72681	0.020404102
7	0xbb78017c	-0.0037842682
8	0x3ca741b3	0.02041707
9	0x3ce57df0	0.028014153
10	0x3c988657	0.018618746
11	0xbc9caadf	-0.019124446
12	0xbc468806	-0.012117391
13	0xbd87680c	-0.06611642
14	0xbd23b920	-0.03997147
15	0xbd8e6ded	-0.069545604
16	0xbbe3a8f3	-0.0069476306
17	0x3d7ac582	0.061223514
18	0x3b268b33	0.002541256
19	0xbd7cfc4c	-0.061764047
20	0xbd8c93b6	-0.06864111
21	0xbc953016	-0.018211406
22	0xbbf4c7e0	-0.007470116
23	0xbcd7a7d5	-0.026325146
24	0xbd41b900	-0.04729557
25	0x3c5be8a7	0.013422168
26	0x3d13a830	0.036049068
27	0xbce4481a	-0.027866412
28	0xbd06b354	-0.032885864
29	0xbd774cff	-0.060376164
30	0xbd18f06f	-0.03733867
31	0x3d38f521	0.04515565
32	0xbd6d6238	-0.057954997
33	0xbc71c06a	-0.014755348
34	0xbc28aff3	-0.010295856
35	0xbc0d69f0	-0.0086312145
36	0x3b93f225	0.00451495
37	0xbd654d02	-0.055981643
38	0xbc825372	-0.01590893
39	0x3c2743a8	0.010209002
40	0x3c10dc84	0.0088416375
41	0xbc133ee2	-0.00898716
42	0x3c1798c2	0.009252729
43	0x3cc157fa	0.02360152
44	0xbd3ae4e7	-0.045628455
45	0x3c4453c7	0.011982865
46	0xbd532d73	-0.051557016
47	0xbd849a42	-0.06474735
48	0x3d86a1a1	0.06573797
49	0xbbb5a509	-0.0055433554
50	0x3ce73d67	0.028227521
51	0x3cc44ab9	0.023961412
52	0x3c4ecf43	0.012622657
53	0x3cbc99b8	0.023022518
54	0xbd77aa30	-0.060465038
55	0xbd7c8274	-0.061647847
56	0xbd3c56e9	-0.04598132
57	0xbd17730c	-0.03697495
58	0x3d6a7f98	0.05725059
59	0xbd5398f7	-0.05165955
60	0xbd56a9b8	-0.05240795
61	0x3d030ccd	0.03199463
62	0x3d5e9289	0.054338966
63	0x3d0e67d9	0.034767006
64	0xbd3faf1d	-0.04679786
65	0x3d8e1d32	0.06939162
66	0x3d2f8055	0.042846996
67	0xbd229fa0	-0.03970301
68	0xba5fe60c	-0.00085410546
69	0xbd06a13f	-0.03286862
70	0xbd61a60e	-0.055090003
71	0xbd19d74c	-0.03755884
72	0xbd6433b2	-0.055713363
73	0xbcc6d3b9	-0.02427088
74	0x3cdf55f4	0.027262665
75	0xbd16ee66	-0.03684845
76	0xbd780735	-0.06055375
77	0x3b2e6e77	0.0026616135
78	0x3d4e4f55	0.050368626
79	0xbd1ce5d8	-0.038305134
80	0xbc83e37a	-0.01609968
81	0xbd42f5ac	-0.047597572
82	0x3c295e5b	0.0103374375
83	0x3d319fb0	0.04336518
84	0xbd177e31	-0.03698558
85	0x3c5f41c3	0.013626519
86	0x3d629239	0.05531523
87	0x3cb88d15	0.02252821
88	0x3ced2fdc	0.028953485
89	0xbc3730a2	-0.011181029
90	0x3d6e50b7	0.058182444
91	0xbd73b1b4	-0.059495643
92	0xbd6db03d	-0.058029402
93	0x3d16cbfd	0.036815632
94	0x3d7573c2	0.05992485
95	0xbd09daff	-0.033656117
96	0x3b216bba	0.002463086
97	0x3c1a0a3b	0.009401853
98	0x3c864555	0.016390482
99	0x3c34c1ad	0.011032504
100	0x3d038d3f	0.032117125
101	0x3d260aa5	0.040537495
102	0x3b689e2a	0.0035494664
103	0xbbab2a7e	-0.0052235713
104	0x3cc4fc28	0.024046019
105	0x3d600ce8	0.05469981
106	0xbd631ae3	-0.055445563
107	0xbd245e5c	-0.04012905
108	0xbc95f17c	-0.018303625
109	0xbd58ee43	-0.0529616
110	0x3d2df833	0.04247303
111	0x3d727ea1	0.059202794
112	0xbd6e1145	-0.05812194
113	0xbd70ae10	-0.05875975
114	0x3d26ef68	0.04075566
115	0x3d4c4b91	0.049876753
116	0xbd3090bd	-0.043106783
117	0xbc557e83	-0.013030651
118	0xbd343043	-0.04399134
119	0x3c7d1382	0.015446546
120	0xbd4704b8	-0.048588485
121	0x3d858d53	0.06521096
122	0xbd4de797	-0.05026969
123	0xbbfff6b8	-0.0078113936
124	0xbd1e48a5	-0.038643498
125	0xbd18550d	-0.037190486
126	0xbd80c235	-0.06287042
127	0x3d6b077a	0.057380177
128	0xbca889dd	-0.02057355
129	0xbd8ebd9f	-0.06969761
130	0x3d84f5b1	0.064921744
131	0x3c6da766	0.014505243
132	0xbc718230	-0.014740512
133	0x3d822800	0.06355286
134	0x3d69343d	0.056934584
135	0x3cda5c5d	0.02665537
136	0xbd25010a	-0.040284194
137	0xbc41fd58	-0.011840187
138	0x3d3458be	0.044029944
139	0x3d429f6d	0.04751532
140	0x3d4858c6	0.048912786
141	0x3c0c75cc	0.008573007
142	0xbd355910	-0.04427439
143	0xbd84b03b	-0.06478926
144	0xbd3368bb	-0.04380105
145	0xbd39019e	-0.045167558
146	0xbd816c7e	-0.06319521
147	0xbd6301b1	-0.055421535
148	0xbd5725c7	-0.05252626
149	0xbbf6774d	-0.007521546
150	0x3d409216	0.04701432
151	0x3d0c1ae3	0.03420533
152	0x3d2411e7	0.040056136
153	0x3d8c671e	0.068556055
154	0xbc30415d	-0.010757771
155	0x3c6e636d	0.014550072
156	0xbcadde73	-0.021224236
157	0xbd3ebdf9	-0.04656789
158	0xbd00383e	-0.031303637
159	0x3d011983	0.03151847
160	0x3bf9a24b	0.007618224
161	0x3d8d6c69	0.06905443
162	0x3ccdc71a	0.025119353
163	0xbd346ce7	-0.04404917
164	0xbd380c69	-0.04493371
165	0xbd2ea761	-0.042640094
166	0xbd55a0d7	-0.052155342
167	0x3d08d9ff	0.033411022
168	0x3d2f67ee	0.042823724
169	0x3d486bca	0.04893092
170	0xbc6decbb	-0.014521773
171	0xbd4416c2	-0.047873266
172	0xbc5429c0	-0.012949407
173	0x3d83f8c9	0.064439364
174	0xbc98a5f2	-0.018633816
175	0xbd3d6ab1	-0.046244327
176	0xbce22631	-0.027606102
177	0x3ceb7e4d	0.028746748
178	0x3d19cbb5	0.037547786
179	0x3d8b2c04	0.06795505
180	0xbbb07608	-0.005385164
181	0x3d365744	0.044516817
182	0x3c65c2a8	0.01402346
183	0xbd600de8	-0.054700762
184	0xbd1c534a	-0.03816537
185	0x3c58c2b9	0.013230019
186	0x3d8a7cff	0.06762122
187	0xba7a2787	-0.0009542633
188	0xbc9ef82c	-0.019405447
189	0xbd535939	-0.05159876
190	0xbd7f10f8	-0.062272042
191	0xbc3dabca	-0.011576602
192	0x3b3002b4	0.002685708
193	0xbd7cdfd1	-0.061736885
194	0x3d4d3c5e	0.0501064
195	0x3cfa9633	0.030589199
196	0x3d8da607	0.06916433
197	0xbc133a1b	-0.008986021
198	0x3cf72b7f	0.030172108
199	0xbd08a7a1	-0.03336299
200	0xbd7e46ac	-0.062079117
201	0xbbeeca20	-0.007287279
202	0xbcbc672b	-0.022998413
203	0x3c860766	0.01636095
204	0xbd82218b	-0.06354054
205	0xbd5686a6	-0.052374505
206	0x3d12917b	0.035783272
207	0x3d3f0821	0.04663861
208	0xbd649de7	-0.05581465
209	0x3b336ef9	0.0027379377
210	0x3c87c8f9	0.016575323
211	0xbc3d3d45	-0.011550252
212	0x3d8c95f5	0.068645395
213	0xbcd3dc1e	-0.025861796
214	0xbcc3be37	-0.023894412
215	0xbd36622b	-0.044527214
216	0x3b284890	0.0025678016
217	0xbcddfbda	-0.027097631
218	0x3d26783e	0.040642016
219	0xbccd1468	-0.025034145
220	0xbce78e30	-0.028266042
221	0xbc71a0da	-0.014747823
222	0x3d5bcdd8	0.053663105
223	0xbd8e74d3	-0.06955876
224	0x3c8aba83	0.016934639
225	0xbcbd714c	-0.023125313
226	0x3c317156	0.010830244
227	0xbd5726c3	-0.0525272
228	0xbd8923f8	-0.066963136
229	0x3c794a37	0.015215448
230	0xbd3050e3	-0.04304589
231	0xbd7e4aba	-0.062082984
232	0x3cfb075f	0.030643163
233	0x3d635a27	0.055505898
234	0x3c829690	0.015940934
235	0x3cafd44c	0.021463536
236	0xbd34bd7f	-0.04412603
237	0x3cdc3550	0.02688089
238	0x3bbe5ae8	0.0058091767
239	0xbc4eb9eb	-0.0126175685
240	0x3d7a26ba	0.06107209
241	0x3cbbbf08	0.02291824
242	0xbd27463d	-0.04083847
243	0xbc323661	-0.010877223
244	0x3d5c6777	0.05380961
245	0x3c8e103e	0.01734173
246	0xbc950e0d	-0.018195176
247	0xbd7e8a81	-0.062143806
248	0xbc3b1ed3	-0.011420923
249	0x3d82507d	0.06363008
250	0x3d89cfe4	0.06729105
251	0x3cbf8ab3	0.023381567
252	0xbd7a6378	-0.061130017
253	0xbd23ff24	-0.040038243
254	0x3d385e85	0.045012016
255	0xbc42017a	-0.011841172

bn2.weight f4 [16]
0	0x3f7f4102	0.9970857
1	0x3f7ee93b	0.9957463
2	0x3f7f8542	0.9981271
3	0x3f7ed5d3	0.9954502
4	0x3f7f0789	0.9962087
5	0x3f800199	1.0000488
6	0x3f7edef5	0.99558955
7	0x3f7ebb80	0.9950485
8	0x3f7f0521	0.996172
9	0x3f7fa672	0.9986335
10	0x3f7f6622	0.9976522
11	0x3f7f55f5	0.99740535
12	0x3f7fd5ff	0.9993591
13	0x3f7f2dc6	0.9967922
14	0x3f801897	1.0007504
15	0x3f7ebdf9	0.99508625

bn2.bias f4 [16]
0	0xbaf94e62	-0.0019020552
1	0xbb3cf66a	-0.0028833398
2	0x3889216d	6.538895e-05
3	0xbb99510a	-0.00467885
4	0xbb32130e	-0.0027172002
5	0x3b88e76f	0.0041779797
6	0xbb658644	-0.0035022656
7	0xbb88dde2	-0.004176841
8	0xbb7ff608	-0.0039056558
9	0xbb0864f3	-0.0020812124
10	0x3b4d97a8	0.0031370912
11	0xbab71345	-0.0013967535
12	0xba5cbdaa	-0.0008420596
13	0xbb5754a2	-0.0032856842
14	0x3b8428b7	0.004033174
15	0xbb7689db	-0.003761879

bn2.running_mean f4 [16]
0	0x3e84838a	0.25881606
1	0x3e9a39cf	0.3012223
2	0x3e497128	0.19672072
3	0x3ed80d73	0.4219776
4	0x3ea99167	0.33118746
5	0x3e98fe15	0.2988135
6	0x3e904ed3	0.28185138
7	0x3e7c88ae	0.24661514
8	0x3e715a4e	0.23569605
9	0x3e261532	0.16219023
10	0x3e297405	0.16548164
11	0x3ea67846	0.32513636
12	0x3ec4978a	0.38396865
13	0x3ea3c7ba	0.31988317
14	0x3e4acf83	0.19805722
15	0x3eac3c23	0.3363963

bn2.running_var f4 [16]
0	0x3e1e4280	0.15455055
1	0x3e5c1a4f	0.21494411
2	0x3ddf4272	0.10901345
3	0x3eca4283	0.3950387
4	0x3e8fa99e	0.28059095
5	0x3e24afe0	0.16082716
6	0x3e19c730	0.1501739
7	0x3e15d63b	0.14632504
8	0x3e332f01	0.174984
9	0x3d819097	0.063264064
10	0x3db9ce07	0.090725
11	0x3e3e65fc	0.18593591
12	0x3e8a30c1	0.2699032
13	0x3e511543	0.20418267
14	0x3db463cd	0.08808098
15	0x3e76b8cf	0.24093936

conv3.weight f4 [16, 8, 5, 5]
0	0x3d019c33	0.031643104
1	0xbc2cb8d9	-0.010542118
2	0x3c2342e0	0.009964675
3	0xbd73d310	-0.059527457
4	0xb9882ee8	-0.0002597489
5	0xbcb5eff7	-0.02220915
6	0xbd1dfcac	-0.038571045
7	0xbca6def0	-0.020369977
8	0x3cb5fe9c	0.022216134
9	0x3d75f1de	0.060045116
10	0xbccc43a6	-0.024934601
11	0xbd799c6c	-0.06094019
12	0x3ba804f3	0.005127543
13	0xbd22a3d7	-0.03970703
14	0x3cdb3027	0.02675636
15	0x3ca25306	0.01981498
16	0xbce31e2e	-0.027724352
17	0xbcabbf4e	-0.020965245
18	0xbd07541c	-0.033039197
19	0xbd004a46	-0.031320833
20	0xbd832a97	-0.06404608
21	0xbd8f4949	-0.069964
22	0xbd732aea	-0.059367098
23	0x3d8604c7	0.0654388
24	0x3ca5f942	0.020260457
25	0x3c279404	0.010228161
26	0xbd41c0a1	-0.047302846
27	0xbca14a67	-0.019688798
28	0x3d849591	0.0647384
29	0x3cbca8c5	0.023029694
30	0x394f64f8	0.00019778672
31	0xbcee59e3	-0.029095596
32	0xbcb752dc	-0.022378378
33	0x3c8f4103	0.017487055
34	0xbd8b01fc	-0.06787488
35	0xbd7f074b	-0.062262814
36	0x3d82cb1e	0.06386398
37	0xbc1a90e7	-0.0094339615
38	0x3c11f38e	0.008908166
39	0xbd8b71b3	-0.06808796
40	0x3d4d542a	0.050129093
41	0x3c86d68a	0.016459722
42	0xbd507d61	-0.05090082
43	0xbc576095	-0.013145586
44	0xbd167703	-0.036734592
45	0xbd844d7b	-0.06460091
46	0xbcf1a531	-0.029497715
47	0xbc71b8f1	-0.014753566
48	0xbc46c33f	-0.012131511
49	0xbd50b529	-0.050954018
50	0x3d098ded	0.033582617
51	0xbd717e60	-0.05895841
52	0xbd01dac2	-0.031702764
53	0x3d6760a2	0.05648864
54	0x3d0b85e2	0.034063227
55	0x3ce7a6c1	0.028277757
56	0xbd2e2c98	-0.042522997
57	0xb96217e4	-0.0002156194
58	0xba6686d4	-0.00087938947
59	0x3d883cc2	0.06652214
60	0x3c1b3df5	0.009475221
61	0xbbecfb71	-0.0072321226
62	0xbd858248	-0.0651899
63	0xbd60ff58	-0.054931015
64	0x3bfd6abf	0.0077336724
65	0xbd893893	-0.06700244
66	0xbc98a031	-0.018631073
67	0x3c5f123e	0.013615189
68	0x3d8e67ec	0.06953415
69	0xbd436747	-0.047705915
70	0x3d8ffd63	0.070307516
71	0xbc66c0e1	-0.014084072
72	0x3ca2fff0	0.019897431
73	0x3c858735	0.016299823
74	0xbc982d5e	-0.01857632
75	0xbd2750f9	-0.040848706
76	0x3c248488	0.010041364
77	0xbcc31f27	-0.023818566
78	0xbd5e1bdf	-0.0542258
79	0x3d29d06b	0.04145853
80	0x3d23b582	0.03996802
81	0x3d1ebbd9	0.038753364
82	0x3c603e94	0.013686795
83	0x3c101b33	0.008795547
84	0x3c7bbd8c	0.015365016
85	0x3d75066c	0.059820578
86	0x3d033a1b	0.032037836
87	0xbd1358f1	-0.035973493
88	0x3cd0e2f0	0.025498837
89	0xbd0d40d0	-0.03448564
90	0xbd13a3db	-0.036044937
91	0xbc8ea935	-0.017414669
92	0xbcb27207	-0.021782888
93	0xbd8bb3cd	-0.06821404
94	0x3d3275cf	0.043569382
95	0x3cfb59ac	0.030682407
96	0x3d4e51b7	0.050370898
97	0x3c82e379	0.015977608
98	0x3d355300	0.044268608
99	0x3d440df6	0.047864877
100	0x3c8305a4	0.0159939
101	0x3d127eef	0.035765585
102	0xbd48ddf9	-0.049039815
103	0xbd612169	-0.054963503
104	0x3d7684d2	0.06018526
105	0x3d289ba7	0.041164067
106	0xbd344482	-0.044010647
107	0x3d2e22e5	0.042513747
108	0xbcc33536	-0.023829084
109	0x3cb5ff13	0.022216355
110	0x3d404b47	0.04694679
111	0x3bab9cd9	0.0052372036
112	0xbd0e4b10	-0.034739554
113	0xbd1f6b1b	-0.038920503
114	0xbd81fa86	-0.06346612
115	0x3d712896	0.058876596
116	0xbd857975	-0.06517307
117	0xbcfbbf53	-0.030730879
118	0xbc50e963	-0.012750956
119	0x3ccf09fc	0.025273316
120	0xbd866d72	-0.06563844
121	0xbd5bc82e	-0.053657703
122	0xbcec3c4b	-0.028837344
123	0x3d4c0c55	0.04981645
124	0xbcfdfa7f	-0.031003235
125	0xbd822783	-0.063551925
126	0xbd125557	-0.035725918
127	0xbd86df4c	-0.06585559
128	0x3cc6a4a3	0.024248427
129	0x3c791ced	0.01520465
130	0xbd1132e7	-0.035448935
131	0x3d76edda	0.060285427
132	0xbcc4e577	-0.024035199
133	0xbd280a2f	-0.041025337
134	0xbcefdde7	-0.029280616
135	0xbbd12050	-0.006382026
136	0x3d5e46ed	0.05426686
137	0xbd62d701	-0.055380825
138	0x3d859696	0.065228626
139	0x3d4e1fd5	0.050323326
140	0xbcb47bb3	-0.02203164
141	0xbd6809aa	-0.05664984
142	0x3d040715	0.032233316
143	0x3ca9a714	0.020709552
144	0xbbf63f4f	-0.007514871
145	0xbd8f3d7f	-0.06994151
146	0xbd916284	-0.070988685
147	0xbd1a9760	-0.03774202
148	0xbd66a265	-0.056307215
149	0xbba47a06	-0.005019429
150	0x3d730495	0.05933054
151	0x3cd9db3b	0.026593795
152	0xbd6557fa	-0.055992104
153	0xbc90997e	-0.017651316
154	0xbc83f7cd	-0.016109372
155	0x3bc4f9da	0.00601123
156	0x3d6a6a39	0.057230208
157	0xbbb35e6e	-0.0054739034
158	0x3c97e81d	0.018543297
159	0xbd26147f	-0.04054689
160	0x3d52d689	0.051474128
161	0x3c381944	0.011236493
162	0x3d8a7265	0.067601
163	0x3d5ed02b	0.054397743
164	0xbd41a6e9	-0.04727832
165	0x3c0dff6b	0.008666853
166	0xbd121498	-0.03566417
167	0x3d3a582b	0.04549424
168	0xbd41bc9d	-0.047299016
169	0x3c6fa6aa	0.014627138
170	0x3d3c277b	0.04593609
171	0xbd64af62	-0.05583132
172	0x3c17d751	0.009267644
173	0xbd0f4c0f	-0.034984645
174	0x3d375979	0.044763062
175	0x3bb47b22	0.0055078426
176	0x3d884eea	0.06655677
177	0xbcbf4d7e	-0.02335238
178	0x3d2e202d	0.042511154
179	0xbc98488f	-0.018589286
180	0x3cc92e5e	0.024558242
181	0xbd0fdf2e	-0.03512495
182	0xbd84c790	-0.06483376
183	0xbd8ae969	-0.06782801
184	0x3d825f9d	0.06365893
185	0x3cf593ab	0.02997764
186	0xbd251f95	-0.040313322
187	0xbcd4e5f7	-0.025988562
188	0x3d322a0e	0.043497138
189	0x3ba56471	0.005047374
190	0xbd850bde	-0.06496404
191	0x3d438138	0.047730654
192	0x3d88bc10	0.06676495
193	0xbb9e400f	-0.0048294137
194	0x3d369483	0.044575226
195	0xbd7c2d7e	-0.061566822
196	0x3d67b9d4	0.056573704
197	0xbd01d391	-0.031695906
198	0x3d5c83ef	0.05383676
199	0xb864743e	-5.4467695e-05
200	0x3d161213	0.03663833
201	0xbaafde1e	-0.0013417637
202	0xbcf2151f	-0.029551087
203	0xbb4e96af	-0.003152292
204	0x3d8a8a40	0.0676465
205	0xbd6c3f59	-0.0576776
206	0xbd3cbacd	-0.046076585
207	0x3d13f9fe	0.036127083
208	0xbd8a5aa6	-0.06755571
209	0x3c88f984	0.01672054
210	0x3d228325	0.03967585
211	0xbcddde40	-0.027083516
212	0x3d824805	0.06361393
213	0xbc222ec8	-0.009898849
214	0xbd0a6718	-0.033789724
215	0x3c22aadb	0.00992843
216	0x3d0b46ef	0.034003194
217	0x3d3d2230	0.046175182
218	0xbd215608	-0.039388686
219	0xbd86d75d	-0.06584046
220	0xbc2ef6b0	-0.010678932
221	0xbd7d1617	-0.061788645
222	0xbd2f21cd	-0.042756844
223	0x3d59dfcc	0.053191945
224	0x3b9fdfe8	0.0048789866
225	0xbcdd3249	-0.027001517
226	0x3c244a18	0.010027431
227	0x3c177309	0.009243735
228	0x3d22e1f5	0.03976627
229	0xbd373e6d	-0.04473727
230	0x3d6cad90	0.05778271
231	0xbd12136e	-0.03566306
232	0xbd63d905	-0.055626888
233	0x3d875288	0.066075385
234	0xbcd443b9	-0.025911199
235	0x3d601b0a	0.054713286
236	0x3d840e46	0.06448035
237	0xbd561f9c	-0.05227624
238	0xbd833d46	-0.06408171
239	0xbd3fc926	-0.04682269
240	0x3c8bb499	0.01705389
241	0xbc18b129	-0.009319582
242	0xbbd29f72	-0.006427699
243	0x3d803daf	0.06261765
244	0x3d3d87d1	0.046272103
245	0x3d44b6e7	0.04802599
246	0xbd81c4e3	-0.06336381
247	0x3cb1c031	0.02169809
248	0x3d814e21	0.0631373
249	0xbc797e83	-0.015227917
250	0xbd80afb8	-0.06283516
251	0xbc4d19e4	-0.01251838
252	0x3d87a733	0.066236876
253	0xbd3654a3	-0.04451431
254	0xbd467699	-0.048452947
255	0xbd0b8cc3	-0.034069788

conv4.weight f4 [16, 16, 5, 5]
0	0xbc70959d	-0.014684108
1	0xbbd0bba8	-0.0063700266
2	0x3cfcfb1c	0.030881457
3	0xbc555f33	-0.013023186
4	0xbd07689a	-0.03305874
5	0xbc4c2522	-0.012460025
6	0x3d1b286f	0.037880357
7	0xbd14f69b	-0.036367994
8	0x3d2e2ae5	0.042521376
9	0xbce6406f	-0.028106896
10	0x3c602c0d	0.0136823775
11	0xb930ae32	-0.00016849561
12	0xbb8cdbd2	-0.0042986656
13	0x3c8325d1	0.016009243
14	0xbc8e119a	-0.017342377
15	0x3d4ff522	0.050770886
16	0x3cad2621	0.021136345
17	0x3cd95f80	0.026534796
18	0xbc6387ce	-0.013887359
19	0x3c9c2edf	0.019065319
20	0x3ca27f18	0.019835994
21	0x3cb6f6c1	0.022334458
22	0xbd2bbf77	-0.041930642
23	0xbc1279d3	-0.008940178
24	0xbc353273	-0.011059391
25	0xbce3bd5b	-0.027800253
26	0x3d3baed1	0.045821015
27	0x3cf74f25	0.030189106
28	0x3cabb948	0.020962372
29	0xbd2fdbcc	-0.042934224
30	0xba034d94	-0.00050088135
31	0xbcf0aa13	-0.029377973
32	0x3d2045c3	0.03912903
33	0xbcef5290	-0.029214174
34	0x3c81448e	0.01577976
35	0x3d1778eb	0.03698055
36	0xbc297974	-0.010343898
37	0xbd0f5e39	-0.035001967
38	0xbc040096	-0.00805678
39	0x3bba6f87	0.0056895646
40	0x3c97d53c	0.018534295
41	0x3d1ce0df	0.03830039
42	0x3b0589bb	0.0020376283
43	0xbcfc4527	-0.030794693
44	0x3c25a872	0.010110961
45	0x3d28244c	0.04105024
46	0xbcb6aac1	-0.022298219
47	0xbc8dfc47	-0.01733221
48	0xbd3c468a	-0.04596571
49	0x3c53cc9e	0.0129272025
50	0xbbb5e027	-0.0055504027
51	0xbcdc4acd	-0.026891137
52	0xbd3a3edf	-0.045470115
53	0xbcb817c9	-0.02247228
54	0xbd0e1c58	-0.034695
55	0xbcb2230a	-0.021745224
56	0x3d0bdb1d	0.03414451
57	0x3cb81e05	0.022475252
58	0xbd0d110a	-0.034440078
59	0xbc7a3f1e	-0.015273837
60	0x3ca68128	0.020325258
61	0x3cc98629	0.024600105
62	0x3c4fa1d6	0.012672862
63	0x3d0c6450	0.034275353
64	0x3c14bd1d	0.009078291
65	0xb9544297	-0.00020242702
66	0xbc7fee62	-0.0156208
67	0x3ca78cde	0.020452913
68	0xbca83059	-0.020530866
69	0x3d43706a	0.04771463
70	0xbbbb7ca8	-0.0057216473
71	0xbcaaceac	-0.020850502
72	0x3d3e0595	0.046392042
73	0xbcdf83c9	-0.02728452
74	0x3c86d43c	0.016458623
75	0x3a1b5f9f	0.00059270294
76	0x3c342d2b	0.010997097
77	0xbd2a9a74	-0.041651204
78	0xba909b66	-0.001103264
79	0xbd1e7db4	-0.0386941
80	0xbb9224ca	-0.004459952
81	0x3cc08310	0.023499995
82	0xbd44219e	-0.047883622
83	0xbbf2e205	-0.0074121975
84	0xbd42fcfb	-0.047604542
85	0x3cc9d2dc	0.024636678
86	0x3c725a06	0.014791971
87	0xbc19af5f	-0.009380191
88	0x3cf8f0a7	0.03038819
89	0x3b529f8e	0.003213856
90	0xbc2ed88d	-0.010671747
91	0x3d19f73e	0.037589304
92	0x3ccdd999	0.025128173
93	0x3c967d8c	0.018370412
94	0xbba835ae	-0.0051333522
95	0x3c354b5f	0.011065333
96	0xbd24327e	-0.040087216
97	0x3d294803	0.04132844
98	0xbc198e75	-0.009372343
99	0xbb0bab26	-0.002131173
100	0x3c210804	0.009828571
101	0xbd313111	-0.043259684
102	0x3b8c0e4a	0.0042741643
103	0xbc29e508	-0.010369547
104	0xbd045430	-0.03230685
105	0xba819518	-0.0009886352
106	0xbbda495b	-0.0066615767
107	0xbc7f75a5	-0.0155920135
108	0xbca8d86c	-0.02061101
109	0xbd02355c	-0.03178917
110	0x3cfd65c0	0.030932307
111	0x3c9b854a	0.018984456
112	0x3d464b1f	0.048411485
113	0xbc7feb44	-0.015620057
114	0x3cea3283	0.028588539
115	0x3c78adc9	0.015178152
116	0xbbb130fc	-0.0054074507
117	0x3c69e73d	0.014276323
118	0xbbf5d83a	-0.007502583
119	0xbcf1a93a	-0.029499639
120	0x3c9b82a6	0.018983196
121	0xbcb69b20	-0.022290766
122	0x3cdb50b9	0.02677189
123	0x3ccd26c5	0.0250429
124	0x3d4088ff	0.04700565
125	0xbc921ad2	-0.017835055
126	0xbbfc71a6	-0.0077039776
127	0x3c8dfbc5	0.017331967
128	0xbc405f37	-0.011741451
129	0xbcc69102	-0.024239067
130	0x3ce6c1d6	0.0281686
131	0xbbb379d4	-0.0054771695
132	0x3bc4bbd2	0.0060038352
133	0x3ccb1eea	0.024795014
134	0x3c7c779e	0.015409378
135	0x3acf5fb6	0.0015821371
136	0x3a2d8be7	0.00066202733
137	0xbd02fb50	-0.03197795
138	0x3cc3abe4	0.023885675
139	0xbc9fa347	-0.019487036
140	0x3d481c7a	0.048855282
141	0x3d4f90d0	0.050675213
142	0xbd36a012	-0.04458625
143	0x3c8c59b3	0.017132616
144	0x3c8fe824	0.017566748
145	0x3ccdacb6	0.025106769
146	0x3ccb07cb	0.02478399
147	0xbd2aa5e5	-0.041662116
148	0xbd1e3791	-0.03862721
149	0xbccf8d8e	-0.025336053
150	0xbbad0e49	-0.005281244
151	0xbc11cb39	-0.00889855
152	0x3c619ec2	0.013770761
153	0xbd3099e8	-0.043115526
154	0x3cd588c1	0.026066186
155	0x3c62e69d	0.013848928
156	0x39b8d4e4	0.0003525383
157	0x3c0e807a	0.008697623
158	0xbc14af17	-0.009074948
159	0x3c87e704	0.016589649
160	0x3c09f74f	0.008420779
161	0xbd2a71f6	-0.041612588
162	0x3cde46a0	0.027133286
163	0xbb664a84	-0.003513963
164	0xbc58f8cf	-0.013242914
165	0xbbd33cb3	-0.006446445
166	0xbc14790d	-0.009062064
167	0x3d236e5a	0.03990016
168	0x3d3e57ed	0.04647057
169	0x3c68f1fb	0.014217849
170	0xbd0b5a42	-0.034021623
171	0x3c703289	0.014660486
172	0x3d00bcca	0.031430043
173	0xbc16bcd7	-0.009200296
174	0xbd4a1b59	-0.049342487
175	0xbc82b757	-0.015956564
176	0xbd0958b6	-0.033531867
177	0xbc89d869	-0.016826825
178	0x3bf8f709	0.0075978083
179	0xbbca0b60	-0.006165907
180	0x3d413e2e	0.04717844
181	0x3ced5bd1	0.028974446
182	0xbc1fbd9c	-0.009749796
183	0x3d33eba8	0.04392591
184	0x3c0e65ac	0.008691233
185	0x3d060d2b	0.0327274
186	0xbc1de4c7	-0.009637064
187	0xbd4f33f9	-0.050586674
188	0x3d0b1661	0.03395689
189	0xbb7e0244	-0.0038758675
190	0x3b9c4db2	0.004770004
191	0x3a6ed10e	0.0009110131
192	0xbb89cf26	-0.004205602
193	0x3c8bae09	0.01705076
194	0x3c086f60	0.008327335
195	0xbd1a834e	-0.03772288
196	0x3d360494	0.04443796
197	0xbc6ec233	-0.014572668
198	0xbd2f37b5	-0.042777736
199	0x3d4328ca	0.04764632
200	0x3d013a4a	0.03154973
201	0xb9fcc7b1	-0.00048213967
202	0x3c330c73	0.010928261
203	0x3b2a157a	0.0025952742
204	0x3c8435bb	0.016138902
205	0xbc4836e9	-0.012220123
206	0x3c788fb9	0.015170985
207	0x3d19adc3	0.037519228
208	0xbaa09f3a	-0.0012254484
209	0xbc79511a	-0.01521709
210	0xba3c45c4	-0.0007182027
211	0x3c1af73e	0.009458361
212	0xbd111827	-0.035423424
213	0x3aa3ff7c	0.0012512053
214	0xbcafcbac	-0.021459423
215	0xbd08fe59	-0.03344569
216	0xbce89b93	-0.028394496
217	0xbc987010	-0.018608123
218	0x3c8c6ea0	0.017142594
219	0x3c7a228f	0.0152670285
220	0x3c502507	0.0127041405
221	0x3d14f32e	0.036364727
222	0x3c0e1f49	0.008674451
223	0xbce92f85	-0.028465042
224	0xbc95f0bb	-0.018303266
225	0x3992e196	0.00028015365
226	0xbcfe6520	-0.03105408
227	0x3cc4d9a7	0.024029566
228	0x3d35d71f	0.04439461
229	0xba2824ec	-0.0006414193
230	0xbd3564a8	-0.044285446
231	0xbd002308	-0.03128341
232	0xbd3f6b8a	-0.046733417
233	0x3cb2d29a	0.021828938
234	0x3d04dbb8	0.032436103
235	0x3cf42c68	0.02980633
236	0xbc630909	-0.013857135
237	0xbcf2840e	-0.029603984
238	0x3b873145	0.0041257464
239	0x3c144159	0.009048783
240	0x3ca9a693	0.020709312
241	0x3d3cd0f8	0.046097726
242	0xbd09675c	-0.033545837
243	0xbc2c40c3	-0.010513487
244	0xbce9882c	-0.028507315
245	0x3d2a889f	0.0416342
246	0xbc95e608	-0.018298164
247	0x3bd537f8	0.006506916
248	0xbd1945f9	-0.037420247
249	0xbc30c511	-0.010789172
250	0xbd48e9f0	-0.049051225
251	0x3c2ebfb8	0.0106658265
252	0x39a545d6	0.00031523284
253	0x3c266dc4	0.010158006
254	0x3c6e13de	0.014531104
255	0x3b4889ff	0.003059983

fc1.weight f4 [16, 784]
0	0xbc4c7de6	-0.012481188
1	0xbbe287a3	-0.006913142
2	0x3c0c2cec	0.008555632
3	0x3be9572c	0.0071209874
4	0x3b730633	0.0037082552
5	0xbc5168ac	-0.012781303
6	0x3cf3cf41	0.029761912
7	0x3cd85856	0.02640931
8	0x3cfd5e3d	0.030928725
9	0x3c915a73	0.017743325
10	0xbcaf944c	-0.021433018
11	0xbc2ef5dd	-0.010678736
12	0xbaa9212b	-0.0012903562
13	0x3b590d09	0.0033119342
14	0x3ca81d5c	0.020521812
15	0x3c823be9	0.015897708
16	0x3b94a865	0.0045366758
17	0xbcdfa926	-0.027302336
18	0xbc8238cb	-0.015896222
19	0xbcc84083	-0.024444824
20	0x3ab501a7	0.0013809697
21	0xbcedfec4	-0.029052146
22	0x3c8d93ad	0.017282331
23	0x3cadc81a	0.02121358
24	0xbba56e0a	-0.005048518
25	0xbcead14f	-0.02866426
26	0xbc322da1	-0.010875137
27	0xbd0c083a	-0.034187533
28	0x3c1007f5	0.00879096
29	0x3cd2b5c3	0.025721436
30	0xbc3fb320	-0.011700422
31	0x3c6c0228	0.014404811
32	0xbab4c3cd	-0.0013791263
33	0xbbf71a96	-0.007541011
34	0xbc8a0628	-0.016848639
35	0x3bdf2ba6	0.006810623
36	0x3912e3c6	0.00014008497
37	0x3c7950a0	0.015216976
38	0xbd114726	-0.035468243
39	0x3cd7498c	0.026280187
40	0xbc2359e2	-0.00997016
41	0xbb51a4db	-0.003198913
42	0x3cd858fe	0.026409622
43	0xbcfaec07	-0.030630125
44	0x3c602963	0.013681742
45	0x3b076e0e	0.0020664963
46	0xb9867057	-0.0002564217
47	0x3c88d720	0.016704142
48	0xbc0d47c6	-0.008623069
49	0x3b8ff5b6	0.0043933047
50	0xbca28913	-0.019840753
51	0xb853e95a	-5.0523646e-05
52	0xbd1a06b5	-0.037604053
53	0xbb081c50	-0.0020768829
54	0xbc9d0bae	-0.019170608
55	0x3d016825	0.03159346
56	0xbc02e772	-0.007989751
57	0x3bd28d63	0.006425546
58	0xbc04ddbc	-0.008109506
59	0xbd0a6e3e	-0.03379654
60	0xbcc71422	-0.024301592
61	0x3c9c3265	0.019066999
62	0x3bc5c881	0.006035865
63	0xba299e45	-0.00064704224
64	0xbcee8344	-0.029115327
65	0xbc283e42	-0.01026875
66	0xbc347c03	-0.011015895
67	0x3cc48d21	0.023993077
68	0xbca7c0ba	-0.020477641
69	0xbb126267	-0.0022336484
70	0xbc90e758	-0.017688438
71	0xbc130bbc	-0.008974966
72	0x3c57182c	0.013128322
73	0x3ce5a782	0.028033976
74	0xbc36fdee	-0.01116894
75	0xbb7705d2	-0.0037692678
76	0x3cefdf87	0.02928139
77	0xbca614a4	-0.020273514
78	0xbc958ae0	-0.018254697
79	0x3ce0a702	0.027423386
80	0x3b610913	0.0034337684
81	0xba9804fc	-0.0011598165
82	0x3c27a712	0.010232704
83	0xbc080037	-0.0083008325
84	0x3c762fd1	0.015026049
85	0x3c76b113	0.015056866
86	0xbaf80a34	-0.0018923939
87	0xbbba974a	-0.0056943046
88	0x39ad68f3	0.00033075325
89	0xbc717ca7	-0.014739192
90	0xbb8d5b12	-0.004313835
91	0x3c4da647	0.012551851
92	0x3c85fb49	0.016355174
93	0x39fe1f00	0.00048469752
94	0xbbc68a25	-0.0060589486
95	0x3beaca95	0.007165263
96	0xbc7dcf58	-0.015491329
97	0x3cb88413	0.022523915
98	0xbc255986	-0.010092145
99	0x3c08aeb3	0.008342433
100	0x3cb5158a	0.022104997
101	0xbcbd7be9	-0.023130374
102	0xbb8ceabb	-0.004300443
103	0xbc220ec3	-0.009891215
104	0xbcb8f7f0	-0.022579163
105	0x3a23ba58	0.0006245724
106	0xbbe12a0d	-0.006871468
107	0x3cbecb1f	0.023290215
108	0x3d145f3b	0.03622363
109	0x3ccc6433	0.024950122
110	0xbccc78dc	-0.024959974
111	0xbc645393	-0.013935941
112	0xbca66d7b	-0.020315876
113	0xbca0d617	-0.019633336
114	0x3cc5eeb1	0.024161668
115	0x3c91c63f	0.017794726
116	0x3cc7afa0	0.024375737
117	0xbc9672a6	-0.018365216
118	0x3cf1b1f0	0.029503793
119	0x3cbd3617	0.023097081
120	0xbcea853c	-0.028627984
121	0xbc2f5a50	-0.0107026845
122	0xbc291bf4	-0.010321606
123	0x3cb64f1c	0.02225452
124	0x3cb89c1a	0.022535373
125	0x3c5f0136	0.013611129
126	0x3b976577	0.00462025
127	0x3c78cca1	0.015185506
128	0xbcece121	-0.028915944
129	0x3c854247	0.016266955
130	0x3c1c2c4d	0.0095320465
131	0xbd03a3eb	-0.032138746
132	0xbc2db6c0	-0.010602653
133	0x3c951666	0.018199157
134	0xbc354690	-0.011064187
135	0xbd114d39	-0.035474036
136	0x3ca7c1ea	0.020478208
137	0xbc4d95c4	-0.012547914
138	0x3bb96ab7	0.0056584734
139	0xbd0a3b48	-0.03374794
140	0xbce0ecb9	-0.027456628
141	0xbc546a6f	-0.012964829
142	0xbb78de52	-0.003797431
143	0xbc92ea63	-0.01793403
144	0xbb0b9e83	-0.0021304197
145	0xbc894e6d	-0.01676103
146	0x3cc9a080	0.024612665
147	0x3cf2c6ef	0.029635875
148	0x3c17b3df	0.009259193
149	0xbd005ffe	-0.031341545
150	0xbce9c131	-0.028534504
151	0xbc1663c8	-0.009179063
152	0xbca6c0da	-0.02035563
153	0xbc7b8f80	-0.015354037
154	0xbd0f2012	-0.034942694
155	0x3aa6ed68	0.0012735547
156	0xbd029970	-0.03188461
157	0x3aaa271f	0.001298163
158	0xbd0c4b03	-0.034251224
159	0xbc2ef370	-0.010678157
160	0xbac96850	-0.001536617
161	0x39894f61	0.00026189818
162	0xbc3955bf	-0.011311947
163	0xbd07d030	-0.033157527
164	0xbd0b68d4	-0.03403552
165	0x3c615ac1	0.013754548
166	0x3cd2e665	0.025744626
167	0xbcc87ffb	-0.024475088
168	0x3c33146b	0.010930161
169	0x3cf37964	0.02972097
170	0xbc70d6a1	-0.014699609
171	0x3ad50941	0.0016253368
172	0x3c943215	0.018090287
173	0x3c28c6c0	0.010301292
174	0xbd061bf5	-0.032741506
175	0x3bf80bb1	0.007569753
176	0xbcfddb64	-0.030988403
177	0x3ca07937	0.01958905
178	0xbc6cb083	-0.014446381
179	0x3b12d287	0.0022403316
180	0x3d022496	0.031773172
181	0xbceb58a4	-0.02872879
182	0x3bbd6d2c	0.0057808366
183	0x3c992205	0.01869298
184	0x3cf8a298	0.030350968
185	0x3c905ee6	0.017623376
186	0xbb948b4a	-0.004533206
187	0xbbeb61db	-0.007183296
188	0x3cfd495d	0.030918771
189	0xbb051532	-0.0020306823
190	0x3c686e4e	0.014186455
191	0x3cf6b7dd	0.03011697
192	0x3bdb0301	0.0066837077
193	0x3c58b1b6	0.013225963
194	0x3b9a6117	0.004711281
195	0x3cae38a6	0.021267246
196	0xbc4b84b9	-0.01242178
197	0x3c6e889f	0.01455894
198	0x3c28257e	0.010262845
199	0x3cefe5f7	0.02928446
200	0x3ca6cfe3	0.0203628
201	0x3bb05561	0.0053812717
202	0x3c044272	0.008072482
203	0xbb5cc0d9	-0.0033684282
204	0xbbc2ec92	-0.0059486115
205	0xbc570093	-0.0131226955
206	0xbb2c643e	-0.0026304866
207	0x3bba9030	0.005693458
208	0x3c525517	0.01283767
209	0xbc2118de	-0.009832589
210	0xbd122bf9	-0.035686467
211	0x3ca58171	0.020203324
212	0x3d03c3de	0.032169215
213	0xbc957634	-0.01824484
214	0x3c5af427	0.0133638745
215	0xbcad84e2	-0.021181528
216	0xbc8f3b0d	-0.017484212
217	0xbc8a7548	-0.016901627
218	0xbccfb499	-0.02535467
219	0x3c7bb704	0.015363459
220	0xbcb580aa	-0.022156078
221	0xbc08b1e8	-0.008343197
222	0x3d01a319	0.031649683
223	0xbce6c8e7	-0.02817197
224	0x3cffa0f9	0.031204687
225	0xbc676d7f	-0.014125227
226	0x3c012a95	0.0078836875
227	0xbab71bd5	-0.0013970087
228	0xbce2aae9	-0.027669387
229	0xbc5fd4ed	-0.013661605
230	0x3cfd7318	0.03093867
231	0x3c37ef48	0.011226483
232	0x3b12e8f1	0.0022416676
233	0x3cf3867a	0.02972721
234	0xbce98ab3	-0.02850852
235	0x3c1a4496	0.009415766
236	0x3c6213f3	0.013798702
237	0x3c7b28e9	0.015329578
238	0xba9a0aac	-0.0011752448
239	0x3c8061ed	0.015671695
240	0xbb82b216	-0.0039885147
241	0x3c511305	0.012760882
242	0x3b37c74c	0.0028042374
243	0x3bcb29d9	0.006200057
244	0xbc88d8cc	-0.01670494
245	0xbd0821cf	-0.033235367
246	0xbcda62b7	-0.026658399
247	0x3cd33837	0.025783641
248	0xbc65db42	-0.014029326
249	0xbcb1513a	-0.021645177
250	0xbb27250d	-0.0025504262
251	0xbca5d94e	-0.02024522
252	0x3c285e98	0.010276459
253	0xbbaab388	-0.00520939
254	0x3c86b9dc	0.016446047
255	0xbc51ab96	-0.012797257

fc1.bias f4 [16]
0	0x3c479be1	0.0121831605
1	0xbc358c7e	-0.011080859
2	0xbcf7baaa	-0.030240376
3	0xbcde0806	-0.027103435
4	0xbce9c934	-0.028538324
5	0x3c3dab92	0.01157655
6	0xbcd53634	-0.026026823
7	0x3cb85e25	0.02250583
8	0xbc153cd1	-0.009108738
9	0xbcce73ec	-0.02520176
10	0xbba150e2	-0.004922972
11	0xbbf9cf3c	-0.007623581
12	0xbc8997da	-0.016796041
13	0xba26d307	-0.0006363843
14	0x3cc51dd0	0.024062067
15	0xbd108738	-0.035285205

fc2.weight f4 [2, 16]
0	0xbe55fa03	-0.20896153
1	0x3e073ec0	0.13207531
2	0xbde8bb0f	-0.113638036
3	0x3e2d9f5a	0.16955319
4	0x3d757bf8	0.05993268
5	0xbc8df741	-0.017329814
6	0xbdc8b4fd	-0.09800146
7	0x3e705f9e	0.23473975
8	0x3caac886	0.02084757
9	0x3e5a1c4a	0.21299854
10	0x3d65b435	0.056080062
11	0xbda27390	-0.07932198
12	0xbe2cae0d	-0.1686327
13	0xbe50a919	-0.20377006
14	0xbe186607	-0.1488267
15	0x3e2fcba1	0.17167522
16	0x3e2217db	0.15829413
17	0xbd833815	-0.06407181
18	0xbd385496	-0.045002542
19	0x3e6ad459	0.22932567
20	0xbe45f1f5	-0.1933058
21	0x3def2a16	0.11677949
22	0xbd9c2aef	-0.076253764
23	0xbe55966e	-0.20858166
24	0xbe080bf3	-0.13285808
25	0xbdbaa822	-0.091141
26	0x3e411c9e	0.18858573
27	0x3e205d04	0.15660483
28	0xbdcf8bd7	-0.10134094
29	0xbda50b94	-0.08058849
30	0x3c42f633	0.011899519
31	0x3e036c0b	0.12834184

fc2.bias f4 [2]
0	0x3e041b6b	0.12901084
1	0xbe7d72d9	-0.24750842
