Unimodal/weights/video/MesoInception4_realA_fakeC.pt (torch, 110954 bytes, 32 tensors)

Incption1_conv1.weight f4 [1, 3, 1, 1]
-0.27912953 0.56869733 -0.2867362
00000000: 11ea 8ebe 2696 113f 16cf 92be

Incption1_conv2_1.weight f4 [4, 3, 1, 1]
-0.07071553 -0.33688805 0.16238357 0.49270365 0.21472949 -0.019408785 -0.17657924 0.5168898
0.50354105 0.09561761 -0.31255016 0.5728062
00000000: 4ed3 90bd 977c acbe e147 263e a743 fc3e
00000010: 0ce2 5b3e 2cff 9ebc 30d1 34be e452 043f
00000020: 11e8 003f 2ad3 c33d 9306 a0be 6da3 123f

Incption1_conv2_2.weight f4 [4, 4, 3, 3]
-0.030565506 0.09903631 0.11491024 -0.122706965 0.021535361 0.11286981 0.14460845 0.0035944353
0.096906595 0.0022186597 -0.02182098 0.11316155 0.03315077 -0.07987526 -0.076979734 0.110748775
0.018768009 0.044245962 0.104565576 0.10039513 0.047249693 -0.022690775 0.16522598 -0.1440723
-0.06450213 0.04331819 0.1393554 0.119073816 -0.05282675 0.030768054 0.15059362 0.14839013
0.08829731 -0.1400208 0.17030247 0.08309873 -0.015081859 0.016564053 -0.12506595 0.09166528
0.14235948 0.05066916 0.08435748 0.107725956 0.14065516 0.17018901 0.01730805 0.063331604
0.027576895 0.11992878 -0.025132222 -0.047056254 -0.09439801 0.0075190184 -0.0364003 -0.13803875
0.14311814 -0.12214988 0.05170554 -0.13042496 0.13077308 0.022985585 0.038067628 0.042341374
0.14445624 -0.01841087 -0.12742303 -0.10287489 0.1056712 0.023242643 -0.07531899 0.01460871
-0.0049498007 0.104968034 0.11244026 -0.0055647003 -0.039716158 0.14181241 0.14792113 -0.036616508
0.124038905 0.09137514 -0.056661706 -0.014619508 0.09470509 -0.14841072 -0.07617227 0.0074929153
0.1436214 0.09217461 0.057450738 0.01981714 0.03838406 0.018532818 -0.12539239 -0.015294789
-0.097612664 0.13848531 -0.08212626 0.10770323 0.006594825 0.07513148 -0.011612188 0.14029685
0.13386735 -0.16494952 -0.037498128 0.078380376 0.03655516 0.0058356985 -0.111355156 0.12540978
0.14080523 -0.117141485 0.15590367 -0.043046024 -0.04883269 0.102089114 -0.10018107 -0.14582117
-0.13383417 0.12742798 0.053256314 0.15634125 0.0058703325 0.09292395 0.10567402 -0.09502432
-0.14479752 0.10875895 0.14831433 0.085763775 -0.1375545 -0.049931433 -0.10753985 -0.03394768
0.036516193 0.050401878 -0.089846715 0.024820818 0.06603693 -0.080247164 0.04460883 -0.022342619
00000000: 8364 fabc 8dd3 ca3d 0f56 eb3d ca4d fbbd
00000010: ed6a b03c 4928 e73d 3d14 143e 9e90 6b3b
00000020: f776 c63d ef66 113b e9c1 b2bc 3ec1 e73d
00000030: 1ac9 073d a495 a3bd 8da7 9dbd 41d0 e23d
00000040: 5ebf 993c 413b 353d 7a26 d63d f69b cd3d
00000050: e588 413d 01e2 b9bc 0031 293e b087 13be
00000060: b119 84bd 6a6e 313d 2fb3 0e3e f9dc f33d
00000070: dd60 58bd 490d fc3c 3735 1a3e 95f3 173e
00000080: 38d5 b43d 9d61 0fbe c563 2e3e ab2f aa3d
00000090: e719 77bc 56b1 873c 4a11 00be 02bb bb3d
000000a0: afc6 113e 778a 4f3d 9dc3 ac3d 6d9f dc3d
000000b0: e807 103e 0746 2e3e 9dc9 8d3c 00b4 813d
000000c0: f1e8 e13c 389d f53d 17e2 cdbc 0fbe 40bd
000000d0: be53 c1bd 1962 f63b 7b18 15bd 085a 0dbe
000000e0: 908d 123e b729 fabd 30c9 533d 1f8e 05be
000000f0: 61e9 053e 444c bc3c cdec 1b3d 266e 2d3d
00000100: 56ec 133e 65d2 96bc 2f7b 02be 12b0 d2bd
00000110: 246a d83d 5b67 be3c d840 9abd 5f59 6f3c
00000120: f031 a2bb 7bf9 d63d 1447 e63d 1758 b6bb
00000130: 69ad 22bd 4637 113e a378 173e 31fb 15bd
00000140: 1c08 fe3d e422 bb3d 1b16 68bd a986 6fbc
00000150: bef4 c13d fbf8 17be 3500 9cbd 2187 f53b
00000160: 7d11 133e 0bc6 bc3d 7751 6b3d 8e57 a23c
00000170: 9b38 1d3d 23d2 973c dd66 00be ff96 7abc
00000180: 26e9 c7bd 18cf 0d3e d031 a8bd 8393 dc3d
00000190: 6719 d83b 89de 993d 0c41 3ebc faa9 0f3e
000001a0: 8614 093e 87e8 28be a397 19bd e485 a03d
000001b0: ddba 153d 6339 bf3b 2c0e e4bd 6c6b 003e
000001c0: 3f2f 103e e0e7 efbd 36a5 1f3e 0751 30bd
000001d0: c904 48bd 1914 d13d bc2b cdbd 2552 15be
000001e0: d30b 09be 7b7c 023e 4b23 5a3d ec17 203e
000001f0: eb5b c03b e94e be3d 9f6b d83d 1c9c c2bd
00000200: cd45 14be 03bd de3d b6df 173e eba4 af3d
00000210: 16db 0cbe e784 4cbd da3d dcbd b90c 0bbd
00000220: 0192 153d 3372 4e3d 8e01 b8bd 0755 cb3c
00000230: 5f3e 873d a058 a4bd c0b7 363d de07 b7bc

Incption1_conv3_1.weight f4 [4, 3, 1, 1]
0.23580389 0.4744293 -0.45901388 0.3209173 0.24094671 -0.39301413 -0.05240574 0.17146818
-0.006341994 -0.4174083 0.017621249 0.0013318076
00000000: 9376 713e 66e8 f23e de03 ebbe 464f a43e
00000010: bcba 763e 2639 c9be 67a7 56bd 5b95 2f3e
00000020: 80d0 cfbb 8ab6 d5be 705a 903c 0c90 ae3a

Incption1_conv3_2.weight f4 [4, 4, 3, 3]
0.08259734 -0.10766171 -0.022980463 -0.065750524 -0.13050695 -0.06816207 -0.15768985 0.14275856
-0.00806366 0.11889769 0.06882119 -0.2009888 -0.022779694 -0.053366736 -0.12621394 -0.12985219
-0.06485673 0.11030206 0.13303256 -0.1046074 0.07895274 0.120673895 0.17765346 -0.15542896
-0.07129423 0.16198358 -0.06337461 0.020771904 -0.14880966 0.1605734 0.014925282 0.1070285
-0.008430645 0.15089355 -0.085803606 0.047274817 -0.09494172 0.1458938 -0.046191115 0.07417896
0.05908979 0.13743298 -0.09012863 0.13189447 0.12144367 0.107298516 0.11242759 0.040017884
-0.09347704 0.13339986 -0.074675806 0.056365024 -0.02551831 0.025541782 0.05724096 0.037636258
-0.046979178 -0.04787661 -0.17660338 -0.10945569 -0.17535184 -0.037636124 0.12251885 -0.007235101
-0.14892785 -0.17544979 -0.047461618 -0.004126241 -0.061792314 -0.122765 0.045801107 0.09661631
-0.07158438 -0.08274972 -0.14548922 -0.096424535 0.10060255 -0.1405032 -0.042384416 -0.026503023
-0.024932455 0.0030856663 -0.13804264 -0.041530874 0.01710478 0.012785858 -0.026271462 0.015454943
0.053117286 -0.1090683 0.019875517 -0.12585911 -0.15608701 0.14841504 -0.01635858 0.0659594
0.048322774 0.027112009 0.050808385 -0.13458012 -0.14206514 -0.10744912 -0.08186491 0.13741188
-0.121294595 -0.11759827 0.07731563 0.13045758 0.096727826 -0.0878979 0.1724641 0.11765121
-0.07882435 0.010487039 -0.055529654 -0.107446946 -0.08008061 -0.11974458 -0.040995825 0.07028882
-0.072334684 -0.12947074 0.01493225 0.13658388 -0.070215695 -0.033366516 -0.09864795 0.045732252
0.11790798 -0.07445501 0.036705125 0.14202514 0.06925339 0.085695475 -0.017101541 0.12567396
-0.15499099 -0.14551412 0.07933291 0.14064088 -0.086294286 -0.005041949 0.013299969 0.03762526
00000000: cb28 a93d be7d dcbd 8641 bcbc 36a8 86bd
00000010: 9da3 05be 8e98 8bbd 7379 21be 4d2f 123e
00000020: 711d 04bc a280 f33d 20f2 8c3d 02d0 4dbe
00000030: 7b9c babc 1497 5abd 3a3e 01be f9f7 04be
00000040: 9bd3 84bd 0ce6 e13d b039 083e 683c d6bd
00000050: f9b1 a13d e023 f73d caea 353e c528 1fbe
00000060: b602 92bd 06df 253e 8cca 81bd d729 aa3c
00000070: 8f61 18be 5a6d 243e 2c89 743c c231 db3d
00000080: b020 0abc d783 1a3e cdb9 afbd 3da3 413d
00000090: ce70 c2bd 2f65 153e e532 3dbd 23eb 973d
000000a0: 2308 723d 3bbb 0c3e 5c95 b8bd 580f 073e
000000b0: 75b7 f83d 53bf db3d 7040 e63d cbe9 233d
000000c0: e470 bfbd f999 083e a1ef 98bd 03df 663d
000000d0: c60b d1bc 003d d13c 7f75 6a3d 7a28 1a3d
000000e0: 3d6d 40bd 441a 44bd 84d7 34be 4e2a e0bd
000000f0: 6f8f 33be 5628 1abd 2aeb fa3d 6d14 edbb
00000100: 8b80 18be 1ca9 33be 1d67 42bd 6b35 87bb
00000110: f019 7dbd 376c fbbd f199 3b3d c6de c53d
00000120: d59a 92bd af78 a9bd 20fb 14be 3a7a c5bd
00000130: b608 ce3d 12e0 0fbe 489b 2dbd de1c d9bc
00000140: 263f ccbc e438 4a3b 0d5b 0dbe 471c 2abd
00000150: 531f 8c3c c67b 513c 4037 d7bc bb36 7d3c
00000160: 8391 593d 335f dfbd fbd1 a23c 36e1 00be
00000170: 46d5 1fbe 1dfa 173e 6e02 86bc b915 873d
00000180: 1aee 453d 011a de3c 741c 503d 5fcf 09be
00000190: 8679 11be 490e dcbd caa8 a7bd b3b5 0c3e
000001a0: 4d69 f8bd 5dd7 f0bd a857 9e3d ac96 053e
000001b0: 3d19 c63d d003 b4bd 6e9a 303e 1ef3 f03d
000001c0: a96e a1bd d4d1 2b3c 1073 63bd 250d dcbd
000001d0: 4e01 a4bd a53c f5bd 3deb 27bd 96f3 8f3d
000001e0: 3524 94bd fa93 04be 65a6 743c a5dc 0b3e
000001f0: 3fcd 8fbd 54ab 08bd f007 cabd be51 3b3d
00000200: bd79 f13d de7b 98bd 1d58 163d 0a6f 113e
00000210: b9d4 8d3d 1c81 af3d 8818 8cbc adb0 003e
00000220: f5b5 1ebe a701 15be 4b79 a23d 2a04 103e
00000230: 0fbb b0bd ef36 a5bb 1de8 593c f21c 1a3d

Incption1_conv4_1.weight f4 [2, 3, 1, 1]
0.09146193 0.2689428 0.34743834 0.031869892 -0.04369915 0.19727652
00000000: 6450 bb3d dfb2 893e 70e3 b13e 018a 023d
00000010: e1fd 32bd db02 4a3e

Incption1_conv4_2.weight f4 [2, 2, 3, 3]
0.15693842 -0.2059962 -0.11471384 -0.09674137 -0.19274023 0.14846604 0.16528125 -0.21225607
-0.19937637 0.114834756 0.1451297 -0.13441534 -0.074192315 -0.15835758 0.06218886 -0.19165528
0.20324722 -0.17051953 -0.030420272 -0.14234005 -0.11897677 -0.21107617 0.18983853 -0.071381286
-0.23681246 0.20554177 0.05466565 -0.04791304 0.20504484 0.1929836 0.085398674 -0.13519312
-0.045473207 0.14200807 0.149475 0.16338831
00000000: 77b4 203e abf0 52be 17ef eabd 5720 c6bd
00000010: b25d 45be 7b07 183e 7d3f 293e a859 59be
00000020: 5229 4cbe 7c2e eb3d e19c 143e 2da4 09be
00000030: 24f2 97bd 7d28 22be bfb9 7e3d 4841 44be
00000040: 0a20 503e ac9c 2ebe ef33 f9bc 97c1 11be
00000050: 18aa f3bd 5a24 58be 0865 423e 5a30 92bd
00000060: f77e 72be 8b79 523e 17e9 5f3d 7740 44bd
00000070: 46f7 513e 7e9d 453e 80e5 ae3d 1170 0abe
00000080: 1d42 3abd 906a 113e f90f 193e 444f 273e

Incption1_bn.weight f4 [11]
0.9990765 0.9879145 0.9978074 1.0012063 1.0258111 0.9933961 1.002185 0.99243635
1.0009313 1.0094984 1.0040364
00000000: 7ac3 7f3f f7e7 7c3f 4e70 7f3f 8727 803f
00000010: c74d 833f 354f 7e3f 9947 803f 4f10 7e3f
00000020: 841e 803f 3e37 813f 4484 803f

Incption1_bn.bias f4 [11]
-0.0003233229 0.0107231615 -0.0056246044 -0.004341901 -0.006604151 -0.007981146 0.00953342 0.011627564
-0.014768549 0.0049546035 0.010534065
00000000: aa83 a9b9 33b0 2f3c 9a4e b8bb 8146 8ebb
00000010: a267 d8bb 5ac3 02bc 1032 1c3c 8a81 3e3c
00000020: c9f7 71bc 3a5a a23b 1297 2c3c

Incption1_bn.running_mean f4 [11]
-0.004107946 -0.0006786464 0.0012745224 0.0013729549 0.00097144285 -0.0020555547 0.0025959352 0.0002191264
-0.00035925442 0.0012403602 0.0007292911
00000000: f39b 86bb 30e7 31ba e00d a73a b9f4 b33a
00000010: 6da8 7e3a 7cb6 06bb 9120 2a3b 4cc5 6539
00000020: 505a bcb9 9593 a23a e62d 3f3a

Incption1_bn.running_var f4 [11]
0.025151687 0.3582488 0.0033987947 0.011164076 0.0029533315 0.084674165 0.14701116 0.022464646
0.008616366 0.22293977 0.029307775
00000000: e90a ce3c 636c b73e 50be 5e3b 87e9 363c
00000010: ae8c 413b a669 ad3d 188a 163e c707 b83c
00000020: a92b 0d3c 534a 643e dc16 f03c

Incption2_conv1.weight f4 [2, 11, 1, 1]
0.038493447 -0.19491445 -0.2709261 -0.1964966 -0.19210915 -0.28288293 -0.23292245 -0.23722479
-0.040905442 0.19567852 0.1268689 0.17564897 0.28028095 -0.047946848 0.05374482 -0.072304234
-0.20021228 -0.13278563 0.11140643 0.04302853 0.30462816 0.11903368
00000000: 4eab 1d3d a797 47be d3b6 8abe 6836 49be
00000010: 43b8 44be 08d6 90be 3983 6ebe 0eeb 72be
00000020: 778c 27bd f35f 483e ece9 013e 53dd 333e
00000030: fc80 8f3e ea63 44bd 8723 5c3d 3e14 94bd
00000040: 7304 4dbe f5f8 07be 0e29 e43d af3e 303d
00000050: 39f8 9b3e eec7 f33d

Incption2_conv2_1.weight f4 [4, 11, 1, 1]
-0.1900985 -0.19799718 -0.18846743 -0.23596603 0.13373199 0.17702255 0.2028596 -0.050634652
-0.19645631 -0.059445146 0.2745671 -0.07658225 -0.1900497 -0.119224 0.1303542 0.16226418
0.29686564 -0.021382472 0.19446912 0.06138698 -0.24413742 -0.14040792 0.04726986 0.2846085
0.0002023668 -0.086112715 -0.2350545 -0.26139635 -0.061250716 0.008807961 -0.2513307 0.20952784
0.14561401 0.27711973 -0.032042447 0.12237374 -0.1373572 -0.25486767 -0.043889925 -0.09124561
0.0721213 -0.29620102 -0.22195667 0.1250991
00000000: 2ea9 42be c6bf 4abe 9bfd 40be 14a1 71be
00000010: 0af1 083e 6645 353e 6dba 4f3e 4866 4fbd
00000020: d82b 49be c17c 73bd 0f94 8c3e 28d7 9cbd
00000030: 639c 42be b62b f4bd 927b 053e 9528 263e
00000040: c6fe 973e 4b2a afbc ea22 473e ea70 7b3d
00000050: 29ff 79be 18c7 0fbe 0a9e 413d 35b8 913e
00000060: 6d32 5439 dd5b b0bd 20b2 70be bed5 85be
00000070: 08e2 7abd 444f 103c 6bae 80be 778e 563e
00000080: d71b 153e a3e2 8d3e f13e 03bd 159f fa3d
00000090: 5ea7 0cbe 047e 82be ecc5 33bd fade babd
000000a0: 55b4 933d a9a7 97be 9c48 63be fa19 003e

Incption2_conv2_2.weight f4 [4, 4, 3, 3]
0.10477126 -0.13877153 0.004899605 0.034257516 -0.022849021 0.17341748 -0.060033254 -0.05250628
-0.09693298 0.0056656706 -0.0697052 0.0938907 -0.05904488 -0.064129494 -0.041033324 0.1287247
-0.16991714 0.03413516 -0.051292222 0.026766337 -0.13183862 -0.15667 0.028445998 -0.09742616
-0.14500368 0.075562485 0.13459916 0.031328507 0.05047561 -0.10689358 0.053340003 -0.0005425856
-0.025427133 0.13223028 0.048365477 -0.09686216 -0.028004086 0.12439246 0.03899324 -0.038650062
-0.14389199 -0.026878666 0.16166791 0.16787407 0.06220264 -0.14241424 -0.08747247 0.1075888
-0.02486179 0.13860784 -0.088307016 -0.037709445 -0.009862795 -0.08016432 -0.021204306 0.000115589224
-0.12207206 0.1601654 0.11257562 0.10581642 0.0049530556 -0.020864306 -0.14801337 0.001822486
0.10749894 0.0016210548 -0.046535272 0.09689176 0.13298798 -0.007895026 -0.063769005 0.10264802
-0.144529 0.094554886 0.015507954 -0.06344197 -0.016505517 -0.11318513 0.015632385 0.05106656
-0.025258807 -0.15155132 -0.05513428 0.00035173623 -0.12610509 0.07679284 0.16508588 -0.08644686
0.09850537 0.078836255 0.03303561 -0.028925344 -0.15345669 0.08550687 0.0765301 -0.118796036
-0.13289686 0.14691801 -0.08022479 -0.005915634 -0.028940864 0.16512814 -0.08609318 0.009477904
-0.15226708 0.13076407 0.1526133 -0.062624045 -0.14749303 0.093149856 0.009431887 0.04176554
-0.09845035 -0.06432256 -0.11206876 -0.010523339 0.13499168 0.048139542 0.052894253 -0.1282309
0.11867002 -0.083924845 0.11489081 0.15918495 -0.091648646 -0.11868197 0.08820221 -0.06859211
-0.0010923125 0.07026499 -0.077614516 0.13644062 -0.15160382 -0.09412657 0.08383818 -0.14179188
0.13778397 -0.10298379 0.17731734 0.12234451 -0.070479766 -0.024026701 -0.14099942 0.03540764
00000000: 5092 d63d 201a 0ebe de8c a03b 9c51 0c3d
00000010: df2d bbbc 5a94 313e 6ee5 75bd d310 57bd
00000020: cc84 c6bd 17a7 b93b 9ac1 8ebd c449 c03d
00000030: 0bd9 71bd 5356 83bd 8f12 28bd 68d0 033e
00000040: c2fe 2dbe 4fd1 0b3d cb17 52bd 1445 db3c
00000050: b400 07be 1a6e 20be 9507 e93c 5e87 c7bd
00000060: d87b 14be 81c0 9a3d 5dd4 093e 5252 003d
00000070: 83bf 4e3d 05eb dabd 0c7b 5a3d 4e3c 0eba
00000080: 904c d0bc 6067 073e e11a 463d ab5f c6bd
00000090: d368 e5bc 79c1 fe3d 60b7 1f3d 874f 1ebd
000000a0: 6c58 13be a630 dcbc 468c 253e 2ee7 2b3e
000000b0: 32c8 7e3d 0ad5 11be c424 b3bd 8457 dc3d
000000c0: f4aa cbbc 37ef 0d3e 4fda b4bd 3875 1abd
000000d0: 8f97 21bc 312d a4bd a7b4 adbc 7e68 f238
000000e0: eb00 fabd 6602 243e 0c8e e63d 47b6 d83d
000000f0: 3e4d a23b 9feb aabc d190 17be 7ce0 ee3a
00000100: 6728 dc3d 9379 d43a c59b 3ebd 306f c63d
00000110: 002e 083e 245a 01bc 5399 82bd 2039 d23d
00000120: 69ff 13be fea5 c13d 1315 7e3c dded 81bd
00000130: 9436 87bc 9bcd e7bd 7d0f 803c 2b2b 513d
00000140: 8feb cebc 4530 1bbe 7cd4 61bd 3d69 b839
00000150: b121 01be 9145 9d3d 460c 293e 0d0b b1bd
00000160: 2fbd c93d e774 a13d 5950 073d d8f4 ecbc
00000170: c023 1dbe 3a1e af3d d0bb 9c3d 564b f3bd
00000180: 1d16 08be ad71 163e e54c a4bd efd7 c1bb
00000190: 6415 edbc 5a17 293e 9f51 b0bd 3649 1b3c
000001a0: e7eb 1bbe 04e7 053e a946 1c3e 0941 80bd
000001b0: 6a08 17be 5ac5 be3d 3488 1a3c 5812 2b3d
000001c0: 56a0 c9bd 8cbb 83bd 4e84 e5bd 156a 2cbc
000001d0: 423b 0a3e f82d 453d a5a7 583d f64e 03be
000001e0: 4409 f33d cae0 abbd df4b eb3d 6101 233e
000001f0: 49b2 bbbd 880f f3bd 5ca3 b43d 057a 8cbd
00000200: ed2b 8fba 17e7 8f3d 5cf4 9ebd 17b7 0b3e
00000210: 083e 1bbe 6ec5 c0bd 5ab3 ab3d e431 11be
00000220: 3e17 0d3e 2ae9 d2bd ad92 353e c28f fa3d
00000230: b257 90bd a5d3 c4bc 2762 10be 9a07 113d

Incption2_conv3_1.weight f4 [4, 11, 1, 1]
-0.02896061 0.060572393 0.059744686 0.2892467 -0.044993978 -0.08512214 0.25633895 0.07041377
0.016309513 -0.026545692 0.013480048 0.2181383 0.19813181 0.09584006 -0.072855964 0.09764746
0.19877803 0.02353136 0.14392366 0.039538175 -0.24292144 0.29511204 0.2048578 0.15008268
-0.20951629 -0.113227785 -0.27815935 -0.09966986 -0.22318687 0.13807014 -0.22686525 0.14983992
0.11635233 -0.20128252 0.1830368 -0.23083806 -0.016267035 -0.1641461 -0.21968204 -0.0345585
0.15534611 0.2184291 -0.053271204 -0.07222164
00000000: cd3e edbc c21a 783d d8b6 743d 2518 943e
00000010: 9b4b 38bd 8454 aebd dc3e 833e 1835 903d
00000020: 879b 853c 5a76 d9bc 6bdb 5c3c a65f 5f3e
00000030: 11e3 4a3e cb47 c43d 8235 95bd 64fb c73d
00000040: 788c 4b3e d7c4 c03c b960 133e c8f2 213d
00000050: 66c0 78be ed18 973e 3ec6 513e 46af 193e
00000060: 708b 56be f8e3 e7bd e76a 8ebe b61f ccbd
00000070: 198b 64be 4262 0d3e 5d4f 68be a36f 193e
00000080: 214a ee3d 011d 4ebe 006e 3b3e d060 6cbe
00000090: 7242 85bc ea15 28be 54f4 60be 378d 0dbd
000000a0: 0d13 1f3e e1ab 5f3e e832 5abd f0e8 93bd

Incption2_conv3_2.weight f4 [4, 4, 3, 3]
0.14808796 0.010115642 0.0632372 0.034092844 -0.003623588 0.08965412 0.03881517 -0.15406425
0.06652438 0.14909546 0.06354587 0.14664072 -0.0596968 0.16881402 -0.06536147 -0.16444656
0.065886654 -0.16687912 0.09839542 0.09896641 0.00037541272 0.106254555 0.11414336 -0.10984051
-0.1088467 0.13308759 0.05342768 -0.124645345 0.12929033 -0.110295 0.104774244 0.11274062
-0.14436187 0.07403646 -0.06436768 0.01460109 -0.09695008 0.15875648 -0.0751699 0.1319652
-0.1165754 0.07823639 -0.13842668 -0.14183542 0.13449417 -0.065182224 -0.08625751 -0.07454187
0.08518904 -0.14406902 0.15456925 0.055046897 -0.0154412715 0.12358599 -0.022900818 -0.029667499
0.0008917474 0.108986564 0.035253875 0.08463673 0.13048726 0.08903566 -0.117060676 0.131757
0.08594549 0.165012 -0.02895186 0.06400897 -0.027849937 0.10124024 -0.082041346 0.00273813
0.09546955 0.0920295 0.12160436 0.10331085 -0.021534923 0.031918235 0.110829204 -0.11045862
0.13459966 0.096294425 -0.03680021 -0.03856909 0.064410426 -0.06996928 -0.042957753 -0.11774611
-0.023765964 -0.0100212125 0.13755807 0.058863297 -0.03453844 -0.09490131 -0.010169467 -0.07705586
0.12564 0.12416512 0.09433825 -0.02870689 -0.17048855 0.06826177 0.0038400453 -0.025540883
-0.018199699 -0.025522538 0.12465969 0.03702424 -0.10627646 0.05119667 -0.041778084 -0.02345071
-0.112809815 0.11723118 0.13504921 -0.050137796 -0.04962187 0.048647854 0.032426883 -0.04718448
-0.121680334 -0.06807242 0.044687267 0.04894431 0.09683192 -0.085751764 0.098221436 -0.03162456
0.13003367 0.14206344 0.009794234 0.030358847 -0.047410548 -0.04270399 0.15255712 -0.019587683
-0.13165799 0.05463327 0.15073556 0.0055078873 0.1639462 0.0695277 0.07358651 -0.018452814
00000000: 5fa4 173e 14bc 253c 8182 813d f0a4 0b3d
00000010: b879 6dbb 949c b73d a8fc 1e3d 05c3 1dbe
00000020: ef3d 883d 7bac 183e 5624 823d fc28 163e
00000030: a284 74bd 95dd 2c3e 3cdc 85bd ae64 28be
00000040: 95ef 863d 5ce2 2abe 8a83 c93d e7ae ca3d
00000050: 0bd3 c439 fd9b d93d fec3 e93d 10f4 e0bd
00000060: 05eb debd 1d48 083e fcd6 5a3d 0f46 ffbd
00000070: af64 043e 58e2 e1bd e193 d63d 8ee4 e63d
00000080: 99d3 13be 6da0 973d 34d3 83bd 6939 6f3c
00000090: c38d c6bd 0f91 223e adf2 99bd e321 073e
000000a0: 15bf eebd 673a a03d b9bf 0dbe 4e3d 11be
000000b0: d7b8 093e 427e 85bd c7a7 b0bd 68a9 98bd
000000c0: 9777 ae3d d486 13be 6747 1e3e db78 613d
000000d0: 63fd 7cbc a71a fd3d 7f9a bbbc 4109 f3bc
000000e0: 28c4 693a 5934 df3d 5e66 103d 0656 ad3d
000000f0: 749e 053e 5458 b63d 82bd efbd 4feb 063e
00000100: 3004 b03d e8f8 283e 732c edbc 2317 833d
00000110: 8d25 e4bc 0b57 cf3d 4b05 a8bd 3372 333b
00000120: 8a85 c33d f679 bc3d b50b f93d a494 d33d
00000130: 026a b0bc b2bc 023d 6cfa e23d 2138 e2bd
00000140: 7ed4 093e 0336 c53d d1bb 16bd 9ffa 1dbd
00000150: 9de9 833d 0e4c 8fbd 78f4 2fbd df24 f1bd
00000160: d7b0 c2bc 0330 24bc 06dc 0c3e a41a 713d
00000170: 2e78 0dbd 9e5b c2bd d69d 26bc 76cf 9dbd
00000180: c6a7 003e 484a fe3d 6a34 c13d b62a ebbc
00000190: 8d94 2ebe d4cc 8b3d 45a9 7b3b 1d3b d1bc
000001a0: 8917 95bc a414 d1bc 944d ff3d bba6 173d
000001b0: 79a7 d9bd 99b3 513d 7f1f 2bbd b41b c0bc
000001c0: d508 e7bd e716 f03d 574a 0a3e 4a5d 4dbd
000001d0: 4d40 4bbd f942 473d 0dd2 043d 8344 41bd
000001e0: 8a33 f9bd 8e69 8bbd ff09 373d d479 483d
000001f0: d04f c63d 9f9e afbd 5228 c93d c188 01bd
00000200: 8c27 053e 1479 113e ff77 203c 1eb3 f83c
00000210: 9031 42bd 61ea 2ebd ef37 1c3e 5976 a0bc
00000220: 5ad1 06be 23c7 5f3d 6c5a 1a3e 827b b43b
00000230: 83e1 273e 8a64 8e3d 86b4 963d 5b2a 97bc

Incption2_conv4_1.weight f4 [2, 11, 1, 1]
0.08674896 -0.12308464 -0.23833488 -0.26910317 0.3260941 -0.19913015 0.2458874 0.023084918
0.009074233 0.10036068 -0.024675211 0.07533176 -0.19629413 0.046187337 -0.015317849 0.2719759
0.28492698 -0.23727307 -0.11513632 0.15352553 -0.045291964 -0.065620534
00000000: 70a9 b13d cd13 fcbd 0f0e 74be e4c7 89be
00000010: cef5 a63e c6e8 4bbe e8c9 7b3e 951c bd3c
00000020: 17ac 143c e689 cd3d ab23 cabc 8a47 9a3d
00000030: 5401 49be ef2e 3d3d b7f7 7abc 6d40 8b3e
00000040: f3e1 913e b6f7 72be 97cc ebbd cc35 1d3e
00000050: 1184 39bd 0f64 86bd

Incption2_conv4_2.weight f4 [2, 2, 3, 3]
-0.054855805 -0.13428086 0.18398602 -0.10859402 0.19507773 0.16283108 0.12290796 -0.040975265
-0.20396997 -0.16101818 -0.18441808 0.021903817 -0.1790292 0.20083572 0.17576787 -0.20108722
-0.11872127 0.0015811605 0.059543982 0.1619629 0.14306693 -0.13929759 0.21742246 0.20680168
-0.14783399 -0.16387607 -0.07826552 -0.18037875 -0.114127494 0.13273172 0.038007855 -0.11587559
0.01815978 -0.16551076 0.13798334 0.040264282
00000000: 7bb0 60bd ec80 09be d566 3c3e 8b66 debd
00000010: 75c2 473e 31bd 263e 2bb7 fb3d aed5 27bd
00000020: 81dd 50be f3e1 24be 18d8 3cbe a26f b33c
00000030: 6e53 37be e1a7 4d3e 7efc 333e cfe9 4dbe
00000040: 2324 f3bd f13e cf3a 64e4 733d 9ad9 253e
00000050: 2380 123e 07a4 0ebe fea3 5e3e d2c3 533e
00000060: cb61 17be 21cf 27be ac49 a0bd 35b5 38be
00000070: adbb e9bd d3ea 073e 20ae 1b3d 2e50 edbd
00000080: d2c3 943c a77b 29be 814b 0d3e 29ec 243d

Incption2_bn.weight f4 [12]
0.9929109 1.0030898 1.018655 0.98996174 0.9906516 0.99461895 0.99753314 1.0014155
1.0054169 1.0005554 0.99811417 0.98663247
00000000: 692f 7e3f 3f65 803f 4963 823f 226e 7d3f
00000010: 589b 7d3f 599f 7e3f 555e 7f3f 622e 803f
00000020: 80b1 803f 3312 803f 6984 7f3f f293 7c3f

Incption2_bn.bias f4 [12]
0.005808116 -0.019465381 -0.021074114 -0.0015969459 -0.012257167 -0.009933465 -0.012821485 0.01858513
0.010324006 0.0020138293 -0.01479875 -0.00085280597
00000000: 0252 be3b dd75 9fbc 9fa3 acbc 9d50 d1ba
00000010: 49d2 48bc f9bf 22bc 3511 52bc d83f 983c
00000020: 0526 293c 73fa 033b 7576 72bc d78e 5fba

Incption2_bn.running_mean f4 [12]
-0.14308572 0.04362428 0.008444221 -0.032588642 0.003826063 0.0037016743 -0.0077395886 -0.06068615
-0.017879281 -0.08171795 -0.018895598 -0.0069397227
00000000: 1085 12be 5faf 323d a159 0a3c ab7b 05bd
00000010: afbe 7a3b ca97 723b 609c fdbb 0a92 78bd
00000020: 9277 92bc be5b a7bd f1ca 9abc 9d66 e3bb

Incption2_bn.running_var f4 [12]
0.70843565 0.07852481 0.005910383 0.11291165 0.033642247 0.023950888 0.046256747 0.079332136
0.03137939 0.09769999 0.08171038 0.10022462
00000000: 0a5c 353f 9ed1 a03d e3ab c13b 393e e73d
00000010: 74cc 093d a734 c43c b777 3d3d e378 a23d
00000020: ad87 003d ef16 c83d c657 a73d 9142 cd3d

conv1.weight f4 [16, 12, 5, 5]
0.055687297 -0.0040750825 -0.052090287 -0.012846572 -0.017749846 0.0068362034 0.00598412 -0.03164129
0.029679297 0.03977256 -0.015458282 -0.054768607 0.026083577 -0.020996012 -0.045787003 -0.022513293
-0.04371997 -0.054802854 -0.024251634 -0.008620968 -0.022095123 0.02852191 0.026812578 0.007948317
-0.0002317852 0.040860113 0.06035224 0.052620355 0.012369414 -0.005321456 -0.03925134 -0.026157618
0.03495161 0.045474544 0.057261884 0.033146717 0.056835923 -0.01795512 0.010130955 0.048335586
0.018682435 0.0042206263 0.045342784 0.03903205 0.059034836 0.026547596 0.03744768 -0.03463962
-0.044547055 0.011773933 0.03425381 -0.015269515 -0.05540126 0.0129621625 -0.019449534 0.05207328
-0.03425685 -0.050725948 0.014751897 -0.015343959 0.047777016 0.048605114 0.012429009 -0.008665709
0.03220518 0.013797218 -0.009926393 0.04163743 -0.005946491 0.01441246 0.0047167093 0.032892432
0.01976264 0.029150678 -0.009599318 0.030440534 0.040413126 -0.029968113 0.040052112 0.0032732552
0.027902525 0.053264324 0.034036778 0.046775617 0.0075772125 0.028357059 -0.027114302 0.031784467
-0.01256905 -0.032925613 0.007031689 0.030733867 -0.00254662 0.020262146 0.023554722 0.020477988
0.04723487 0.012281835 0.032136846 -0.022837304 0.027558412 -0.017366601 0.0013888355 -0.04112416
-0.03315237 0.036623344 0.015325386 -0.037720393 0.0023160558 -0.02442659 -0.009792871 0.022251053
-0.051214427 0.02902408 0.025167672 0.0077664214 -0.04897471 0.024148911 -0.010567191 0.022485685
-0.051914327 0.024673237 -0.016635073 0.0022945686 -0.037602037 -0.03383542 -0.039697565 0.009759498
0.053651653 0.010596252 -0.00048069304 0.05510177 -0.04442864 0.008829247 -0.05342403 0.0035209523
-0.04983159 0.0015352876 0.02076563 0.04155283 0.06220375 0.04486384 -0.047420636 0.020982455
0.0132076945 -0.01295886 -0.036317945 0.0086594615 -0.030678786 -0.04467178 0.0526912 0.048282985
0.02784664 -0.015898714 -0.024514003 -0.046609797 0.0028398312 -0.022860019 -0.02203532 -0.01957165
-0.03901852 -0.017364401 0.036109097 0.00078294147 -0.025178047 0.061116066 -0.028187243 -0.053176507
-0.045369543 -0.03836744 0.032322682 0.026561612 0.00893207 -0.01225181 -0.03675715 0.04522357
-0.008368935 -0.03837467 0.03246751 0.04483467 -0.024565399 0.015833816 0.04282685 0.031120323
-0.054412387 0.014083006 -0.04389531 -0.052399673 -0.03326672 -0.0453466 0.011784084 0.024501432
0.008458325 -0.058013365 -0.035899747 -0.03657629 0.04384227 0.012980799 -0.0368266 -0.023314761
-0.051836986 -0.022891307 0.04180286 -0.028573226 0.037987195 -0.05697455 -0.01829438 0.053065017
0.025256468 -0.028193245 -0.046174288 0.0052667717 0.06078907 -0.025617579 -0.01784176 -0.0068960227
-0.0007809843 -0.046921127 -0.03134576 -0.05927341 0.0040376973 -0.042069703 0.008487758 -0.047275867
-0.049354352 0.030761989 -0.019974982 -0.039211582 -0.046978734 -0.040899128 0.015989322 0.024598796
0.007774067 -0.04128409 -0.02168203 0.020197408 0.046257954 0.032081265 -0.05598945 -0.05332439
-0.02424588 0.05422283 0.015766688 0.0059928047 0.0174668 0.007873364 -0.04231319 -0.009263699
0.04910461 -0.04209093 -0.050543137 0.047443286 -0.027418906 -0.05673339 -0.057933472 0.041920528
00000000: 5d18 643d 4588 85bb a05c 55bd 6e7a 52bc
00000010: 2068 91bc 3b02 e03b 7016 c43b 4c9a 01bd
00000020: ff21 f33c 8de8 223d bc44 7dbc 0c55 60bd
00000030: 3aad d53c d4ff abbc 278b 3bbd cc6d b8bc
00000040: b613 33bd f578 60bd 5dab c6bc f63e 0dbc
00000050: d500 b5bc c8a6 e93c 0da6 db3c a839 023c
00000060: 5e0b 73b9 ef5c 273d e933 773d 7188 573d
00000070: 15a9 4a3c 9c5f aebb 03c6 20bd 8048 d6bc
00000080: 6b29 0f3d 8443 3a3d 708b 6a3d dac4 073d
00000090: c9cc 683d 9e16 93bc 4efc 253c 89fb 453d
000000a0: e80b 993c 2e4d 8a3b 5bb9 393d 12e0 1f3d
000000b0: 83ce 713d 587a d93c bd62 193d 46e2 0dbd
000000c0: f976 36bd 74e7 403c b94d 0c3d fd2c 7abc
000000d0: 6eec 62bd 405f 543c a154 9fbc cb4a 553d
000000e0: e950 0cbd 03c6 4fbd f1b1 713c 3b65 7bbc
000000f0: d5b1 433d 2816 473d 0ba3 4b3c 9efa 0dbc
00000100: 94e9 033d ba0d 623c 4fa2 22bc 038c 2a3d
00000110: c8da c2bb 3d22 6c3c a08e 9a3b 37ba 063d
00000120: 43e5 a13c 67cd ee3c 7546 1dbc 6d5e f93c
00000130: 3c88 253d b07f f5bc af0d 243d 1c84 563b
00000140: d693 e43c b12b 5a3d 266a 0b3d ca97 3f3d
00000150: 444a f83b 104d e83c d01e debc 6e30 023d
00000160: 6bee 4dbc 02dd 06bd 156a e63b 97c5 fb3c
00000170: 32e5 26bb cdfc a53c d5f5 c03c 74c1 a73c
00000180: 5a79 413d c039 493c eda1 033d 4c15 bbbc
00000190: 2ec2 e13c 6744 8ebc 9609 b63a cf71 28bd
000001a0: c8ca 07bd 5c02 163d 5417 7b3c b380 1abd
000001b0: f8c8 173b 461a c8bc 4772 20bc d747 b63c
000001c0: 38c6 51bd e8c3 ed3c 6f2c ce3c 777d fe3b
000001d0: b599 48bd f0d3 c53c 0322 2dbc e633 b83c
000001e0: 1ea4 54bd 871f ca3c 4746 88bc 7960 163b
000001f0: 9804 1abd 0297 0abd ea99 22bd 4de6 1f3c
00000200: d6c1 5b3d e79b 2d3c 8705 fcb9 65b2 613d
00000210: cefa 35bd 8ca8 103c 28d3 5abd c7bf 663b
00000220: 361c 4cbd b43b c93a af1c aa3c 4d33 2a3d
00000230: 5cc9 7e3d 25c3 373d 243c 42bd 66e3 ab3c
00000240: 1665 583c 6651 54bc 20c2 14bd 6ae0 0d3c
00000250: 1452 fbbc c2f9 36bd bad2 573d 61c4 453d
00000260: a31e e43c 053e 82bc 97d1 c8bc eae9 3ebd
00000270: 761c 3a3b ef44 bbbc 6a83 b4bc ba54 a0bc
00000280: e2d1 1fbd ca3f 8ebc 22e7 133d 503e 4d3a
00000290: 3142 cebc d754 7a3d efe8 e6bc 9ccf 59bd
000002a0: 6ad5 39bd 2d27 1dbd ca64 043d bd97 d93c
000002b0: d157 123c d1bb 48bc aa8e 16bd 5a3c 393d
000002c0: dc1d 09bc c22e 1dbd a7fc 043d 8fa4 373d
000002d0: 603d c9bc ebb5 813c 356b 2f3d 0cf0 fe3c
000002e0: 86df 5ebd 69bc 663c 92cb 33bd 0aa1 56bd
000002f0: af42 08bd 5bbd 39bd 0812 413c 3ab7 c83c
00000300: c994 0a3c 6c9f 6dbd 9d0b 13bd 05d1 15bd
00000310: f493 333d 6bad 543c 7dd7 16bd 99fe bebc
00000320: 0553 54bd 8d86 bbbc 7a39 2b3d 6612 eabc
00000330: 7698 1b3d 255e 69bd 18de 95bc b45a 593d
00000340: a7e6 ce3c 85f5 e6bc 4021 3dbd e294 ac3b
00000350: f6fd 783d f5db d1bc e228 92bc 08f8 e1bb
00000360: f8ba 4cba 5e30 40bd 6964 00bd adc8 72bd
00000370: a94e 843b 4851 2cbd 3d10 0b3c 57a4 41bd
00000380: ca27 4abd 9100 fc3c 93a2 a3bc 539c 20bd
00000390: c66c 40bd d885 27bd 0afc 823c 6a83 c93c
000003a0: 9abd fe3b 8219 29bd 839e b1bc 0975 a53c
000003b0: fb78 3d3d a567 033d 3255 65bd ad6a 5abd
000003c0: 4c9f c6bc c218 5e3d 2429 813c 4a5f c43b
000003d0: 8916 8f3c 48ff 003c 9850 2dbd c5c6 17bc
000003e0: ea21 493d 8a67 2cbd 5206 4fbd e453 423d
000003f0: 9d9d e0bc 4561 68bd a64b 6dbd dcb4 2b3d

bn1.weight f4 [16]
0.98423576 0.9963333 1.0068762 0.99128383 0.98804915 1.007062 1.0010729 0.99827355
0.99639815 0.9931337 0.9886721 0.9989066 0.9986902 0.98583424 1.0244659 0.99520665
00000000: e0f6 7b3f b30f 7f3f 52e1 803f c7c4 7d3f
00000010: caf0 7c3f 68e7 803f 2823 803f db8e 7f3f
00000020: f313 7f3f 033e 7e3f 9d19 7d3f 58b8 7f3f
00000030: 29aa 7f3f a25f 7c3f b321 833f ddc5 7e3f

bn1.bias f4 [16]
0.009793426 -0.013845328 -0.020164868 -0.0034549588 -0.02079638 -0.012521185 -0.019161422 -0.00313414
-0.016675834 0.0009170056 -0.0015504574 -0.029793013 -0.021842603 -0.018927481 -0.0056501436 -0.021842392
00000000: 9b74 203c 84d7 62bc cb30 a5bc 976c 62bb
00000010: 2b5d aabc a825 4dbc 6af8 9cbc 2566 4dbb
00000020: c29b 88bc 3463 703a b838 cbba 7a10 f4bc
00000030: 42ef b2bc ce0d 9bbc d724 b9bb d1ee b2bc

bn1.running_mean f4 [16]
0.1755553 0.31169745 0.18377432 0.205572 0.14029007 0.07727675 0.040786028 0.13828959
0.17067966 0.23381475 0.1560334 0.0992169 0.2852788 0.21692748 0.046989717 0.50096995
00000000: c5c4 333e cf96 9f3e 562f 3c3e 7781 523e
00000010: 33a8 0f3e 4643 9e3d 400f 273d c99b 0d3e
00000020: a6c6 2e3e 226d 6f3e 38c7 1f3e 3b32 cb3d
00000030: 1010 923e 3d22 5e3e 4a78 403d 913f 003f

bn1.running_var f4 [16]
0.089318566 0.19090961 0.155856 0.10262439 0.0847635 0.024926698 0.014157003 0.07162168
0.09390235 0.14830633 0.10202102 0.052658778 0.28219453 0.17231776 0.018456064 0.44878563
00000000: a7ec b63d cf7d 433e b798 1f3e bc2c d23d
00000010: 7c98 ad3d 1333 cc3c c6f2 673c 63ae 923d
00000020: e04f c03d 9ddd 173e 66f0 d03d bbb0 573d
00000030: cd7b 903e 1174 303e 2c31 973c 3bc7 e53e

conv2.weight f4 [16, 16, 5, 5]
0.003781094 0.0108485 -0.029238867 0.037192095 -0.0023285244 0.021190906 0.0035972036 -0.0016686205
-0.03551724 0.016172348 0.032120936 0.03240095 -0.004125005 -0.039772216 0.009930402 -0.053684417
0.0016878359 0.024172992 0.04890939 0.04561476 -0.049273033 -0.03552398 0.030712882 0.0140703
0.015262592 -0.044425204 0.030233836 0.0052220505 -0.00869097 0.022230828 -0.036688104 -0.02077803
-0.043306306 0.016500624 -0.027306294 -0.011971754 -0.0444561 0.005931692 -0.044649437 0.03187386
0.051348526 0.034874596 -0.028934713 -0.015761713 -0.040216096 -0.03075956 -0.00696772 -0.019618934
0.044091497 0.03415072 0.0052382764 0.04017585 0.046367113 -0.025645154 0.016966803 -0.029593939
0.040056612 0.032660708 0.0060541457 0.019981869 0.04524403 0.032488167 -0.021715032 0.044325147
0.005497382 -0.022271315 0.031885773 0.028192611 0.045844167 -0.03309819 -0.034395855 0.035792556
-0.02088769 0.0070563317 -0.013377092 0.020263366 -0.020668648 -0.031112552 -0.004472868 -0.019989163
-0.027834991 0.033363942 -0.021004379 0.031565502 0.018736139 -0.009872025 0.041810088 -0.02979436
0.020861408 -0.00032389283 -0.050447885 -0.0002581008 0.042421773 -0.0014242817 0.015101178 -0.035148185
-0.048770018 -0.047707863 -0.008201081 0.01570201 0.013092144 -0.0018807759 0.0060909 0.019542241
-0.01857075 -0.00779193 0.0052509457 0.030809147 -0.013964226 -0.0490887 0.046085972 -0.010624708
-0.019090433 0.040702526 -0.015961826 0.009174329 0.036502384 0.0015719516 0.026209766 0.04445366
-0.005215366 -0.032188866 0.045771215 -0.039308093 -0.0071550976 -0.006384054 -0.05004874 0.004858615
0.01721139 -0.027807109 0.028048443 -0.010743151 -0.033084173 0.049473293 -0.041266713 -0.03621424
0.016224312 0.012848637 -0.0058324956 -0.038569614 0.01893071 -0.00264952 0.033342693 0.02465289
0.033506237 0.013579065 0.0259246 -0.013423626 0.017531171 -0.050448503 -0.02837029 -0.048767745
-0.048993226 0.00786352 -0.025583994 0.011728439 -0.013355062 0.031099232 -0.05621049 0.026914127
0.033770572 -0.030501239 -0.06683396 -0.009431629 -0.029898355 -0.039623577 0.008300892 0.016439214
-0.04693718 -0.027090486 -0.011424989 -0.021460326 0.005895138 -0.0047466746 0.019773876 0.01582107
0.0440571 0.035596527 0.03016906 -0.016549403 -0.009183853 -0.02369241 0.018094625 0.0056209806
-0.03190657 -0.031485118 0.02461755 0.006076182 -0.0312855 0.009509434 -0.006844825 -0.022799794
-0.026506025 -0.056300428 -0.005779777 -0.05811036 -0.021603353 0.03564357 -0.013510211 -0.03566347
0.034587793 -0.035376724 -0.035210524 0.039661076 -0.015134027 0.014645397 -0.025418893 0.01828592
0.029910816 -0.037155613 -0.040976737 -0.031652983 0.008243938 -0.035014715 0.010062682 -0.03994943
0.017745398 0.041331064 -0.0006090647 0.008330374 0.010312795 0.007017857 0.032783967 -0.040264234
0.025761506 0.009653316 0.0064939163 -0.0040884996 0.055250604 0.050666906 0.030235048 -0.0038652737
-0.028449636 -0.029678179 0.014999655 0.015310612 -0.0024079613 0.012894639 0.005658064 0.016063754
-0.026725532 0.026113493 -0.018361937 -0.025718458 -0.0045559458 -0.012087526 0.021591999 -0.019656358
0.025578562 -0.011782534 -0.03702359 -0.03582379 0.01363733 -0.04448125 0.030593924 0.04827748
00000000: 3bcc 773b e8bd 313c 5986 efbc bd56 183d
00000010: 289a 18bb 8d98 ad3c 10bf 6b3b 9db5 daba
00000020: 877a 11bd df7b 843c 3e91 033d dcb6 043d
00000030: 0d2b 87bb 31e8 22bd 20b3 223c 31e4 5bbd
00000040: 603a dd3a 7006 c63c 3655 483d 8bd6 3a3d
00000050: 85d2 49bd 9881 11bd 9599 fb3c 1e87 663c
00000060: f30f 7a3c 34f7 35bd f3ac f73c bc1d ab3b
00000070: 9264 0ebc 6d1d b63c 4446 16bd b036 aabc
00000080: f461 31bd 512c 873c 73b1 dfbc 2d25 44bc
00000090: 9917 36bd a45e c23b 54e2 36bd 2a8e 023d
000000a0: d552 523d aad8 0e3d 7e08 edbc b51e 81bc
000000b0: a2b9 24bd 79fb fbbc 7951 e4bb e3b7 a0bc
000000c0: 4999 343d a0e1 0b3d d9a5 ab3b 6f8f 243d
000000d0: 71eb 3d3d c915 d2bc f7fd 8a3c fd6e f2bc
000000e0: 6712 243d 3cc7 053d db61 c63b 04b1 a33c
000000f0: ce51 393d 5012 053d b9e3 b1bc 498e 353d
00000100: 6223 b43b 5572 b6bc a89a 023d 31f4 e63c
00000110: 18c7 3b3d f891 07bd abe2 0cbd 379b 123d
00000120: a91c abbc cd38 e73b 972b 5bbc 5cff a53c
00000130: 4c51 a9bc c0df febc 2391 92bb 50c0 a3bc
00000140: 3506 e4bc a1a8 083d 6011 acbc d44a 013d
00000150: 887c 993c 46be 21bc 0e41 2b3d 4d13 f4bc
00000160: 8be5 aa3c 29d0 a9b9 71a2 4ebd b451 87b9
00000170: 74c2 2d3d f7ae baba ee6a 773c 8bf7 0fbd
00000180: 12c3 47bd 5269 43bd d45d 06bc 80a1 803c
00000190: 6f80 563c 5e84 f6ba 2c96 c73b 0d17 a03c
000001a0: af21 98bc 7253 ffbb 2010 ac3b 7763 fc3c
000001b0: 35ca 64bc 3c11 49bd a5c4 3c3d 4113 2ebc
000001c0: 8a63 9cbc b1b7 263d 60c2 82bc ed4f 163c
000001d0: 8683 153d f109 ce3a ddb5 d63c 0a15 363d
000001e0: a9e5 aabb 79d8 03bd 997a 3b3d 8601 21bd
000001f0: 4f75 eabb 5431 d1bb e8ff 4cbd 0435 9f3b
00000200: e7fe 8c3c bccb e3bc d9c5 e53c 0b04 30bc
00000210: 4583 07bd 82a4 4a3d 4907 29bd 6255 14bd
00000220: d9e8 843c 1783 523c 851e bfbb 2cfb 1dbd
00000230: 9414 9b3c 92a3 2dbb 5992 083d dcf4 c93c
00000240: d63d 093d ba7a 5e3c d45f d43c c5ee 5bbc
00000250: 889d 8f3c 17a3 4ebd cf68 e8bc b0c0 47bd
00000260: 1fad 48bd fed5 003c 8695 d1bc a328 403c
00000270: 31cf 5abc d1c3 fe3c f93c 66bd 047b dc3c
00000280: 0353 0a3d bcdd f9bc 3ee0 88bd 1f87 1abc
00000290: 65ed f4bc 554c 22bd 7700 083c 88ab 863c
000002a0: 3341 40bd deec ddbc e12f 3bbc 91cd afbc
000002b0: 002c c13b fe89 9bbb d3fc a13c 309b 813c
000002c0: 3875 343d aacd 113d 1b25 f73c 9d92 87bc
000002d0: df77 16bc 9616 c2bc 2e3b 943c 3430 b83b
000002e0: 77b0 02bd 8af6 00bd bfaa c93c b51a c73b
000002f0: 3925 00bd 75cd 1b3c 8e4a e0bb a2c6 babc
00000300: 2a23 d9bc 479b 66bd 4964 bdbb 2105 6ebd
00000310: 84f9 b0bc fefe 113d ef59 5dbc dc13 12bd
00000320: eeab 0d3d 2fe7 10bd e938 10bd a773 223d
00000330: b6f4 77bc 3ff3 6f3c 483b d0bc 5bcc 953c
00000340: 8707 f53c 7c30 18bd 39d7 27bd 8fa6 01bd
00000350: 9511 073c 976b 0fbd f3dd 243c 03a2 23bd
00000360: cc5e 913c c34a 293d a4a9 1fba 1f7c 083c
00000370: fff6 283c 0df6 e53b 7b48 063d 1cec 24bd
00000380: cb09 d33c f128 1e3c ebca d43b d2f8 85bb
00000390: 754e 623d 1a88 4f3d 7eaf f73c 8850 7dbb
000003a0: 360f e9bc a71f f3bc 1dc1 753c 5cd9 7a3c
000003b0: e3ce 1dbb 0944 533c 4867 b93b 2298 833c
000003c0: 81ef dabc f7eb d53c c66b 96bc 84af d2bc
000003d0: 0b4a 95bb c20a 46bc b4e1 b03c 5f06 a1bc
000003e0: 228a d13c 880b 41bc 0ca6 17bd f7bb 12bd
000003f0: 1c6f 5f3c f931 36bd 1ca0 fa3c 9bbe 453d

fc1.weight f4 [16, 784]
0.01745446 0.0055286274 0.01218394 0.020056443 -0.034792043 0.008972765 0.020191971 0.033168674
0.018877784 0.011099365 0.005631605 -0.04144183 0.01501868 -0.00033254668 -0.008559733 -0.0176198
0.021556469 0.0022564249 -0.034495063 0.036021598 0.018182496 -0.017050391 0.01861422 -0.025116391
-0.012344755 0.011237404 -0.026637625 0.016351242 -0.00871238 -0.006740418 -0.009060339 0.026244532
-0.0036917997 0.012796208 0.030420361 0.023139901 -0.011404609 0.035869002 -0.011200471 0.010745677
0.017281033 0.02440662 0.037583575 0.021330094 -0.006865666 -0.014863435 0.01934016 -0.030421166
-0.018633114 -0.0029468734 -0.028919378 -0.0034751294 0.030425834 -0.026346356 -0.01951168 -0.013009438
0.025749074 0.023052756 0.0046914117 0.028961966 0.010629969 -0.02755122 0.021600548 0.0074646906
0.022810956 -0.018000703 0.026673503 0.0016588296 0.030124765 0.023921313 -0.005064041 -0.03321719
-0.0017731215 0.031637795 0.01853121 -0.0023929735 -0.0016715176 -0.02800047 0.013893931 0.026813295
0.028207114 0.0060566952 -0.029514171 -0.023928812 -0.013032303 -0.03795276 -0.031417783 0.0074963183
0.009029091 -0.0004975532 0.013681555 0.01654996 -0.022726707 -0.02936313 0.008997241 0.008598642
-0.022181008 -0.03384481 -0.02443138 0.035211444 0.007667602 0.028836733 -0.028681504 -0.011370821
0.020103103 0.014494891 0.00017230792 -0.019875605 -0.0623503 -0.043018147 0.024869865 0.018315462
0.003918205 0.009849926 -0.016767077 -0.04910938 -0.03501535 0.011459687 -0.02441673 -0.0046472237
0.007834942 -0.007856733 -0.02934367 0.0007206722 -0.028618876 0.008190911 -0.0052029765 -0.004873877
-0.002123003 0.007720835 -0.030582156 -0.0065455516 -0.026807787 0.026244119 -0.007699328 -0.010880573
-0.027650636 0.0011916644 -0.029612748 0.03108523 0.024701433 -0.003013221 0.0066341697 0.028717948
0.03139641 0.007386699 0.006252352 -0.008487112 -0.014090379 0.011897607 0.006186513 0.01284403
0.019217761 0.0049312697 -0.0306094 0.0074929036 -0.024635673 0.021204777 0.010831813 0.023957297
0.0067267246 0.0006394396 0.012693779 0.026423788 -0.017649906 0.010818451 -0.008711236 0.008979903
0.03160318 -0.030139903 0.025861101 0.029477015 -0.018724376 0.00578546 -0.036366276 0.006319693
0.029740008 0.03906913 -0.016303254 0.01802553 0.016413083 0.02533961 -0.027048226 0.027865198
-0.01339114 -0.034701865 0.023799283 0.020486219 -0.031535134 0.025248995 0.008261584 -0.009416221
-0.02437564 -0.033349257 0.008906572 -0.012282888 -0.00040886214 0.008601651 -0.032382727 -0.028013648
-0.036628556 -0.0035314544 0.0054312083 -0.015253629 -0.0039763814 0.0028042167 -0.048602022 -0.048507027
0.00586271 -0.01680251 0.0057455264 -0.029058477 -0.032365717 -7.936074e-05 -0.045251697 0.0018142764
-0.04260573 0.028713994 0.017291356 -0.028426161 -0.033130936 -0.037255816 0.014895649 -0.031601094
0.0046560103 -0.02990628 0.0025782776 0.008780074 0.021285877 0.032592043 -0.011546043 0.019811664
0.031553373 0.0018661085 -0.009373657 -0.032342453 -0.014662143 -0.0005384564 -0.005938321 0.016751593
0.0135263605 0.01251003 -0.025263414 -0.022780623 0.015808837 0.0033682026 -0.02853096 -0.014877151
-0.0017333574 0.00078984024 -0.0105719855 0.022832489 -0.0036441055 0.010240532 -0.030811574 -0.0022466541
00000000: a8fc 8e3c 7d29 b53b 269f 473c 694d a43c
00000010: 1a82 0ebd 8102 133c a269 a53c e0db 073d
00000020: 95a5 9a3c 1cda 353c 5489 b83b e9be 29bd
00000030: e910 763c a959 aeb9 1f3e 0cbc 6657 90bc
00000040: 3197 b03c 87e0 133b b24a 0dbd 628b 133d
00000050: 75f3 943c 43ad 8bbc d97c 983c e4c0 cdbc
00000060: a841 4abc 171d 383c 2637 dabc 0af3 853c
00000070: 5fbe 0ebc b9de dcbb d171 14bc c6fe d63c
00000080: 1ff2 71bb 30a7 513c 1f34 f93c e48f bd3c
00000090: 66da 3abc 60eb 123d 2e82 37bc a30e 303c
000000a0: f490 8d3c 64f0 c73c 3cf1 193d 73bc ae3c
000000b0: 61f9 e0bb c485 73bc 416f 9e3c cf35 f9bc
000000c0: 79a4 98bc 5520 41bb 55e8 ecbc ffbe 63bb
000000d0: 993f f93c 50d4 d7bc f5d6 9fbc 8a25 55bc
000000e0: b9ef d23c 22d9 bc3c 6aba 993b a541 ed3c
000000f0: 5229 2e3c 19b3 e1bc a2f3 b03c 5d9a f43b
00000100: 0bde ba3c 3676 93bc 6482 da3c 166d d93a
00000110: 36c8 f63c a1f6 c33c 41f0 a5bb c00e 08bd
00000120: 1668 e8ba a296 013d c4ce 973c 6fd3 1cbb
00000130: d316 dbba 3e61 e5bc 5fa3 633c 8ea7 db3c
00000140: 9b12 e73c 3e77 c63b b4c7 f1bc 5b06 c4bc
00000150: 7185 55bc 5a74 1bbd efaf 00bd ada3 f53b
00000160: c1ee 133c 3b6e 02ba 9a28 603c c893 873c
00000170: 5c2d babc f28a f0bc 2a69 133c 52e1 0c3c
00000180: f2b4 b5bc dba0 0abd 5124 c8bc e039 103d
00000190: 8240 fb3b 033b ec3c 79f5 eabc ae4c 3abc
000001a0: 43af a43c fb7b 6d3c 8ead 3439 2ad2 a2bc
000001b0: 0763 7fbd cc33 30bd e3bb cb3c 4f0a 963c
000001c0: 4964 803b 9661 213c 1c5b 89bc eb26 49bd
000001d0: 416c 0fbd 69c1 3b3c 9805 c8bc bd47 98bb
000001e0: 215e 003c 87b9 00bc 2362 f0bc 7eeb 3c3a
000001f0: 2272 eabc 2c33 063c bb7d aabb 0bb5 9fbb
00000200: 1422 0bbb 0fff fc3b 6e87 fabc 117c d6bb
00000210: 019c dbbc e8fd d63c a54a fcbb 6e44 32bc
00000220: 9683 e2bc 9f31 9c3a 6f96 f2bc 74a6 fe3c
00000230: a95a ca3c 7679 45bb 7363 d93b e741 eb3c
00000240: 8699 003d 1f0c f23b 88e0 cc3b 870d 0bbc
00000250: 55db 66bc 2eee 423c 3cb8 ca3b c46f 523c
00000260: 916e 9d3c 7d96 a13b 90c0 fabc 0887 f53b
00000270: c0d0 c9bc a4b5 ad3c eb77 313c 1842 c43c
00000280: db6b dc3b 11a0 273a 91f9 4f3c b376 d83c
00000290: 8996 90bc df3f 313c 92b9 0ebc 7120 133c
000002a0: 5672 013d f5e7 f6bc a9da d33c c879 f13c
000002b0: dd63 99bc f593 bd3b cef4 14bd 6d15 cf3b
000002c0: 51a1 f33c f406 203d 678e 85bc 47aa 933c
000002d0: bb74 863c 0495 cf3c 3e94 ddbc 8e45 e43c
000002e0: 8366 5bbc 8b23 0ebd b7f6 c23c b7d2 a73c
000002f0: fc2a 01bd fbd6 ce3c 985b 073c 7e46 1abc
00000300: 6caf c7bc 3b99 08bd dfec 113c 2b3e 49bc
00000310: 8c5c d6b9 f0ed 0c3c c0a3 04bd e17c e5bc
00000320: d307 16bd f96f 67bb 47f8 b13b 5bea 79bc
00000330: 4e4c 82bb f3c6 373b ea12 47bd 4eaf 46bd
00000340: fa1b c03b 6ba5 89bc f844 bc3b 0b0c eebc
00000350: ea91 04bd 796e a6b8 d859 39bd 04cd ed3a
00000360: 5983 2ebd 9c39 eb3c 9aa6 8d3c fbdd e8bc
00000370: 4eb4 07bd 8e99 18bd e10c 743c 2670 01bd
00000380: 7291 983b 04fe f4bc 52f8 283b 4dda 0f3c
00000390: b85f ae3c 3c7f 053d 9d2b 3dbc 124c a23c
000003a0: 1c3e 013d 3698 f43a f893 19bc 8579 04bd
000003b0: 7c39 70bc 3327 0dba 3f96 c2bb a33a 893c
000003c0: ab9d 5d3c def6 4c3c 38f5 cebc 6e9e babc
000003d0: 8981 813c 10bd 5c3b c3b9 e9bc 4bbf 73bc
000003e0: d331 e3ba 480d 4f3a 1f36 2dbc 330b bb3c
000003f0: f2d1 6ebb e8c7 273c 8e68 fcbc 9a3c 13bb

fc1.bias f4 [16]
0.029168958 -0.04091192 -0.01169615 -0.02179911 -0.024397446 -0.020760188 0.011395726 0.01594646
0.021623805 -0.004949239 -0.0076353145 0.021257842 -0.0107241385 0.007074837 -0.04392023 -0.022872372
00000000: bdf3 ee3c 4293 27bd 35a1 3fbc 0c94 b2bc
00000010: 27dd c7bc 4511 aabc 24b5 3a3c 27a2 823c
00000020: 6824 b13c 3a2d a2bb a931 fabb ed24 ae3c
00000030: 4cb4 2fbc 09d4 e73b b3e5 33bd d75e bbbc

fc2.weight f4 [2, 16]
0.08357016 -0.19755091 -0.074847 0.027198782 -0.20822142 0.20501645 -0.042981163 0.1757967
-0.05690219 0.22114055 0.08252447 -0.035807613 0.10400054 0.050854836 -0.055573836 0.2084792
-0.15188222 -0.00780482 -0.013558848 -0.12890776 -0.049637135 -0.15540218 0.10013335 -0.09039991
-0.17161581 0.025310088 -0.21907046 -0.22654578 0.03208233 0.1560271 0.0008259323 0.09325227
00000000: d526 ab3d c94a 4abe 6249 99bd fbcf de3c
00000010: ff37 55be d5ef 513e 040d 30bd 0d04 343e
00000020: 4512 69bd ab72 623e 9702 a93d 01ab 12bd
00000030: 3cfe d43d 294d 503d 64a1 63bd 927b 553e
00000040: 0387 1bbe 93bf ffbb ee25 5ebc 6500 04be
00000050: 4f50 4bbd c021 1fbe b712 cd3d 9723 b9bd
00000060: 0ebc 2fbe 1a57 cf3c 0254 60be 9efb 67be
00000070: c368 033d 91c5 1f3e 6183 583a 0cfb be3d

fc2.bias f4 [2]
-0.13904636 0.066059984
00000000: 2b62 0ebe 754a 873d
