Unimodal/weights/audio/MesoInception4_realA_fakeB.pt (torch, 110954 bytes, 32 tensors)

Incption1_conv1.weight f4 [1, 3, 1, 1]
0	0xbe2c1c7a	-0.16807738
1	0xbe18b262	-0.14911798
2	0x3ea64f34	0.32482302

Incption1_conv2_1.weight f4 [4, 3, 1, 1]
0	0x3e56d020	0.20977831
1	0x3eea1e92	0.45726448
2	0xbe5d846e	-0.21632549
3	0x3e472be6	0.1945034
4	0x3e52784c	0.20553702
5	0xbef610c7	-0.48059675
6	0xbf0f507f	-0.559822
7	0xbe9951ba	-0.29945165
8	0x3eca68da	0.3953312
9	0xbf0b396f	-0.5438451
10	0xbf00bb94	-0.5028622
11	0x3ea56ec6	0.32311076

Incption1_conv2_2.weight f4 [4, 4, 3, 3]
0	0x3db8464d	0.08997784
1	0x3e0bf784	0.13668638
2	0xbe00cc17	-0.12577854
3	0xbdf8b21b	-0.12143346
4	0x3daeb4f4	0.08530608
5	0x3e14b12e	0.14520714
6	0x3dcd8912	0.1003591
7	0x3cd506b6	0.026004177
8	0x3d6272d3	0.055285286
9	0x3e2213c6	0.15827855
10	0xbddb7e27	-0.10717421
11	0xbd9b727f	-0.07590198
12	0x3dee41c0	0.116336346
13	0xbde928f7	-0.113847665
14	0xbdbd1795	-0.092330135
15	0x3df7d2de	0.121007666
16	0x3d56fdba	0.052488066
17	0x3d5a0bbb	0.053233843
18	0xbd90e6c7	-0.07075267
19	0xbafb1aa0	-0.0019157715
20	0x3e1c390c	0.15256137
21	0xbdce2ceb	-0.10067161
22	0x3ac4ccad	0.0015014611
23	0x3da1e97a	0.0790586
24	0xbdecc3a2	-0.115607515
25	0x3e25eafb	0.16202919
26	0xbdab0f7c	-0.08352563
27	0xbd243d2a	-0.040097393
28	0xbd372681	-0.044714455
29	0xbdde7bbc	-0.10863444
30	0xbe281003	-0.16412358
31	0x3dc0da80	0.094166756
32	0x3d3456a5	0.044027943
33	0xbe207a7b	-0.15671723
34	0xbddb702d	-0.10714755
35	0x3e2858c4	0.16440111
36	0x3d83222a	0.06403001
37	0x3d89b71a	0.06724377
38	0xbdcbe297	-0.09955328
39	0xbd94e3c4	-0.07270005
40	0xbccacd3c	-0.024756067
41	0xbcf80307	-0.030274881
42	0xbde914fa	-0.11380954
43	0x3c68e0c9	0.014213749
44	0x3c8afc55	0.016966024
45	0xbcaeee78	-0.021353945
46	0x3cba17b8	0.022716388
47	0xbd87adbb	-0.06624933
48	0x3d30862e	0.043096714
49	0x3d7fd013	0.062454294
50	0xbdb436af	-0.087994926
51	0xbe297de1	-0.16551925
52	0x3db1d089	0.08682353
53	0x3d219ee6	0.039458178
54	0xbdae4fe9	-0.085113354
55	0x3e2419c5	0.16025455
56	0xbd9aadb5	-0.07552663
57	0x3de5d8b3	0.11222973
58	0x3dac5787	0.08415132
59	0xbe0f4c40	-0.13993931
60	0x3ddb3bed	0.10704789
61	0xbe1d7029	-0.15374817
62	0xbdbdfbba	-0.09276529
63	0xbce65753	-0.028117811
64	0xbde6d3fa	-0.112709
65	0x3e268fdd	0.16265817
66	0xbd0a7732	-0.03380508
67	0x3d86bf74	0.065794855
68	0xbe1899b1	-0.14902379
69	0x3dc3a628	0.09553176
70	0xbd562aa1	-0.052286748
71	0xbe023ddc	-0.1271891
72	0x3cc64d28	0.024206713
73	0x3da4fb4b	0.08055743
74	0x3e137f8f	0.14404128
75	0xbdd0bca8	-0.10192233
76	0xbda85b61	-0.08220554
77	0x3d028db1	0.03187341
78	0x3d3968a1	0.045265798
79	0x3d83a7b2	0.0642847
80	0x3dbb899e	0.09157108
81	0xbd1aad87	-0.037763145
82	0x3dbe0212	0.09277739
83	0x3dfc2675	0.123120226
84	0xbd32637b	-0.043551903
85	0x3df33933	0.11876144
86	0x3da7406b	0.081665836
87	0x3e169210	0.14704156
88	0xbdc1d33b	-0.09464117
89	0xbda825a0	-0.082103014
90	0xbd44864a	-0.04797963
91	0x3c0d9996	0.008642575
92	0x3dcd39da	0.100208
93	0xbdc280f9	-0.09497256
94	0x3dab46a2	0.083630815
95	0xbd740ec7	-0.059584405
96	0x3dce043c	0.100594014
97	0xbc066977	-0.008203856
98	0xbe15b605	-0.14620216
99	0xbdbb7423	-0.09153011
100	0xbdf6a858	-0.12043828
101	0x3da9abb7	0.08284705
102	0xbde49952	-0.11162056
103	0xbc606ec1	-0.013698281
104	0x3d13f4c2	0.03612209
105	0xbdbb5282	-0.091465965
106	0x3d43f8a6	0.04784455
107	0xbe26c494	-0.16285926
108	0xbdf48743	-0.119398616
109	0xbe1a7f92	-0.15087727
110	0xbd4f8a45	-0.050668973
111	0xbd793bba	-0.060847975
112	0x3cc4f279	0.024041401
113	0xbcfd4767	-0.030917836
114	0x3da06b4e	0.07832967
115	0x3e1cdf76	0.15319619
116	0x3d760306	0.060061477
117	0xbd86371d	-0.06553481
118	0xbe1ffb4f	-0.1562321
119	0x3d79e864	0.06101264
120	0xbda8d8b6	-0.08244459
121	0x3dad56b8	0.08463806
122	0x3de57f38	0.11205906
123	0x3d83cbdd	0.06435368
124	0x3e1fdb29	0.15610947
125	0x3e226868	0.1586014
126	0x3d112cf2	0.035443254
127	0xbdf8fa86	-0.121571586
128	0x3e1856f4	0.1487692
129	0xbda1b163	-0.07895162
130	0xbda1977c	-0.078902215
131	0x3e0e9ffe	0.1392822
132	0x3e043ad3	0.12913065
133	0x3d4c7e10	0.04992491
134	0x3c22ee74	0.009944547
135	0xbe0f6821	-0.14004566
136	0xbc8ee1d2	-0.017441664
137	0x3e23d4b3	0.15999107
138	0x3d2e6274	0.04257436
139	0x3c66e648	0.014092989
140	0xbd0dbaf4	-0.03460212
141	0xbd6e0f0e	-0.058119826
142	0x3dca9a44	0.09892705
143	0x3c22cff8	0.009937279

Incption1_conv3_1.weight f4 [4, 3, 1, 1]
0	0x3ec0b98a	0.37641555
1	0xbdcf55d5	-0.10123793
2	0x3e81a662	0.25322253
3	0x3e746a52	0.23868683
4	0x3dbd4102	0.09240915
5	0x3eb9eb82	0.3631249
6	0x3eb8e00b	0.3610843
7	0x3f08ccee	0.534377
8	0x3ee2d8b4	0.44305956
9	0xbe17df5c	-0.14831299
10	0xbefa8634	-0.48930514
11	0x3dd735f4	0.105083376

Incption1_conv3_2.weight f4 [4, 4, 3, 3]
0	0xbadd193b	-0.0016868481
1	0xbd2f3711	-0.042777125
2	0xbcde216e	-0.02711555
3	0x3c04b641	0.008100093
4	0x3dfab6f5	0.122419275
5	0x3d587459	0.052845333
6	0xbd714ff0	-0.058914125
7	0xbd8a8c32	-0.067650214
8	0xbd255494	-0.040363863
9	0xbd848926	-0.064714715
10	0x3e1a29cf	0.15055011
11	0x3db6533f	0.08902597
12	0x3e1a4dae	0.15068695
13	0x3ab05f4b	0.0013456134
14	0x3d0d33ae	0.034473114
15	0x3d6d8da4	0.057996407
16	0xbe20a2eb	-0.15687148
17	0x3c811c70	0.01576063
18	0xbc3b9479	-0.011448973
19	0xbdbdfb03	-0.09276392
20	0xbe03a91c	-0.12857479
21	0x3e1747ce	0.14773485
22	0x3e0b98a2	0.13632444
23	0x3d9ff525	0.078104295
24	0x3e230ff0	0.15924048
25	0xbd88b317	-0.06674784
26	0xbce4a62a	-0.027911264
27	0x3d81cebf	0.06338262
28	0xbce731df	-0.028222023
29	0xbd09196b	-0.033471506
30	0xbe0d494d	-0.13797493
31	0x3d341247	0.043962743
32	0xbdd00ebf	-0.101590626
33	0x3bbf4c39	0.005837944
34	0x3e257c91	0.161608
35	0xbd55c506	-0.05218985
36	0xbd575b3b	-0.05257724
37	0x3dceac38	0.10091442
38	0xbd77e7f0	-0.060523927
39	0xbc783acf	-0.01515074
40	0x3e1f4d28	0.15556777
41	0xbd8aa37d	-0.06769464
42	0xbdf5371c	-0.11973402
43	0xbdbe2658	-0.09284657
44	0xbd3a9ffc	-0.04556273
45	0xbda1c70d	-0.07899294
46	0xbdb04dbf	-0.08608579
47	0x3d8b63c3	0.068061374
48	0x3ce1627b	0.02751278
49	0xbd5aba33	-0.05340023
50	0xbe03fbd7	-0.12889038
51	0xbd58f75d	-0.05297028
52	0xbd8f3d4a	-0.06994112
53	0xbd5bb336	-0.053637706
54	0xbe19dd11	-0.15025736
55	0x3d14b97a	0.036309697
56	0xbdf9476c	-0.12171826
57	0xbe05bda1	-0.13060619
58	0xbe0b7f32	-0.1362274
59	0x3d8fade9	0.070155926
60	0xbdce8146	-0.10083251
61	0xbd8c12af	-0.06839501
62	0x3e0662a6	0.13123569
63	0x3db52234	0.08844414
64	0x3dc2ea09	0.09517295
65	0xbe22ced3	-0.1589921
66	0xbdf31740	-0.11869669
67	0xbd80bdc8	-0.06286198
68	0x3e0c5dc5	0.13707645
69	0x3c8fbb9f	0.01754552
70	0xbe000f7d	-0.12505908
71	0x39e1ce70	0.00043069152
72	0xbe056c37	-0.13029562
73	0xbd191eb1	-0.037382785
74	0xbd406033	-0.046966743
75	0x3e13e07b	0.14441101
76	0x3d544487	0.051823165
77	0xbcf4a6d7	-0.029864712
78	0x3ce258bc	0.027630202
79	0xbd440c18	-0.047863096
80	0x3d84d092	0.06485094
81	0x3d8536a1	0.0650456
82	0x3d33ad07	0.043866184
83	0xbd875e01	-0.06609727
84	0x3e11b16d	0.14227839
85	0xbcc37676	-0.023860198
86	0xbd8679ab	-0.06566175
87	0x3dd4a939	0.10383839
88	0x3e0b5f62	0.13610604
89	0x3e293dc2	0.16527465
90	0x3d46a26c	0.04849474
91	0xbd6c5dbc	-0.05770658
92	0x3dab09fb	0.08351513
93	0x3e1282b5	0.14307673
94	0xbe2730e3	-0.16327243
95	0xbcaf7d2f	-0.021421997
96	0xbde9e7ef	-0.11421191
97	0x3d004e15	0.031324465
98	0x3d8bfa18	0.06834811
99	0xbd0973d7	-0.03355774
100	0xbc55f123	-0.01305798
101	0x3d9bf6c7	0.076154284
102	0xbce64b39	-0.02811204
103	0xbe0f8705	-0.1401635
104	0x3e095bf0	0.13413978
105	0xbdaab000	-0.083343506
106	0xbc981abe	-0.01856744
107	0x3c85b1b7	0.016320093
108	0xbc2f7ab6	-0.010710409
109	0xbe213bff	-0.15745543
110	0x3d9b6a45	0.07588629
111	0xbd9b2158	-0.07574719
112	0xbdb094e3	-0.08622148
113	0x3d222deb	0.039594572
114	0xbdb2dd67	-0.087336354
115	0xbd9e73d4	-0.07736936
116	0xbd680d82	-0.056653507
117	0xbd81aea8	-0.06332141
118	0xbd900674	-0.07032481
119	0xbd3a96c9	-0.045553956
120	0x3d315d97	0.043302145
121	0xbe09e0ca	-0.13464656
122	0xbdcf1919	-0.10112209
123	0x3b08c243	0.0020867742
124	0x3cbaf689	0.022822635
125	0x3dbb7f17	0.091551
126	0xbdf138a5	-0.11778382
127	0x3d56f44f	0.052479085
128	0x3dc0c416	0.094124004
129	0x3dbd82ac	0.09253439
130	0xbe1ebbb1	-0.15501286
131	0xbd82be8b	-0.063839994
132	0xbe130cc5	-0.1436034
133	0xbdd8ba13	-0.10582366
134	0x3dbd192d	0.092333175
135	0xbcc6178f	-0.024181155
136	0x3d926aa7	0.071492486
137	0xbdc722fa	-0.09723468
138	0x3ccfa24b	0.025345942
139	0xbdcee9b9	-0.10103173
140	0x3dab203c	0.083557576
141	0xbd949436	-0.072548315
142	0xbd29be53	-0.041441273
143	0xbe139106	-0.14410791

Incption1_conv4_1.weight f4 [2, 3, 1, 1]
0	0x3b39a039	0.002832426
1	0x3f0c9348	0.54912233
2	0x3e8ff67a	0.28117734
3	0xbe9d3be8	-0.30709767
4	0x3c0e8fc0	0.008701265
5	0xbd7f78c0	-0.062371016

Incption1_conv4_2.weight f4 [2, 2, 3, 3]
0	0xbe426dd4	-0.18987209
1	0x3e3dd322	0.18537572
2	0x3b8a96f7	0.004229422
3	0x3d497690	0.049185336
4	0xbdc22d72	-0.09481324
5	0xbde16f44	-0.1100755
6	0x3d1d2765	0.038367648
7	0x3db36aa8	0.087605774
8	0x3d58ab67	0.052897837
9	0xbde84b3f	-0.11342477
10	0x3e69cb9e	0.2283158
11	0xbd1012da	-0.03517423
12	0xbe135960	-0.14389563
13	0xbde28791	-0.110610135
14	0x3e6d43c4	0.23170382
15	0x39fd530d	0.00048317798
16	0xbd0500c8	-0.03247145
17	0xbdc93b30	-0.09825742
18	0xbd7906ec	-0.060797617
19	0xbe4b5d77	-0.19859873
20	0xbe404524	-0.18776375
21	0x3e0e2bfd	0.13883968
22	0x3e4eb844	0.2018748
23	0x3e663bed	0.22483797
24	0xbe2dc059	-0.16967906
25	0x3e020c35	0.12699969
26	0xbe15e9be	-0.14639947
27	0x3e0efa5d	0.13962694
28	0x3e2e0fba	0.16998187
29	0x3e3b27f6	0.18276963
30	0x3e2ce873	0.16885547
31	0x3e16bcf4	0.14720517
32	0x3b9bd092	0.004755088
33	0x3ddcd2ce	0.10782395
34	0xbdabd54f	-0.08390295
35	0x3dd340cb	0.10315093

Incption1_bn.weight f4 [11]
0	0x3f7fcc28	0.9992089
1	0x3f801bd5	1.0008494
2	0x3f800ac1	1.0003282
3	0x3f7fec53	0.9996998
4	0x3f8006cc	1.0002074
5	0x3f7fce8c	0.9992454
6	0x3f800cd7	1.0003918
7	0x3f7fdea1	0.9994908
8	0x3f801d13	1.0008873
9	0x3f7fcf44	0.9992564
10	0x3f80100d	1.0004898

Incption1_bn.bias f4 [11]
0	0xba6ba977	-0.0008989791
1	0x3a7757e3	0.00094353984
2	0x3a47ba4f	0.00076190097
3	0x3960360d	0.0002138244
4	0xba2f83c1	-0.0006695353
5	0xb91d8fcb	-0.00015026254
6	0xb9e46687	-0.00043563938
7	0x3a13d280	0.0005638972
8	0xba7ef39a	-0.00097256305
9	0xba3312bb	-0.0006831099
10	0xb974667a	-0.00023307829

Incption1_bn.running_mean f4 [11]
0	0x3e239809	0.15975966
1	0x3e4610d1	0.19342352
2	0x3d141350	0.03615123
3	0x3e1cd67f	0.15316199
4	0xbe221975	-0.15830024
5	0x3ed2f11c	0.41199577
6	0xbf50eea4	-0.81614137
7	0x3eb2f0a5	0.34949222
8	0xbeefa7df	-0.46807763
9	0x3cf0b417	0.029382749
10	0xbe5a8718	-0.21340597

Incption1_bn.running_var f4 [11]
0	0x3add078f	0.0016863215
1	0x3e0d1d6f	0.1378076
2	0x3c337747	0.010953731
3	0x3e230ad0	0.15922093
4	0x3d5ded92	0.054181643
5	0x3e7f52fd	0.24934001
6	0x3f658f13	0.8967144
7	0x3e36ff00	0.17870712
8	0x3eb78dbc	0.35850322
9	0x3bfdfe4e	0.0077512627
10	0x3e12b6d2	0.14327553

Incption2_conv1.weight f4 [2, 11, 1, 1]
0	0xbdc58ae2	-0.096456304
1	0xbb97338b	-0.0046142987
2	0xbe867d51	-0.26267484
3	0xbda05881	-0.07829381
4	0xbe23416d	-0.15942927
5	0xbdcebaa0	-0.1009419
6	0xbe45dd07	-0.19322596
7	0xbe8a9e91	-0.27074102
8	0x3c9ca2df	0.019120632
9	0x3e4812fe	0.19538495
10	0x3e8c9ff9	0.274658
11	0x3e3407d8	0.17581117
12	0xbe1fe47d	-0.15614505
13	0xbe98f255	-0.29872385
14	0x3de9c149	0.11413819
15	0x3e2d6b19	0.16935386
16	0xbe848dcb	-0.2588943
17	0x3ddd4a4a	0.10805185
18	0x3e826b9c	0.25472724
19	0x3c925848	0.017864361
20	0xbe3a0bd5	-0.18168576
21	0x3e7c8c05	0.24662788

Incption2_conv2_1.weight f4 [4, 11, 1, 1]
0	0x3e03760f	0.12838005
1	0x3e4bd7b5	0.19906504
2	0xbe50d696	-0.20394358
3	0x3e332d76	0.1749781
4	0xbe529cb3	-0.20567589
5	0x3e989021	0.29797462
6	0xbe01d4d2	-0.12678841
7	0x3e3943f9	0.18092336
8	0x3d7a0e4e	0.0610488
9	0x3da3cf50	0.07998526
10	0xbd39d30a	-0.04536728
11	0x3dfbf47b	0.1230249
12	0xbe017f96	-0.12646326
13	0xbe919828	-0.28436399
14	0xbdeed315	-0.116613545
15	0x3e7177ca	0.23580852
16	0xbda3e4a5	-0.08002595
17	0x3dc38d0c	0.09548387
18	0xbde5ef35	-0.11227266
19	0x3e68588d	0.2269003
20	0x3e389d19	0.18028678
21	0x3ddbf69e	0.10740398
22	0xbe1e9a16	-0.15488467
23	0xbe7d2bbb	-0.24723713
24	0x3c317438	0.010830931
25	0xbe35f267	-0.1776825
26	0x3e7e66c8	0.24843895
27	0xbe9496bc	-0.2902125
28	0x3e0ae02b	0.13562076
29	0x3e998468	0.2998383
30	0x3e1b640a	0.1517488
31	0x3dd16a3e	0.10225342
32	0xbe941e57	-0.28929397
33	0x3e944eef	0.28966472
34	0xbd551f5e	-0.052031867
35	0xbe9019ca	-0.28144675
36	0x3e984e55	0.29747263
37	0xbdfc0bf8	-0.1230697
38	0xbcb2b7fd	-0.021816248
39	0x3e8d213f	0.27564427
40	0xbe561e09	-0.20909895
41	0xbe59f86e	-0.21286175
42	0x3d46c086	0.04852345
43	0xbd2463ff	-0.040134426

Incption2_conv2_2.weight f4 [4, 4, 3, 3]
0	0x3d1d0105	0.03833105
1	0xbe0f23fa	-0.13978568
2	0x3bb692b8	0.0055716895
3	0xbd987268	-0.07443696
4	0xbda8c5bf	-0.08240842
5	0xbe1c93c5	-0.15290745
6	0x3db4ba47	0.08824592
7	0x3d028de5	0.031873602
8	0xbe1072fe	-0.14106366
9	0x3e073126	0.13202342
10	0x3d4a8268	0.04944077
11	0x3cf99183	0.030464893
12	0xbdc75890	-0.09733689
13	0x3cce19ee	0.025158849
14	0x3e24bdea	0.16088071
15	0x3deb507e	0.11489962
16	0xbe046605	-0.12929542
17	0x3e1c50b3	0.1526516
18	0x3c519e60	0.012794107
19	0x3da2cace	0.07948838
20	0x3e03e443	0.12880044
21	0x3e12389a	0.14279404
22	0xbe046106	-0.12927637
23	0x3e1613e9	0.14656033
24	0xbde6945a	-0.112587646
25	0x3c565e57	0.013084016
26	0xbded35de	-0.1158254
27	0xbd154efa	-0.03645227
28	0xbbf093fe	-0.007341861
29	0xbc9e1429	-0.019296722
30	0xbcd98cc4	-0.02655638
31	0x3c586932	0.013208674
32	0x3e28cdb4	0.1648472
33	0x3dc5d27c	0.09659287
34	0x3dbf2c86	0.09334664
35	0x3d88eeb7	0.06686156
36	0x3e046156	0.12927756
37	0xbbf14ad7	-0.007363658
38	0x3c5ae692	0.013360636
39	0x3d0ce09a	0.034393884
40	0xbe1492aa	-0.14509073
41	0xbe095970	-0.13413024
42	0x3ca87079	0.020561444
43	0xbd850847	-0.064957194
44	0xbb3b2275	-0.0028554474
45	0xbd1d6144	-0.038422838
46	0x3cd0b0b4	0.025474884
47	0x3ddd118c	0.107943624
48	0xbd63db2d	-0.055628944
49	0x3e08325a	0.13300458
50	0x3e064e05	0.131157
51	0xbe035f9d	-0.12829442
52	0xbe04532e	-0.12922356
53	0xbe0a789e	-0.13522574
54	0xbdbbd61a	-0.09171696
55	0xbd85f375	-0.06540576
56	0xbc595fd5	-0.013267477
57	0xbd27d95c	-0.040978774
58	0xbdad8ea1	-0.0847447
59	0xbd5bdd4a	-0.053677835
60	0xbd762642	-0.06009508
61	0x3e277bc5	0.16355808
62	0xbd7d72f5	-0.06187721
63	0xbdf3b0e1	-0.11898971
64	0x3d8c7a03	0.068592094
65	0xbc1a49c2	-0.009416999
66	0x3e02c0fb	0.12768929
67	0x3dd3d038	0.10342449
68	0x3e1d074d	0.15334816
69	0xbdf9e0a2	-0.122010484
70	0x3dda2045	0.10650686
71	0x3e0f6e0e	0.14006826
72	0xbdaa1f9d	-0.08306811
73	0x3e1c08e1	0.15237762
74	0x3dfe81a0	0.12427068
75	0x3a879398	0.0010343669
76	0x3da2dae5	0.07951907
77	0xbd7184c4	-0.058964506
78	0xbe15abb4	-0.14616281
79	0x3d293524	0.041310444
80	0x3d48cfb9	0.049026225
81	0xbddd78c4	-0.1081405
82	0x3da6e837	0.0814976
83	0xbe1128e8	-0.14175761
84	0x3e13be62	0.14428094
85	0x3e2618bc	0.16220373
86	0x3d3cdc37	0.04610845
87	0xbdd4a0ef	-0.10382258
88	0x3da78eda	0.08181544
89	0x3cee8b2b	0.029119095
90	0x3d3d0ea6	0.046156548
91	0x3d63149f	0.055439588
92	0x3e024cd4	0.1272462
93	0xbd90bc30	-0.07067144
94	0xbd1630b7	-0.03666755
95	0x3d3ce429	0.046116028
96	0x3c9b7817	0.018978162
97	0x3e0a586c	0.13510293
98	0xbdb20817	-0.08692949
99	0xbbe21ee6	-0.006900656
100	0x3cfa3878	0.030544505
101	0xbd354efe	-0.044264786
102	0x3de6ca78	0.112690866
103	0x3c90e2f3	0.017686343
104	0xbe1dd9af	-0.15415071
105	0xbc9b74d7	-0.018976612
106	0xbd9bdfc1	-0.07611037
107	0x3c82486d	0.015903676
108	0xbc999b45	-0.018750796
109	0xbe28af9c	-0.1647324
110	0xbcf5e8fd	-0.030018324
111	0xbc79f165	-0.015255307
112	0xbd467ed3	-0.048460793
113	0x3e1d60c9	0.15368952
114	0xbd119b72	-0.035548635
115	0x3ddce0de	0.107850775
116	0x3d2bf0fb	0.041977864
117	0xbe10e300	-0.14149094
118	0x3d1d6845	0.038429517
119	0x3e0cd68d	0.1375372
120	0xbde0cde8	-0.109767735
121	0xbdddf81b	-0.10838338
122	0x3e269184	0.16266447
123	0x3e0863c0	0.13319302
124	0xbdc0009e	-0.09375118
125	0x3dcc1d6e	0.09966551
126	0xbcaffe4b	-0.021483561
127	0xbe284884	-0.16433913
128	0x3c533ff8	0.012893669
129	0x3d5c90e6	0.053849123
130	0xbd4bf268	-0.049791723
131	0x3d7007e3	0.05860127
132	0xbe12bf9e	-0.14330909
133	0x3deafbab	0.11473783
134	0x3e10b5d8	0.14131868
135	0x3dbd0bde	0.09230779
136	0x3ceb9cb5	0.028761247
137	0x3d60e844	0.054909006
138	0xbdf5eac3	-0.12007668
139	0xbd27f552	-0.04100544
140	0xbc7d94a9	-0.015477338
141	0xbdbcbb62	-0.09215428
142	0xbdfb0284	-0.12256339
143	0x3de67806	0.112533614

Incption2_conv3_1.weight f4 [4, 11, 1, 1]
0	0x3e5161c5	0.20447452
1	0xbe8c5a47	-0.27412626
2	0x3dc5a06d	0.096497394
3	0x3dfa9908	0.1223622
4	0x3e92d652	0.28679138
5	0x3e31de62	0.17369989
6	0x3e8e31bf	0.27772328
7	0xbdcb8eb4	-0.09939328
8	0x3e58ab7b	0.21159165
9	0x3e7af275	0.24506553
10	0xbe919cc0	-0.28439903
11	0xbe774224	-0.24146324
12	0x3d7c0e32	0.061536975
13	0x3e28fa9a	0.16501847
14	0xbe18b9df	-0.14914654
15	0x3d051faf	0.03250092
16	0x39ae65cf	0.0003326372
17	0x3d9af556	0.07566325
18	0xbe2523a0	-0.16126871
19	0x3e2daa26	0.16959438
20	0x3e4ce747	0.200101
21	0xbe570aa5	-0.21000154
22	0x3b28102d	0.0025644407
23	0x3a3f1fb3	0.00072907953
24	0x3dc50ac7	0.09621196
25	0x3e8fc19a	0.28077394
26	0x3db4d077	0.08828824
27	0xbd8b90c6	-0.06814723
28	0x3e8a76a5	0.27043644
29	0xbde996b7	-0.114057
30	0xbdb35ef9	-0.08758349
31	0x3cab0257	0.02087514
32	0xbe6b647c	-0.2298755
33	0x3d03e244	0.032198206
34	0xbe51da9e	-0.20493552
35	0x3cf5a16d	0.0299842
36	0x3ce8e2a2	0.02842838
37	0x3d2c17bc	0.042014822
38	0xbe820eee	-0.25402015
39	0xbe929b8b	-0.28634295
40	0x3e0e2776	0.1388224
41	0x3e845d75	0.25852552
42	0xbe891915	-0.2677695
43	0x3de5a948	0.112139285

Incption2_conv3_2.weight f4 [4, 4, 3, 3]
0	0xbdfae292	-0.12250246
1	0x3c29baa1	0.010359437
2	0x3e1eeaa6	0.15519199
3	0x3e01e200	0.12683868
4	0xbdf88073	-0.12133875
5	0x3dd3994e	0.10331975
6	0x3db3770c	0.08762941
7	0x399fcd17	0.00030479647
8	0x3e25fbc9	0.1620933
9	0xbd8760aa	-0.06610234
10	0xbd1f0d3d	-0.038830984
11	0xbdac5260	-0.08414149
12	0x3cc8907e	0.024482962
13	0x3d36b5ab	0.044606846
14	0x3c603810	0.013685241
15	0xbdbe9bb8	-0.09307045
16	0xbd9830e1	-0.07431198
17	0x3d6b1d64	0.057401076
18	0xbe166050	-0.14685178
19	0xbcdc5293	-0.026894843
20	0xbb8f3586	-0.004370394
21	0xbd8ab299	-0.06772346
22	0x3d77567f	0.060385223
23	0x3c2e951d	0.010655669
24	0x3def87d3	0.11695828
25	0xbc78c316	-0.015183231
26	0xbdd74454	-0.105110794
27	0x3df1f893	0.1181499
28	0x3cc386fe	0.02386808
29	0xbd4163d9	-0.047214363
30	0xbddfc20a	-0.10925682
31	0x3d22ae7a	0.039717175
32	0xbe220b8f	-0.15824722
33	0x3d36169c	0.044455156
34	0x3daa6287	0.08319574
35	0xbe14e22c	-0.14539403
36	0xbddf3bbb	-0.109000646
37	0xbdf61249	-0.12015206
38	0x3e0f4b54	0.13993579
39	0x3e10c2ce	0.14136812
40	0x3c229a73	0.009924519
41	0x3e201f9c	0.15637058
42	0xbd622f68	-0.05522099
43	0xbe25c199	-0.16187133
44	0x3d714b09	0.05890945
45	0x3d70bd75	0.05877443
46	0x3e26c982	0.16287807
47	0xb9db9d51	-0.00041888145
48	0x3e024f8c	0.12725657
49	0x3dd000a5	0.10156373
50	0x3df62267	0.120182805
51	0xbe29802e	-0.16552803
52	0x3e0c172e	0.13680717
53	0xbe119385	-0.1421643
54	0x3e1972ff	0.14985274
55	0xbbe80044	-0.00708011
56	0xbe167f90	-0.14697099
57	0x3d40002d	0.046875168
58	0xbd0a5566	-0.03377285
59	0xbe186270	-0.14881301
60	0xbd74b63f	-0.059744116
61	0x3c8f2b11	0.01747659
62	0x3e05f696	0.13082346
63	0xbd53ce1a	-0.051710226
64	0x3dca3283	0.098729156
65	0x3ca64869	0.0202982
66	0x3bada1b0	0.0052988157
67	0x3d01fcf2	0.031735368
68	0xbde1357a	-0.10996528
69	0xbe0e68c2	-0.1390715
70	0xbd58018e	-0.052735858
71	0xbe1fc760	-0.156034
72	0xbd9fc1af	-0.07800614
73	0x3beeb7c2	0.007285089
74	0xbde07ef0	-0.109617114
75	0xbd8e9387	-0.06961732
76	0xbcf9bbec	-0.030485116
77	0xbca19c69	-0.019727902
78	0xbdbd79cb	-0.09251746
79	0x3bf355ff	0.007426023
80	0xbcbe34ed	-0.023218596
81	0x3d41e2aa	0.047335304
82	0x3bebe584	0.0071989913
83	0xbdaa42b1	-0.083135016
84	0xbd6d506a	-0.057938017
85	0xbb269acd	-0.0025421858
86	0xbdd5d3a1	-0.10440756
87	0x3c4fe2fc	0.012688395
88	0xbc4a3015	-0.012340565
89	0x3d8469d2	0.06465496
90	0x3d20b528	0.039235264
91	0x3dfe34ef	0.1241244
92	0xbbae3020	-0.0053157955
93	0xbdfc3f34	-0.123167425
94	0x3d9745c8	0.073863566
95	0xbde7185c	-0.11283943
96	0xbcbaa9c3	-0.022786027
97	0xbd5f48d9	-0.054512832
98	0xbd81bc67	-0.06334763
99	0xbd7dec0b	-0.061992686
100	0x3e1c7c9c	0.1528191
101	0x3dc2dbc0	0.0951457
102	0x3d3beed7	0.045882072
103	0x3e202897	0.15640484
104	0xbe1a911c	-0.15094417
105	0x3cdd2c08	0.026998535
106	0x3ddabf8f	0.10681068
107	0x3de254ed	0.110513546
108	0xbe089a4e	-0.13340113
109	0x3d6f047b	0.058353882
110	0xbdc3cf77	-0.09561055
111	0xbbe93fe2	-0.007118211
112	0xbd0fb14b	-0.03508119
113	0xbe0ef8dc	-0.1396212
114	0xbe229a60	-0.15879202
115	0xbde066f7	-0.10957139
116	0x3d9b98c1	0.07597495
117	0x3d9a7deb	0.07543548
118	0xbe1541dd	-0.14575906
119	0xbd814c28	-0.06313354
120	0x3b0bf65e	0.0021356563
121	0xbe13c029	-0.14428772
122	0x3dbff5f9	0.093730874
123	0x3e1a89c5	0.15091617
124	0x3cf2ffc6	0.029662978
125	0xbdfce461	-0.12348247
126	0x3d1bf1c7	0.038072374
127	0x3d7480b4	0.059693053
128	0x3e0626d0	0.13100743
129	0xbdb5e60f	-0.08881771
130	0xbe18bdc7	-0.14916144
131	0x3d94a11b	0.07257291
132	0x3c273ffc	0.010208126
133	0xbd5d35b5	-0.054006297
134	0xbd90ad10	-0.07064259
135	0xbdb0f88d	-0.08641157
136	0x3e0a0b5e	0.13480899
137	0xbceb22b0	-0.028703064
138	0x3df61f9f	0.1201775
139	0x3e18366c	0.1486451
140	0x3cae7c87	0.021299614
141	0x3d100e5f	0.035169955
142	0xbc381a76	-0.0112367775
143	0x3de9a497	0.11408346

Incption2_conv4_1.weight f4 [2, 11, 1, 1]
0	0xbe8aa1d8	-0.27076602
1	0x3df789f4	0.12086859
2	0xbd460ac0	-0.048350096
3	0x3e0df08d	0.13861294
4	0xbb05422e	-0.0020333636
5	0xbde290ea	-0.110627964
6	0xbd0922c4	-0.03348042
7	0x3e27c2ea	0.16382948
8	0xbe5755c4	-0.2102881
9	0xbe426235	-0.18982776
10	0xbd8c0a4a	-0.068379
11	0xbdde6ea1	-0.108609445
12	0x3df44b51	0.11928428
13	0x3e503c43	0.20335488
14	0xbd00f842	-0.031486757
15	0x3e919c4f	0.28439566
16	0xbe00324a	-0.12519184
17	0xbe2dfb45	-0.16990383
18	0xbe096318	-0.13416708
19	0xbe556ddf	-0.20842694
20	0xbe57bc01	-0.21067812
21	0xbe89cbd1	-0.26913312

Incption2_conv4_2.weight f4 [2, 2, 3, 3]
0	0xbe55a4f5	-0.20863707
1	0x3d7ee142	0.06222654
2	0x3e1409c1	0.14456846
3	0x3e62dfb6	0.22155651
4	0x3e4e261e	0.20131728
5	0xbc604d1c	-0.013690259
6	0x3d3b4e6d	0.04572909
7	0xbe100e9d	-0.14068075
8	0x3dbb2e2a	0.091396645
9	0xbe66ccd8	-0.22539079
10	0x3de4b586	0.11167435
11	0x3d344730	0.044013202
12	0x3d94778c	0.07249364
13	0x3daffcb5	0.08593122
14	0xbdde5d98	-0.10857695
15	0x3e4ebeae	0.20189926
16	0x3de4dea7	0.1117528
17	0x3e1e6eee	0.15472004
18	0x3d018157	0.03161749
19	0x3e180066	0.14843902
20	0x3e2310e6	0.15924415
21	0x3ddb4430	0.10706365
22	0x3e37438f	0.17896865
23	0xbd2e82cd	-0.04260521
24	0x3e1ecf5a	0.15508786
25	0x3d5e228c	0.054232165
26	0x3e10f93a	0.14157572
27	0x3e6ae5a6	0.22939166
28	0x3d5d1c7e	0.05398225
29	0xbdb187cd	-0.0866848
30	0xbcbe28d6	-0.023212831
31	0x3d876fd1	0.06613124
32	0x3d2537e3	0.0403365
33	0xbd848226	-0.06470136
34	0x3e3d5f71	0.1849344
35	0x3e10b786	0.14132509

Incption2_bn.weight f4 [12]
0	0x3f7fcd72	0.9992286
1	0x3f80150d	1.0006424
2	0x3f80024c	1.0000701
3	0x3f800f98	1.0004759
4	0x3f80197f	1.0007781
5	0x3f7ff3b8	0.9998126
6	0x3f801a3c	1.0008006
7	0x3f7fecc1	0.9997063
8	0x3f7fc96b	0.99916714
9	0x3f800777	1.0002278
10	0x3f7fc042	0.9990274
11	0x3f801248	1.0005579

Incption2_bn.bias f4 [12]
0	0x39ca788e	0.00038618263
1	0x3a06b46c	0.0005138579
2	0x39ac4a80	0.00032861903
3	0xba881730	-0.0010382887
4	0x3a6a4a04	0.0008937421
5	0x3a1ec855	0.00060570735
6	0x3806b5d3	3.2117427e-05
7	0x38de7573	0.000106076615
8	0xb96b9be4	-0.0002246942
9	0x3a515be1	0.00079864083
10	0x390c7d47	0.0001339811
11	0xb99679e1	-0.00028701036

Incption2_bn.running_mean f4 [12]
0	0xbd98217a	-0.0742826
1	0xbd87c150	-0.06628668
2	0xbd303db0	-0.04302758
3	0xbd307297	-0.04307803
4	0x3cc82813	0.024433171
5	0x3c395551	0.011311845
6	0x3d7b8421	0.061405305
7	0x3d4ebd59	0.050473545
8	0xbdf0aac2	-0.117513195
9	0xbe0c0d81	-0.13677026
10	0xbda70d43	-0.08156826
11	0xbe18dfac	-0.14929074

Incption2_bn.running_var f4 [12]
0	0x3ea0f468	0.31436467
1	0x3ef0f92a	0.47065097
2	0x3f756283	0.9585344
3	0x3d94b332	0.07260741
4	0x3d840b7a	0.064475015
5	0x3d1f7a4e	0.038935
6	0x3c9edee8	0.0193934
7	0x3cee7ff7	0.029113753
8	0x3ce58550	0.02801767
9	0x3c7ab873	0.015302765
10	0x3d26df00	0.040740013
11	0x3dd31495	0.1030666

conv1.weight f4 [16, 12, 5, 5]
0	0xbd170138	-0.036866397
1	0xbbbb481d	-0.0057153837
2	0xbbcee062	-0.0063133696
3	0xbd178002	-0.036987312
4	0x3bf7024a	0.0075381147
5	0xbc9950d7	-0.018715305
6	0xbcfc7a5b	-0.030820062
7	0xbc9e22c6	-0.01930369
8	0xbcaeaf91	-0.021323951
9	0x3d5ec99f	0.0543915
10	0x3cad7b30	0.021176904
11	0x3d649f44	0.05581595
12	0x3c775cb5	0.015097787
13	0x3c4900a2	0.012268217
14	0x3cbb6f2b	0.022880157
15	0x3c11a6dd	0.008889881
16	0xbd3dc907	-0.046334293
17	0xbd0f0f1b	-0.034926515
18	0xbc721b0a	-0.014776954
19	0x36c10b74	5.7531815e-06
20	0x3ca9ef15	0.020743886
21	0x3cad8933	0.021183586
22	0x3d385b30	0.04500884
23	0x3c33466c	0.010942083
24	0xbca87b59	-0.02056663
25	0xbd35b568	-0.044362456
26	0xbd315165	-0.043290514
27	0xbd110fc9	-0.035415445
28	0x3c891d68	0.016737655
29	0x3cf87a57	0.030331774
30	0x3d4af8f7	0.049553838
31	0xbc9db865	-0.019252965
32	0xbbb35d12	-0.0054737413
33	0xbc926a9c	-0.017873101
34	0xba8e85b4	-0.0010873587
35	0x3c8fe776	0.017566424
36	0xbb1637e4	-0.0022921497
37	0x3ae1af7c	0.0017218436
38	0x3bd9a913	0.0066424697
39	0x3ca8f12b	0.02062281
40	0xbc977fe2	-0.018493596
41	0xbd114663	-0.035467517
42	0x3c4f043e	0.012635289
43	0xbbf7120a	-0.007539992
44	0xbcdd7148	-0.027031556
45	0x3cbe484b	0.023227831
46	0xb9fd2bed	-0.00048288648
47	0xbc197d94	-0.009368319
48	0xbcea4f1c	-0.028602175
49	0xbc09e2a7	-0.008415855
50	0xbd4d0ad7	-0.050059166
51	0x3c473c36	0.0121603515
52	0x393be8d7	0.0001792045
53	0x3d0c7478	0.03429076
54	0x3b397c7f	0.0028302965
55	0x3b6ece2b	0.0036438804
56	0x3c7156fc	0.014730211
57	0x3d3126fd	0.043250073
58	0xbce54841	-0.027988555
59	0x3d09a014	0.033599928
60	0x3c573a4e	0.0131364595
61	0xbd21d991	-0.039514128
62	0x3c9e9ea5	0.019362757
63	0xbd10fef1	-0.03539938
64	0xbc9c20a7	-0.019058539
65	0xbce9ab40	-0.028524041
66	0xbd251c6a	-0.0403103
67	0x3d372d58	0.044720978
68	0xbd568438	-0.052372187
69	0x3ce4e8a0	0.027942955
70	0xbd590b38	-0.052989215
71	0xbc042c09	-0.008067139
72	0x3b2e116d	0.002656068
73	0x3d250e36	0.040296756
74	0xbcb24233	-0.021760082
75	0x3c8f2166	0.01747198
76	0x3c213f7e	0.009841798
77	0x3d0f2e27	0.034956124
78	0x3b592fc8	0.0033140052
79	0x3cb25804	0.021770485
80	0xbd0c2c51	-0.03422195
81	0xbd208560	-0.039189696
82	0x3d571534	0.052510455
83	0xbd2c9504	-0.0421343
84	0xbc1fdf69	-0.009757855
85	0xbbcf07c8	-0.0063180663
86	0x3d6adce9	0.057339583
87	0xbc3aaa90	-0.011393204
88	0xbd336247	-0.043794896
89	0xbc6a7f0a	-0.014312515
90	0x3cf9f949	0.030514376
91	0x3cc39544	0.023874886
92	0x3d483f39	0.04888842
93	0xbc3f9acf	-0.011694624
94	0x3ce29967	0.027661039
95	0xbd5bb704	-0.053641334
96	0x3cbe9eb3	0.023269033
97	0x3ce21049	0.027595656
98	0x3d195745	0.037436742
99	0xbd07988c	-0.033104464
100	0xbc862023	-0.016372746
101	0x3c541ce3	0.01294634
102	0xbd2bc725	-0.041937966
103	0xbd3f001d	-0.046630967
104	0xbd66e66d	-0.056372095
105	0x3b110c57	0.00221326
106	0x3d0ef351	0.034900013
107	0x3c633da2	0.013869675
108	0x3b37c769	0.0028042442
109	0x3c9e3a2c	0.019314848
110	0xbd1888e2	-0.037239917
111	0x3ba6777b	0.005080161
112	0xbc7a9e8a	-0.015296588
113	0xbceff9ed	-0.029293979
114	0x3d487f38	0.04894945
115	0xbd3b2eda	-0.045698978
116	0x3bf3f23a	0.007444647
117	0xbd53c793	-0.051704
118	0xbb321f68	-0.0027179364
119	0xbcd8ec4a	-0.026479859
120	0x3c93497c	0.017979376
121	0xbd090c9a	-0.033459283
122	0x3d134f26	0.035964154
123	0xbd427c76	-0.047481976
124	0x3d0a9ad5	0.033839066
125	0xbd35c01b	-0.04437266
126	0x3cf7a588	0.030230299
127	0xbcca0895	-0.024662295
128	0xba84bebd	-0.0010127645
129	0xbc3c329c	-0.011486676
130	0x3d1573c7	0.036487367
131	0x3c9479c7	0.018124474
132	0xbd527493	-0.051380705
133	0x3b9327f1	0.0044908454
134	0xbd273dee	-0.040830545
135	0x3d2ca747	0.042151716
136	0x3c0fb7b9	0.00877183
137	0xbc79aa4c	-0.015238356
138	0xbcf87cc8	-0.030332938
139	0x3c9bdc31	0.019025894
140	0xbd11cb5d	-0.035594333
141	0x3cd9c7db	0.026584556
142	0x3cffbaa5	0.031216929
143	0x3d0dad46	0.034589075
144	0x3c66649d	0.014062074
145	0xbd535a19	-0.051599596
146	0x3d26b2d8	0.040697902
147	0xbc95add6	-0.018271368
148	0xbc929037	-0.017891033
149	0xbbe81685	-0.0070827627
150	0x3d2e324a	0.042528428
151	0x3d3a17f6	0.045433007
152	0x3c047b41	0.008086027
153	0x3cdb9028	0.026802137
154	0xbd606a21	-0.054788712
155	0x3902a150	0.0001245786
156	0xbd4d769b	-0.05016194
157	0x3c98edfe	0.018668171
158	0xbd2b631f	-0.041842576
159	0xbcafeda4	-0.02147562
160	0x3d266aeb	0.04062931
161	0x3d664578	0.056218594
162	0xbd120cbd	-0.03565668
163	0xbd05e5f4	-0.032690004
164	0x3bc8a42c	0.0061230864
165	0x3cb93c01	0.02261162
166	0xbc09277f	-0.008371233
167	0xbc9a628b	-0.018845817
168	0xbd1e23d3	-0.038608383
169	0x3cc3a25d	0.023881132
170	0x3d666774	0.056251004
171	0xbcdcf93a	-0.02697431
172	0x3cd68c85	0.026190052
173	0x3cdffa63	0.027341073
174	0x3d3acfc6	0.045608304
175	0xbbec170d	-0.0072048963
176	0x3afe598a	0.0019405347
177	0x3d2a1972	0.041528173
178	0x3d123e1a	0.035703756
179	0x3d655a12	0.0559941
180	0xbc8d8964	-0.017277427
181	0x3cb92fb0	0.022605747
182	0x3d2226e0	0.039587855
183	0xbd22e867	-0.039772417
184	0x3c2c59b0	0.01051943
185	0xbc5a159d	-0.013310817
186	0x3d18a388	0.03726533
187	0xbcdb937f	-0.02680373
188	0x3b5b7f91	0.0033492784
189	0x3d098c02	0.033580787
190	0xbd59a929	-0.05313984
191	0xbd45f52f	-0.04832953
192	0xbcf7cb49	-0.030248301
193	0x3d144b8d	0.036204863
194	0x3d1a768f	0.037710723
195	0xbd24b36b	-0.04021017
196	0x3c31eb4e	0.010859324
197	0xbd011c4f	-0.031521138
198	0xbce2b30a	-0.027673263
199	0x3d47e264	0.048799887
200	0x3ce10290	0.027467042
201	0xbc88a344	-0.016679414
202	0x3bf3b9a1	0.0074379
203	0x3c2f3521	0.010693819
204	0x3c556056	0.013023457
205	0xbca59fe7	-0.020217849
206	0xbd0ef95c	-0.034905776
207	0x3d18a75c	0.03726898
208	0x3bed8822	0.0072488943
209	0x3cc0c076	0.023529273
210	0xbcb6fed2	-0.022338305
211	0x3cde36cd	0.02712574
212	0x3d27d8d3	0.040978264
213	0x3d0e05be	0.034673445
214	0x3c7c2871	0.015390501
215	0x3d65e0a4	0.056122437
216	0xba834310	-0.0010014493
217	0x3c38efc0	0.01128763
218	0x3d5f382a	0.05449692
219	0x3d6488cb	0.05579452
220	0xbccce784	-0.025012739
221	0x3d515704	0.051108375
222	0x3ca65ab2	0.020306919
223	0xbbe486f2	-0.0069740945
224	0x3d4c8048	0.049927026
225	0xbcf826a0	-0.030291855
226	0x3d15bafa	0.036555268
227	0x3d664a86	0.056223415
228	0xbd2481bf	-0.040162798
229	0xbd0c6a64	-0.03428115
230	0xbd6b9a59	-0.057520244
231	0xbc391a92	-0.011297839
232	0xbd5a61bb	-0.05331586
233	0xbca24d36	-0.019812208
234	0x3c8be1c5	0.017075429
235	0x3d258d7b	0.04041813
236	0x3d00575d	0.031333316
237	0x3cff6622	0.03117663
238	0x3cc3576c	0.023845397
239	0xbd11df8f	-0.035613593
240	0xbd3d357c	-0.046193585
241	0x3ab93f05	0.0014133161
242	0x3d5c9da1	0.053861264
243	0x3b6d9fc2	0.0036258553
244	0xbb98155e	-0.004641219
245	0xbd222b4c	-0.039592072
246	0xbcf2e202	-0.029648785
247	0xbd3a129f	-0.045427915
248	0x3d3c3434	0.045948222
249	0xbc1e6eb6	-0.00966995
250	0xbd4cca24	-0.049997464
251	0x3be3a499	0.006947112
252	0x3ba2c495	0.004967282
253	0xbbd8d90c	-0.006617671
254	0x3caebf0f	0.021331338
255	0x3d031b99	0.03200874

bn1.weight f4 [16]
0	0x3f800ad7	1.0003308
1	0x3f800bb8	1.0003576
2	0x3f7fbacb	0.998944
3	0x3f7fe839	0.9996372
4	0x3f7fd51a	0.9993454
5	0x3f7ff816	0.99987924
6	0x3f7fcdf4	0.99923635
7	0x3f7fd9dd	0.9994181
8	0x3f7fc002	0.99902356
9	0x3f8007b4	1.0002351
10	0x3f80067a	1.0001976
11	0x3f802211	1.0010396
12	0x3f7fec0c	0.99969554
13	0x3f7fc37d	0.99907666
14	0x3f7ff580	0.9998398
15	0x3f80079d	1.0002323

bn1.bias f4 [16]
0	0xb8e86d18	-0.000110829424
1	0x3a4ab019	0.0007731929
2	0xba6501bc	-0.0008735915
3	0xba38a6cc	-0.00070438976
4	0xb79af3d2	-1.8471768e-05
5	0xba5c6b93	-0.0008408364
6	0xb9a981d3	-0.00032330918
7	0xba74d556	-0.0009339651
8	0xba734860	-0.0009280499
9	0xba767b20	-0.00094025023
10	0xb9ec1ad3	-0.00045033413
11	0xba391465	-0.0007060229
12	0xba0fe39e	-0.00054889347
13	0xba7f175b	-0.0009730958
14	0x3a05fe1f	0.00051114144
15	0xba4d70a2	-0.0007836913

bn1.running_mean f4 [16]
0	0x3eb1c5b1	0.3472114
1	0x3e507589	0.20357336
2	0x3e59de89	0.21276297
3	0x3e4b596c	0.1985833
4	0x3e61c4a3	0.22047667
5	0x3e5deb42	0.21671775
6	0x3e3c4940	0.18387318
7	0x3e7c92ff	0.2466545
8	0x3ecbd332	0.39809567
9	0x3d8e2988	0.06941515
10	0x3e81b873	0.25336036
11	0x3ec340d2	0.3813539
12	0x3eac1231	0.3360763
13	0x3e9a57e8	0.30145192
14	0x3e1938ad	0.14963026
15	0x3e2c3601	0.16817476

bn1.running_var f4 [16]
0	0x3e77e993	0.24210195
1	0x3e098524	0.13429695
2	0x3e0cbc88	0.13743794
3	0x3dcbddbb	0.09954401
4	0x3dc1484b	0.09437617
5	0x3e13ac8a	0.14421287
6	0x3dd74e7c	0.105130166
7	0x3e287c01	0.16453554
8	0x3e5f49cf	0.218055
9	0x3d194146	0.037415765
10	0x3df63f6a	0.12023814
11	0x3e31bd8e	0.17357466
12	0x3e233d83	0.15941434
13	0x3decccb5	0.11562482
14	0x3d9b1f9c	0.075743884
15	0x3df17bb6	0.11791174

conv2.weight f4 [16, 16, 5, 5]
0	0xbc819faa	-0.015823204
1	0x3cdb06d0	0.026736647
2	0x3d46638e	0.048434786
3	0x3d33611d	0.043793786
4	0x3c9bb6c4	0.019008048
5	0x3b2a21eb	0.0025960158
6	0x3d1bb99d	0.03801881
7	0x3d37458b	0.044744056
8	0x3cb71f9d	0.022353942
9	0x3c786709	0.015161284
10	0x3c463b53	0.012099105
11	0x3b9c7ed4	0.0047758613
12	0x3d055067	0.03254738
13	0x3c5c1dbd	0.0134348245
14	0xbd2ed75d	-0.042685855
15	0xbcf1c797	-0.029514117
16	0xbd3b4982	-0.0457244
17	0xbc80287c	-0.015644304
18	0x3adf4ac9	0.0017035838
19	0xbcb1eaf2	-0.021718476
20	0xbd3cea23	-0.046121728
21	0xbd03f56f	-0.032216486
22	0x3ca96a91	0.020680698
23	0xbb8e90fa	-0.0043507786
24	0xbc15a6ec	-0.009134036
25	0x3c05f5bb	0.0081762625
26	0xbc344b96	-0.011004349
27	0xbce8365e	-0.028346237
28	0xbcbab1a9	-0.022789793
29	0xbcaea2ce	-0.021317866
30	0xbd3e49f0	-0.04645723
31	0xbd3bb51f	-0.045827027
32	0xbca2bb99	-0.019864844
33	0x3c9ca756	0.01912276
34	0x3d458899	0.048225973
35	0xbad7e9de	-0.0016472896
36	0x3d0b3250	0.03398353
37	0x3c80b359	0.01571052
38	0xbd25b0fe	-0.040451996
39	0xbcd2d5ff	-0.025736807
40	0xbc61e98d	-0.013788593
41	0xbd28e060	-0.041229606
42	0x3bd1358a	0.006384556
43	0x3c3928aa	0.011301199
44	0xbd22ff18	-0.039794058
45	0xbc2ad1dc	-0.010426011
46	0xbd33ec4c	-0.043926522
47	0x3d4942ce	0.049135976
48	0x3cf0943d	0.02936756
49	0xbc9f7d3b	-0.019468894
50	0x3d332ef2	0.043745942
51	0xbcfc0691	-0.03076485
52	0x3d2e2480	0.042515278
53	0xbc99a986	-0.018757593
54	0x3c75751c	0.014981534
55	0x3d11ea3c	0.035623774
56	0x3cc55b54	0.0240914
57	0x3c51345d	0.012768832
58	0xbb9d88ac	-0.0048075523
59	0x3ab1eb13	0.0013574086
60	0x3d30dab7	0.043177333
61	0xbc86a833	-0.016437626
62	0xbc84e8b7	-0.016224248
63	0x3bda6495	0.0066648223
64	0xbcc1b04e	-0.023643639
65	0xbc96a1ee	-0.018387761
66	0x3b819e0f	0.0039556096
67	0x3d1b2902	0.037880905
68	0x3c861de7	0.01637168
69	0xbcfe7549	-0.031061785
70	0x3cf6f0ef	0.030144183
71	0xbc9bad07	-0.019003404
72	0x3c42636d	0.011864525
73	0x3b0841df	0.0020791215
74	0x3d0e02a6	0.034670494
75	0xbc4565a3	-0.012048158
76	0xbcad8c02	-0.021184925
77	0xbc324f80	-0.010883212
78	0xba1881a6	-0.0005817659
79	0xbcc8d979	-0.024517762
80	0x3d0bc23f	0.034120794
81	0xbce05ed2	-0.027388964
82	0x3bf1c861	0.0073786234
83	0xbd209e37	-0.039213385
84	0xbbdd44ee	-0.006752602
85	0xbc3a1eee	-0.011359913
86	0xbcaadba6	-0.02085669
87	0x3ccfbc77	0.025358422
88	0xbd3aaf25	-0.045577187
89	0x3b8efdc1	0.004363746
90	0xbb94e515	-0.0045439103
91	0xbcd61dd0	-0.026137263
92	0x3d1e4423	0.0386392
93	0x3cfce86a	0.030872542
94	0x3c6d6dcb	0.014491509
95	0x3a8d4dd3	0.001078064
96	0x3ce0535c	0.027383499
97	0xbcb760ef	-0.022385089
98	0xbd299f4e	-0.04141169
99	0x3d40f885	0.047112007
100	0xbc9701a4	-0.0184334
101	0x3c257f79	0.010101193
102	0x3acfa6f0	0.0015842598
103	0x3d2ec3e2	0.042667277
104	0x3d4ef732	0.050528713
105	0xbd0c9f4f	-0.034331616
106	0xba87c5cf	-0.0010358634
107	0xbd2538b8	-0.040337294
108	0x3d05c012	0.032653876
109	0x3d4458fb	0.04793642
110	0xbc9ff70d	-0.019526983
111	0x3c1110f4	0.00885414
112	0xbc3945c4	-0.011308137
113	0xbc47a939	-0.012186342
114	0x3d224a5b	0.039621692
115	0xbd3ed915	-0.046593744
116	0xbbecd023	-0.0072269603
117	0xba073c47	-0.00051588233
118	0xbd34f0c0	-0.04417491
119	0x3ca70b4f	0.020391135
120	0x3d059bf9	0.03261945
121	0xbd25d401	-0.040485386
122	0x3c99a48d	0.018755222
123	0xbb77a9d4	-0.0037790434
124	0x3d3d2e2b	0.046186607
125	0xbd401528	-0.046895176
126	0x3d2e62f1	0.042574827
127	0xbc914d46	-0.017737042
128	0x3d2a03d5	0.04150756
129	0xbcd83116	-0.026390593
130	0x3c04d0d5	0.00810643
131	0x3c3d18b1	0.011541531
132	0x3d0198a1	0.0316397
133	0x3cb8ec6a	0.022573669
134	0x3cdef9c5	0.027218709
135	0xbc29d0a2	-0.010364683
136	0xbd21b5d9	-0.039480064
137	0x3a912bf0	0.0011075716
138	0x3d38b422	0.045093663
139	0x3d30860e	0.043096595
140	0xbcf32f98	-0.02968578
141	0x3d0b1202	0.03395272
142	0x3cba98bd	0.02277791
143	0xbc20f244	-0.009823386
144	0x3cd9d2ae	0.026589718
145	0xbb1055c9	-0.0022023788
146	0x3bc2bc43	0.0059428527
147	0xbd0691a9	-0.032853756
148	0xbbe505a3	-0.0069891973
149	0x3d45b1e4	0.048265353
150	0x3d00b944	0.031426683
151	0xbd263a5a	-0.040582992
152	0xbb1b9f75	-0.0023746167
153	0x3d043089	0.03227285
154	0xbcb5b13e	-0.022179242
155	0xbbc612aa	-0.0060447054
156	0x3ccb5617	0.024821324
157	0x3d2c1a2a	0.04201714
158	0x3d3bc566	0.04584255
159	0xbd13aec8	-0.036055356
160	0xbd3fe97d	-0.04685353
161	0x3d0dd0f2	0.034623094
162	0xbb86c3aa	-0.0041126804
163	0x3d3a4119	0.04547224
164	0x3d0e7940	0.0347836
165	0xbca0a400	-0.019609451
166	0x3c6825da	0.014169181
167	0x3c86c20a	0.016449947
168	0xbc8fcb21	-0.017552914
169	0x3d36e41a	0.04465113
170	0x3b769317	0.0037624293
171	0xbc884b16	-0.016637366
172	0xbd3ba0e3	-0.04580773
173	0x3d22c97a	0.039742924
174	0xbd4ee55a	-0.050511695
175	0x3d1e29d8	0.038614124
176	0xbc8b0044	-0.0169679
177	0xbc0c12ef	-0.008549436
178	0x3bc3910c	0.0059682187
179	0x3d44e554	0.048070267
180	0xbd02f8b2	-0.031975456
181	0xbd0e39cd	-0.034723092
182	0x3cfd806d	0.030945027
183	0xbcc6d436	-0.024271112
184	0xbc963475	-0.01833556
185	0x3cf24495	0.029573718
186	0xbca7586d	-0.020427907
187	0x3cfa0cf4	0.030523755
188	0xbca0cb44	-0.019628175
189	0x3d1ba1d9	0.037996147
190	0x3d4e8eaf	0.050429042
191	0x3bedc9b1	0.0072567095
192	0xbc827987	-0.01592709
193	0x3ce12ac2	0.027486209
194	0x3c5b95ee	0.013402445
195	0x3a08c3e7	0.000521718
196	0x3d361a96	0.044458948
197	0xbb386174	-0.0028134258
198	0x3c89bf9c	0.016815
199	0xbc7f7e15	-0.015594025
200	0xbc11bc64	-0.0088950135
201	0xbb0b124b	-0.002122062
202	0x3b608c36	0.003426326
203	0x3cb6bc99	0.022306727
204	0x3d1ada56	0.037805878
205	0x3cfa6cfc	0.030569546
206	0xbcb07aec	-0.021542989
207	0x3d36fcdf	0.04467475
208	0x3d0ac93f	0.03388333
209	0x3c930e36	0.017951112
210	0x3ba551ed	0.0050451667
211	0xbcecb860	-0.02889651
212	0xbcf76518	-0.030199572
213	0xb939bedb	-0.00017714074
214	0xbd1a3f10	-0.037657797
215	0x3c8cea60	0.017201602
216	0xbd3c8640	-0.04602647
217	0xbd39193e	-0.04519009
218	0xbcbd1ee9	-0.023086028
219	0x3ce60c35	0.028081993
220	0x3d1d0a6d	0.03834002
221	0xbd2f8d85	-0.042859573
222	0xbd04d618	-0.03243074
223	0x3c2918c1	0.010320843
224	0xbc228772	-0.009919988
225	0xbd26ec27	-0.040752556
226	0x3c6613db	0.01404282
227	0xbd29327a	-0.041307904
228	0x3b3f1349	0.0029155782
229	0x3c9e9630	0.019358724
230	0x3d3f48ed	0.046700407
231	0xbd2b94e5	-0.041890044
232	0x3d1b9b84	0.037990108
233	0x3bfb9c5c	0.0076785516
234	0x3d32ca03	0.043649685
235	0x3d47fdcd	0.048826028
236	0xbc535f32	-0.012901114
237	0xbc037068	-0.008022405
238	0xbc538f03	-0.012912515
239	0x3d1d9983	0.03847648
240	0xbcab0838	-0.020877942
241	0x3d0a64e1	0.033787612
242	0x3cacf6ab	0.021113714
243	0x3d420448	0.047367364
244	0x3d0fd1ff	0.035112377
245	0x3d26ec29	0.040752564
246	0xbd27f7c0	-0.041007757
247	0xbcdda681	-0.027056934
248	0xbd157ca0	-0.036495805
249	0x3cc2c751	0.023776682
250	0x3c1f9251	0.009739474
251	0x3c99bfa4	0.01876814
252	0x3c9fae4f	0.019492297
253	0x3aad4a72	0.0013221039
254	0x3c9d4b09	0.019200819
255	0xbce60cd2	-0.028082285

fc1.weight f4 [16, 784]
0	0xbc31c149	-0.010849305
1	0x3cc30e44	0.023810513
2	0xbcfccf09	-0.03086044
3	0x3cf3a318	0.029740855
4	0x3d086859	0.03330264
5	0xbbe4b54b	-0.0069796196
6	0x3afb4192	0.0019169322
7	0xba412034	-0.00073671644
8	0x3d0c5a7f	0.03426599
9	0x3b8f50df	0.0043736543
10	0x3c1e8778	0.009675853
11	0xbc3ecf31	-0.011646078
12	0x3a056589	0.0005088677
13	0xbca5c62f	-0.020236103
14	0x3b31935e	0.0027095894
15	0xbb9a354a	-0.0047060596
16	0x3bfd922b	0.007738372
17	0x3c038af7	0.008028737
18	0xbce6fed0	-0.028197676
19	0x3ccc9e0e	0.02497771
20	0x3c967654	0.01836697
21	0x3cd7fb34	0.0263649
22	0x3cdb0b44	0.02673877
23	0x3c251933	0.010076809
24	0x3ca7ad53	0.02046839
25	0x3c995e78	0.018721804
26	0x3cb7e0c1	0.022446038
27	0xbcbad7e5	-0.022808025
28	0x3c92c316	0.01791529
29	0xbb288949	-0.0025716594
30	0x3c6dcbac	0.014513891
31	0x3c66d067	0.014087773
32	0xbcd26cb6	-0.025686603
33	0xbc7aaff2	-0.015300738
34	0xbcdacc80	-0.026708841
35	0xbc074051	-0.00825508
36	0x3c4b11ff	0.012394427
37	0x3c18cef8	0.009326689
38	0x3cf24583	0.029574161
39	0xbcc98bbc	-0.024602763
40	0x3c4ad66f	0.0123802265
41	0x3ce80ea8	0.028327301
42	0xbcd8abe8	-0.026449159
43	0xbcd3ce84	-0.02585531
44	0x3c1cb11c	0.009563711
45	0xbc5d87f2	-0.013521181
46	0x3c272b71	0.010203228
47	0xbc8384c7	-0.016054524
48	0x3b9da422	0.004810826
49	0xbcf21baa	-0.029554207
50	0x3ce8fe47	0.028441561
51	0xbcb63375	-0.022241333
52	0xbd033d66	-0.032040976
53	0xbc902c3a	-0.017599214
54	0x3acafebc	0.0015487294
55	0x3d06a52e	0.03287237
56	0x3bf114d5	0.0073572197
57	0xbc09972e	-0.00839786
58	0xbcd35bd7	-0.025800629
59	0x3c874f5b	0.016517332
60	0x3b4d87c8	0.003136145
61	0xbc24295c	-0.0100196265
62	0xbc35296d	-0.01105724
63	0x3b9e18c4	0.0048247296
64	0x3ca1e340	0.019761682
65	0xbcb21338	-0.02173768
66	0xbc063f11	-0.008193747
67	0x3c8cfee4	0.017211385
68	0xbcc5b03e	-0.02413189
69	0xbb0cb88c	-0.0021472303
70	0x3ceea552	0.029131565
71	0x3cc29438	0.023752317
72	0xbcec81ae	-0.02887043
73	0xbc889093	-0.0166705
74	0x3bc18b37	0.0059064883
75	0x3cbdaea0	0.023154557
76	0xbc7ed3a3	-0.015553388
77	0xbd04780a	-0.03234104
78	0xbb2827c7	-0.0025658475
79	0x3cb229c9	0.02174844
80	0xbc95c7e9	-0.018283801
81	0xbd08c4b6	-0.033390723
82	0x3b297105	0.0025854718
83	0x3ce85e0b	0.028365156
84	0xbce9c217	-0.028534932
85	0x3bd68f2f	0.0065478305
86	0x3cb28e49	0.021796362
87	0x3a9c6e3d	0.0011934709
88	0xbc98053d	-0.018557185
89	0xbc4b49b6	-0.012407711
90	0xbccad42b	-0.024759373
91	0x3b5cfb75	0.0033719216
92	0xbc7c9535	-0.015416433
93	0x3af38f0d	0.0018582061
94	0xbbeaf36f	-0.007170133
95	0xbcc149bf	-0.023594735
96	0x3d10990a	0.0353022
97	0x3c077df1	0.008269773
98	0x3c988d23	0.018621987
99	0x3cb3f5cd	0.021967793
100	0x3c7a479f	0.015275865
101	0xbbfb5da8	-0.007671077
102	0xbc263740	-0.010145009
103	0xbc9ee51a	-0.019396354
104	0xbd040779	-0.03223369
105	0xbcd45616	-0.025919955
106	0xbc4804cc	-0.012208175
107	0x3d0ecc3a	0.034862734
108	0xbd067dfc	-0.03283499
109	0xbcae5c89	-0.021284359
110	0xbcd92294	-0.026505746
111	0xbcca924a	-0.02472796
112	0x3cfaab83	0.030599361
113	0xbcdc77c5	-0.02691258
114	0xbcc78b7e	-0.024358507
115	0xbca085b3	-0.019595003
116	0x3c30edd5	0.010798891
117	0xbc226fa9	-0.009914317
118	0xbcbdd6b7	-0.023173673
119	0x3cfcc0de	0.030853685
120	0x3bdf0bc0	0.0068068206
121	0xbccbe375	-0.024888733
122	0xbc4864fa	-0.012231106
123	0x3cbd39e4	0.023098893
124	0x3c69057d	0.0142225
125	0xbcb62c7e	-0.022238012
126	0xbc89bc47	-0.01681341
127	0xbc4efc36	-0.012633374
128	0x3c741658	0.014897905
129	0xbce14dc4	-0.027502902
130	0x3d0d5658	0.034506172
131	0x3b9b8ee7	0.00474726
132	0x3c73c97e	0.014879582
133	0x3c432f6b	0.011913161
134	0x3ceef72a	0.029170591
135	0xbc2c1a6d	-0.010504347
136	0xbc49adb4	-0.01230948
137	0xbcb6e099	-0.022323893
138	0x3cf917cf	0.03040686
139	0xbaf5335b	-0.0018707322
140	0x3a3b1d7d	0.0007137878
141	0x3d060cc6	0.032727025
142	0xbc019dc0	-0.007911146
143	0xbc33dcf5	-0.010977973
144	0xbc64515e	-0.013935415
145	0x3cb1a6ff	0.021686075
146	0x3baa68f7	0.005200501
147	0xbc9bb28b	-0.019006034
148	0x3cc0b784	0.023525007
149	0x3c6c0185	0.014404659
150	0xbbf974d3	-0.0076128035
151	0x3c0d499b	0.008623506
152	0xbd037bed	-0.032100607
153	0xbcc9aebd	-0.024619455
154	0xbc6a351d	-0.01429489
155	0x3c8a1180	0.016854048
156	0xbbf68c72	-0.0075240666
157	0x3cd4d0e8	0.02597852
158	0xbd072f5f	-0.03300416
159	0x3cd3c46b	0.025850495
160	0xbd0b76bf	-0.034048792
161	0xbc5c8ff0	-0.013462052
162	0x3d049a9f	0.03237402
163	0xbc49b751	-0.012311772
164	0xbc7e1efa	-0.015510315
165	0x3c9d36e9	0.019191222
166	0xbca05c84	-0.019575365
167	0x3c019ab8	0.007910423
168	0xbc650d4a	-0.013980219
169	0x3c61badc	0.013777461
170	0xbcb2e1f7	-0.021836264
171	0xbc948021	-0.018127503
172	0xbcc09e7c	-0.023513071
173	0xbbd5406c	-0.006507924
174	0x3d13cf07	0.03608611
175	0x3c9f108b	0.019417068
176	0xbceb4dc4	-0.028723605
177	0x3c94425b	0.018098047
178	0x3d06836e	0.032840185
179	0x3d10c63d	0.035345305
180	0x3b6690e4	0.0035181576
181	0x3c230b28	0.00995139
182	0x3cca01a5	0.024658987
183	0x3d08190b	0.033227008
184	0x39eeb8aa	0.00045532483
185	0xbbdd0b10	-0.0067457035
186	0x3ce5975a	0.028026272
187	0xbc2e45f0	-0.010636792
188	0x3ce95c6f	0.028486459
189	0x3cf04f07	0.029334558
190	0x3c2256c3	0.009908381
191	0xbcec43ab	-0.02884086
192	0x3ce3b2cb	0.027795216
193	0x3c8d1615	0.017222444
194	0x3c09ff4f	0.008422687
195	0x3be544c3	0.0069967224
196	0x3c859389	0.016305702
197	0x3ca7e4fa	0.020494927
198	0xbcbe47f6	-0.023227673
199	0xbce052d6	-0.02738325
200	0x3c9c842f	0.019105999
201	0xbc6ec474	-0.014573205
202	0xbd00ad2e	-0.031415157
203	0x3cfa4b25	0.03055341
204	0xbcdd3164	-0.02700109
205	0xbc3eea69	-0.011652567
206	0xbcb0f7f2	-0.021602605
207	0x3d0247e5	0.031806845
208	0xbb691c80	-0.0035569966
209	0xbc992203	-0.018692976
210	0x3cfabcdb	0.030607631
211	0x3d09821f	0.03357136
212	0x3c9f4914	0.019444026
213	0x3ceaaf12	0.028647933
214	0xbcffe891	-0.031238826
215	0xbd004bb6	-0.031322204
216	0x3ca2d256	0.019875687
217	0xbbe97ce6	-0.0071254848
218	0x3c81dce7	0.015852405
219	0x3d098d44	0.033581987
220	0xbbee395d	-0.007270022
221	0xbc940e3b	-0.018073192
222	0x3d0cfa99	0.034418676
223	0xbc88eb83	-0.016713863
224	0xbc9fe5da	-0.019518781
225	0x3cf02bb2	0.02931771
226	0xba6e3d20	-0.0009088088
227	0xbc883443	-0.016626483
228	0x3c60bd0b	0.013716946
229	0xbc8c4289	-0.01712157
230	0x3ad6da3e	0.0016391946
231	0xbcdf40ae	-0.027252521
232	0xbc01d0ca	-0.007923314
233	0x3ce86571	0.028368684
234	0x3bc21f79	0.005924162
235	0xbb8801a9	-0.0041505885
236	0x3ce4d05f	0.02793139
237	0x3ca0cdb3	0.019629335
238	0x3caa4297	0.020783706
239	0x3c8f738a	0.017511148
240	0xbc3e7cf1	-0.011626468
241	0xbcfe5c5e	-0.031049903
242	0xbca6fe4f	-0.020384936
243	0xbca5a4b4	-0.020220138
244	0x3c1dba79	0.009626978
245	0x3cf1456c	0.029452048
246	0x3d0a3d41	0.033749823
247	0x3cf1c1ce	0.029511359
248	0x3bc40cc9	0.0059829694
249	0x3cd12f63	0.025535291
250	0x3b3f882f	0.002922546
251	0x3c902256	0.017594498
252	0xbcbc0b5b	-0.022954633
253	0x3d0b4751	0.03400356
254	0x3c86a98d	0.01643827
255	0x38bc62c0	8.982932e-05

fc1.bias f4 [16]
0	0xbb2cf205	-0.0026389372
1	0x3d049933	0.032372665
2	0xbcf7584f	-0.030193476
3	0xbc221843	-0.00989348
4	0xbb93e770	-0.0045136735
5	0xbce4b79f	-0.027919589
6	0x3c2e7333	0.010647583
7	0x3cc9f181	0.02465129
8	0x3bd1dbac	0.0064043608
9	0x3b6c3168	0.003604019
10	0x3cf9e566	0.030504894
11	0xbc5f916f	-0.013645514
12	0xbbcba385	-0.0062145614
13	0x3c4c5825	0.012472187
14	0xbc9b69d3	-0.01897136
15	0xbcd901ec	-0.026490174

fc2.weight f4 [2, 16]
0	0xbd534270	-0.05157703
1	0x3e2780d8	0.16357744
2	0xbe02c4ab	-0.12770335
3	0x3d932650	0.07185042
4	0x3bbd5aee	0.005778662
5	0x3e6a5990	0.22885728
6	0x3e0683b1	0.13136174
7	0xbe06d3d7	-0.13166748
8	0xbe75fa1d	-0.24021192
9	0x3e196f70	0.14983916
10	0xbe6a6e40	-0.2289362
11	0xbe151df9	-0.14562215
12	0x3e7820d4	0.24231273
13	0x3d959a9c	0.0730488
14	0xbb0c22b9	-0.0021383
15	0xbe4272b0	-0.18989062
16	0xbd3ba5e8	-0.045812517
17	0x3d073ec1	0.03301883
18	0x3e16b591	0.147177
19	0xbdc81174	-0.09768954
20	0xbd3927d1	-0.045203988
21	0x3d4e4672	0.05036015
22	0xbe7b440b	-0.24537675
23	0xbd9f0e6b	-0.07766422
24	0xbe6a5693	-0.22884588
25	0xbdba4b76	-0.09096424
26	0xbe1864ea	-0.14882246
27	0x3df90e58	0.12160939
28	0xbe307e02	-0.17235568
29	0xbe705a60	-0.23471975
30	0xbcf532db	-0.029931476
31	0xbdf17344	-0.11789563

fc2.bias f4 [2]
0	0xbe06d7f7	-0.13168322
1	0xbd6b6016	-0.05746468
