Unimodal/weights/audio/Meso4_realA_fakeB.pt (torch, 102545 bytes, 16 tensors)

conv1.weight f4 [8, 3, 3, 3]
0	0xbd648cbb	-0.055798274
1	0xbd4aa1da	-0.04947076
2	0x3dde1228	0.10843307
3	0x3d8f81a7	0.07007151
4	0x3e1c395c	0.15256256
5	0xbd937ba6	-0.072013184
6	0x3d84d7f4	0.06486502
7	0x3d8c6c0e	0.06856547
8	0xbe240330	-0.16016841
9	0xbe3f3e9d	-0.18676229
10	0xbdcca977	-0.0999326
11	0x3e06c252	0.13160065
12	0xbe397977	-0.18112741
13	0xbe2b7958	-0.16745508
14	0x3ddcc0ed	0.10778985
15	0x3dd4c1d7	0.103885345
16	0x3e221e87	0.15831958
17	0xbe14c898	-0.14529645
18	0xbe105421	-0.14094593
19	0x3dca04ac	0.09864172
20	0x3e2b39c0	0.16721249
21	0x3debec6f	0.115197055
22	0x3cf76026	0.030197214
23	0x3d81d063	0.06338575
24	0x3e3b1685	0.1827031
25	0xbdfe3721	-0.12412859
26	0xbdb2fe91	-0.08739961
27	0x3e09c282	0.13453105
28	0xbe06bbed	-0.13157625
29	0xbdd91304	-0.1059933
30	0x3e0fc396	0.14039454
31	0x3d792acd	0.060831834
32	0x3d7f3384	0.06230499
33	0xbda73604	-0.081645995
34	0xbb23c382	-0.0024988358
35	0x3e348675	0.17629416
36	0xbdec533d	-0.11539314
37	0x3ae42768	0.0017406764
38	0x3dbbe6de	0.09174894
39	0xbe07f36a	-0.13276449
40	0x3e3f9f23	0.1871305
41	0xbdc47797	-0.095931225
42	0xbd3cbb9b	-0.046077352
43	0xbd544092	-0.05181939
44	0xbe002e40	-0.12517643
45	0xbe413316	-0.18867144
46	0x3ddebaf7	0.108755045
47	0x3d525e15	0.051359255
48	0xbe386cb7	-0.18010221
49	0xbdfd2f34	-0.12362519
50	0x3e4302dd	0.19044061
51	0x3d970480	0.07373905
52	0x3d9eadcf	0.07747995
53	0xbdeb503f	-0.11489915
54	0xbdacc1e5	-0.0843542
55	0xbced8cfd	-0.028997893
56	0xbd0ff60c	-0.035146758
57	0xbe0709d1	-0.13187338
58	0x3c81b0c2	0.015831355
59	0x3c9bb6f0	0.01900813
60	0xbcc7fee6	-0.024413537
61	0x3cd97508	0.026545063
62	0xbd9ca366	-0.07648353
63	0x3d4d105d	0.050064433
64	0x3d94a5fc	0.072582215
65	0xbdcfa9d0	-0.10139811
66	0xbe43720b	-0.19086473
67	0x3dce3a6e	0.10069738
68	0x3d3b8239	0.045778487
69	0xbdc89ded	-0.09795747
70	0x3e3dc872	0.18533495
71	0xbdb2a5e8	-0.0872305
72	0x3e052390	0.13001847
73	0x3dc7f3a1	0.097632654
74	0xbe2542d8	-0.1613878
75	0x3dfe1e06	0.1240807
76	0xbe353d50	-0.1769917
77	0xbdda9ce0	-0.10674453
78	0xbd03be4b	-0.0321639
79	0xbe04f642	-0.12984565
80	0x3e405339	0.18781747
81	0xbd1d40a9	-0.038391743
82	0x3d9cff34	0.07665864
83	0xbe2fc4a8	-0.17164862
84	0x3de34c08	0.11098486
85	0xbd741265	-0.059587855
86	0xbe15b1c4	-0.14618593
87	0x3ce7eb1e	0.028310355
88	0x3dbf6344	0.09345105
89	0x3e2ab9cf	0.16672443
90	0xbdf06a1c	-0.11738989
91	0xbdc19392	-0.09451975
92	0x3d17ed97	0.037091818
93	0x3d564dfc	0.052320465
94	0x3d97e976	0.07417576
95	0x3dd88169	0.10571558
96	0xbd3279a9	-0.043573055
97	0x3ddb4028	0.10705596
98	0x3e113d1b	0.14183466
99	0xbd4d579c	-0.05013238
100	0x3e0c6257	0.13709389
101	0x3dc0b223	0.09408977
102	0x3e2dea2b	0.16983859
103	0xbddfa462	-0.109200254
104	0xbdc29436	-0.09500925
105	0xbd63c47c	-0.055607304
106	0x3c217808	0.009855278
107	0x3dec528c	0.11539182
108	0xbde0e506	-0.10981183
109	0x3dc56af1	0.09639538
110	0xbd8d0f41	-0.06887675
111	0x3dee5173	0.11636629
112	0xbc14f400	-0.009091377
113	0xbe2c936f	-0.16853116
114	0xbdd87c73	-0.10570612
115	0xbe0e872a	-0.13918748
116	0x3dc3a609	0.09553153
117	0xbe044603	-0.12917332
118	0xbc84fa66	-0.01623268
119	0x3d29c5ee	0.041448526
120	0xbdd8564b	-0.10563334
121	0x3d6280d0	0.055298626
122	0xbe408bd5	-0.18803342
123	0xbe0cfa91	-0.13767458
124	0xbe32bd4c	-0.17455024
125	0xbd6efad2	-0.05834467
126	0xbd8fddfb	-0.07024761
127	0x3ce00c62	0.027349655
128	0xbd122eaa	-0.035689034
129	0x3db909e4	0.090350896
130	0x3e347204	0.17621619
131	0x3d8d1f80	0.06890774
132	0xbd9b639b	-0.075873576
133	0xbe38b9d9	-0.18039645
134	0x3d8e71cf	0.06955301
135	0xbdc38583	-0.0954695
136	0x3dc85fe1	0.097839125
137	0x3e03ed31	0.1288345
138	0x3d97a39c	0.07404253
139	0x3e38ab50	0.180341
140	0x3e3afa61	0.18259574
141	0x3d2621b9	0.040559504
142	0xbe0fd4b1	-0.14045979
143	0x3e2ff2ab	0.17182414
144	0xbdbb0958	-0.091326416
145	0xbdb9e1f3	-0.090762995
146	0x3e253041	0.16131689
147	0x3e188c68	0.1489731
148	0x3d6db7e5	0.058036704
149	0x3c4933ad	0.012280387
150	0xbe25e8e1	-0.16202118
151	0xbca4793e	-0.020077344
152	0x3e3d3c72	0.1848009
153	0x3d48d538	0.049031466
154	0x3c8855eb	0.016642531
155	0xbd2289c4	-0.039682165
156	0xbd89b931	-0.067247756
157	0x3deac4e1	0.11463333
158	0x3c462477	0.012093655
159	0x3e0014e6	0.12507972
160	0xbd0bc40c	-0.03412251
161	0x3dacacf9	0.084314294
162	0x3da2c041	0.07946826
163	0x3cfab02c	0.030601583
164	0x3df7cff7	0.12100213
165	0x3df6db84	0.12053588
166	0x3e367c09	0.17820753
167	0x3e17859a	0.14797059
168	0xbd4979a5	-0.049188275
169	0xbe26e541	-0.16298391
170	0x3d10a4bb	0.03531335
171	0xbac31ab8	-0.0014885282
172	0xbd4cd874	-0.050011113
173	0xbd03053c	-0.031987414
174	0x3c162a3a	0.009165341
175	0x3e0fd75b	0.14046995
176	0x3d76908e	0.06019645
177	0xbd8ba028	-0.06817657
178	0xbda1c97d	-0.07899759
179	0xbd4239e3	-0.047418486
180	0xbd97e738	-0.07417148
181	0x3e316af9	0.17325963
182	0x3dd13f9f	0.10217213
183	0x3e3217fe	0.17391965
184	0x3a3b402b	0.00071430457
185	0x3d1fd674	0.039022878
186	0x3d890be6	0.066917226
187	0xbe3a5d22	-0.1819959
188	0x3c8eca19	0.017430352
189	0xbc4f9771	-0.012670384
190	0xbddc75ce	-0.10764657
191	0xbe18a6c6	-0.14907369
192	0x3e2e6609	0.17031111
193	0x3e204945	0.1565295
194	0x3db6dcab	0.08928808
195	0x3e3c0467	0.18361054
196	0xbd9fc4e0	-0.07801223
197	0xbd07c34b	-0.03314523
198	0x3d954b7b	0.072897874
199	0xbd016f9d	-0.031600583
200	0xbd19bf66	-0.037536047
201	0xbe2314b8	-0.15925872
202	0x3d533664	0.051565543
203	0xbdee70f1	-0.116426356
204	0x3bdf9ed3	0.0068243532
205	0x3e4004d1	0.18751837
206	0xbd732bd5	-0.059367973
207	0xbd7888b5	-0.06067725
208	0x3dee2388	0.11627871
209	0xbd907c20	-0.07054925
210	0xbc890879	-0.016727673
211	0x3e37d860	0.17953634
212	0xbda1e9b7	-0.07905906
213	0xbe0d2e01	-0.1378708
214	0xbddcded2	-0.10784687
215	0xbd5b367d	-0.05351876

bn1.weight f4 [8]
0	0x3f8003f2	1.0001204
1	0x3f7fee86	0.9997333
2	0x3f7ffeee	0.99998367
3	0x3f80081b	1.0002474
4	0x3f80020f	1.0000628
5	0x3f7fff8f	0.99999326
6	0x3f800353	1.0001014
7	0x3f7ff3ba	0.9998127

bn1.bias f4 [8]
0	0xb80d3d8c	-3.367434e-05
1	0xb965b699	-0.00021907165
2	0xb764b9f2	-1.3633153e-05
3	0xb98098de	-0.00024527957
4	0x3936409b	0.0001738094
5	0x391f4120	0.00015187683
6	0x398fc121	0.00027418978
7	0xb94b8a1a	-0.00019411035

bn1.running_mean f4 [8]
0	0x3ddd816b	0.108157
1	0x3e2e2a83	0.17008404
2	0x3dd35539	0.10318989
3	0x3eae7453	0.34073123
4	0x3e87fe16	0.2656104
5	0x3ef570ce	0.47937626
6	0x3eba1105	0.3634111
7	0x3dab1ab9	0.08354706

bn1.running_var f4 [8]
0	0x3d2044e6	0.039128207
1	0x3e211478	0.15730464
2	0x3d4f6ca4	0.050640717
3	0x3e21b6f1	0.15792443
4	0x3e718092	0.23584202
5	0x3ef58e1d	0.47959986
6	0x3e59f94b	0.21286504
7	0x3d8b956b	0.068156086

conv2.weight f4 [8, 8, 5, 5]
0	0xbd0a4ff7	-0.033767667
1	0xbd173a21	-0.03692067
2	0x3ce92a92	0.028462682
3	0x3c432aae	0.011912031
4	0xbcbadcf0	-0.02281043
5	0xbd622161	-0.055207614
6	0xbcb89996	-0.022534173
7	0xbcf689e3	-0.030095046
8	0xbcbe9b2e	-0.023267355
9	0xbd832fe7	-0.06405621
10	0x3c757409	0.014981278
11	0xbd55e0fc	-0.052216515
12	0xbd629baa	-0.055324234
13	0xbd6d957a	-0.05800388
14	0x3cefe543	0.029284125
15	0xbd2f57a5	-0.042808194
16	0xbcf11933	-0.029430961
17	0x3d62ac26	0.055339955
18	0x3d1900e2	0.037354358
19	0x3d25c90b	0.040474933
20	0xbd8a07b4	-0.067397505
21	0xbd5081f9	-0.0509052
22	0xbcdc0cb5	-0.026861528
23	0x3d6edd07	0.058316257
24	0x3be957e1	0.0071210717
25	0xbd59bb3b	-0.053157073
26	0x3a09c498	0.000525543
27	0xbd61888e	-0.05506187
28	0xbc7c193b	-0.015386875
29	0xbca02760	-0.019550025
30	0x3d79a01e	0.060943715
31	0x3cb4bd87	0.02206303
32	0xbc4bf187	-0.012447721
33	0x3c45cf2c	0.012073319
34	0xbca80620	-0.020510733
35	0x3ce16450	0.027513653
36	0x3ce63f45	0.028106341
37	0x3c9a8f99	0.0188673
38	0xbce0d952	-0.027447376
39	0x3d770751	0.06030971
40	0xbc2ba4b2	-0.010476278
41	0xbce09f71	-0.027419778
42	0x3d34c600	0.04413414
43	0x3d6c0f76	0.057631932
44	0x3d902490	0.07038224
45	0x3ca977d6	0.020687025
46	0xbcc425f6	-0.023943882
47	0x3d125cf5	0.035733182
48	0x3d77d410	0.060504973
49	0xbd8e307f	-0.06942844
50	0xbc0c3262	-0.008556934
51	0xbd452212	-0.048128195
52	0x3c581180	0.013187766
53	0x3cee8b12	0.029119048
54	0xbc6f9cc4	-0.014624778
55	0xbbba2ed4	-0.005681852
56	0x3d030670	0.03198856
57	0xbc417910	-0.011808649
58	0xbd73933e	-0.059466593
59	0x3d67f521	0.056630258
60	0xbd10d3ec	-0.035358354
61	0xbbf85b90	-0.0075792745
62	0x3bdd0aaa	0.006745656
63	0xbb8e1807	-0.0043363604
64	0xbd8842af	-0.06653344
65	0x3d05c73f	0.03266072
66	0xbd02e6d8	-0.03195843
67	0xbd162001	-0.036651615
68	0x3c8981a4	0.01678545
69	0xbd178c24	-0.036998883
70	0xbd04e714	-0.032446936
71	0xbcc21574	-0.02369187
72	0xbcda294b	-0.026631018
73	0xbcf36729	-0.029712277
74	0xbc9d1262	-0.019173805
75	0x3c947703	0.018123155
76	0xbd6b84c4	-0.057499662
77	0xbd306f07	-0.043074634
78	0x3a4e33fb	0.0007866022
79	0x3c1d1183	0.009586695
80	0x3d1ec41f	0.038761254
81	0xbd4cab14	-0.04996784
82	0x3cb67235	0.022271255
83	0x3d236ea7	0.03990045
84	0x3d1fa475	0.038975198
85	0xbd877927	-0.06614905
86	0xbcdf776b	-0.027278623
87	0xbd7a306e	-0.061081342
88	0xbd387527	-0.0450336
89	0x3d2031a7	0.039109852
90	0xbc319522	-0.010838779
91	0x3cf3a7e2	0.029743139
92	0xbd2b395b	-0.041802745
93	0x3c2b796b	0.01046596
94	0xbd30424f	-0.043031987
95	0x3d0fa0e0	0.03506553
96	0xbcffbcb5	-0.031217912
97	0xbc93a25a	-0.018021751
98	0xbd7c6d8a	-0.061627902
99	0xb7e26d00	-2.6992057e-05
100	0x3d89d187	0.06729417
101	0x3d0d402e	0.034485035
102	0xbd1ab6fd	-0.037772167
103	0x3a54cbe4	0.000811754
104	0xbc00c269	-0.007858851
105	0xbd685e8c	-0.056730792
106	0x3d63df3b	0.05563281
107	0x3aa02618	0.0012218384
108	0x3c730c4e	0.014834477
109	0xbcea8859	-0.028629469
110	0xbd06bde2	-0.03289593
111	0x3c41f94f	0.011839225
112	0x3cd69d7f	0.026198147
113	0x3c819045	0.015815863
114	0xbd0be1c1	-0.034150843
115	0x3d8cfb2b	0.06883844
116	0xbc282f46	-0.010265177
117	0xbd31a201	-0.04336739
118	0xbd0837e8	-0.03325644
119	0x3d8e3695	0.069440044
120	0x3957a985	0.00020567149
121	0xbc1a5bcd	-0.009421301
122	0xbcf202e4	-0.029542394
123	0xbc99fb42	-0.018796567
124	0xbd74b828	-0.059745938
125	0xbd672e1c	-0.056440458
126	0x3d285b26	0.04110255
127	0x3d76a375	0.06021448
128	0x3d89ae40	0.06722689
129	0xbd52203c	-0.051300272
130	0x3d1b778f	0.037955817
131	0xbd3482fe	-0.044070236
132	0x3d2b8ee3	0.041884314
133	0x3d4fc944	0.05072905
134	0x3d5ef766	0.054435156
135	0x3d4f5d47	0.050626066
136	0x3d33f25b	0.0439323
137	0x3a8cb219	0.001073423
138	0x3d03e095	0.0321966
139	0xbcd1904d	-0.025581503
140	0x3cf9e979	0.030506836
141	0xbcbc9f45	-0.023025164
142	0xbac305d8	-0.0014879061
143	0xbd7d4189	-0.061830077
144	0xbc99b4bc	-0.018762939
145	0xbd1974a2	-0.037464745
146	0xbcc5d41a	-0.02414899
147	0xbd3a2acd	-0.045450974
148	0xbd82d43c	-0.06388137
149	0x3b8e388e	0.004340238
150	0x3d3af6db	0.045645576
151	0x3d8359e0	0.06413627
152	0x3d27e22c	0.04098718
153	0xbd172f2a	-0.036910214
154	0xbd8fb858	-0.07017583
155	0x3cd953ea	0.026529271
156	0x3d211151	0.039323155
157	0xbd79e0b9	-0.061005328
158	0x3ccd4c43	0.025060778
159	0x3d73b30e	0.05949693
160	0x3b82aa4a	0.003987585
161	0xbd2fb69c	-0.04289876
162	0x3d6c3716	0.05766972
163	0x3cf4e60e	0.029894855
164	0x3d3e997e	0.0465331
165	0xbd4512d0	-0.048113644
166	0x3d2757e9	0.040855322
167	0xbd471305	-0.048602123
168	0x3d8eb031	0.069671996
169	0xbcf7bf52	-0.030242596
170	0x3d2d56f1	0.042319242
171	0x3c6329dc	0.0138649605
172	0x3c970769	0.01843615
173	0xbc367cc3	-0.011138144
174	0x3ceba6c5	0.028766045
175	0xbcf072e2	-0.029351655
176	0xbd888933	-0.06666794
177	0xbcde32a4	-0.027123757
178	0x3d6256c4	0.055258527
179	0xbc99c56d	-0.018770898
180	0x3cb523e9	0.02211185
181	0xbcd848c1	-0.02640188
182	0x3d5923ee	0.05301278
183	0x3d2c7d9d	0.04211198
184	0x3ccad8f8	0.024761662
185	0xbd13af41	-0.036055807
186	0xbd6cfcf0	-0.057858407
187	0x3b3291d0	0.0027247556
188	0xbd2a6242	-0.041597612
189	0x3d6d70d0	0.057968915
190	0xbd8aeeb6	-0.06783812
191	0x3d0135c9	0.031545434
192	0x3d9068d6	0.07051246
193	0x3d107302	0.03526593
194	0x3cc4613d	0.023972148
195	0xbd8b25a1	-0.067942865
196	0x3d8b2e45	0.067959346
197	0xbc451a4f	-0.012030198
198	0xbd87c2fe	-0.06628989
199	0x3d8ebaef	0.069692485
200	0xbceb32a4	-0.02871067
201	0xbba41064	-0.0050068367
202	0x3d84bc54	0.06481233
203	0xbd487172	-0.048936315
204	0xbd4ccaab	-0.049997967
205	0x3c3f39ea	0.011671523
206	0xbc18f719	-0.009336256
207	0x3c875a8d	0.01652267
208	0xbd727b7d	-0.0591998
209	0x3b11e652	0.0022262526
210	0xbd017f0f	-0.031615313
211	0xbd0ddc7e	-0.034634106
212	0xbd844f0a	-0.06460388
213	0x3d193256	0.03740152
214	0x3c602022	0.013679536
215	0xbd7568a5	-0.05991425
216	0x3d665887	0.05623677
217	0x3cae7d47	0.021299971
218	0x3c56ee97	0.013118408
219	0xbd298a3d	-0.0413916
220	0x3c2b9312	0.010472076
221	0x3d8b8b79	0.06813712
222	0x3d471530	0.04860419
223	0xbd6165ef	-0.055028852
224	0x3d845721	0.06461931
225	0x3bad1c99	0.00528295
226	0x3d0c572e	0.03426283
227	0x3d616ca1	0.055035237
228	0x3d76d5b7	0.060262408
229	0xbd61b463	-0.05510367
230	0x3d7caebf	0.06169009
231	0xbd43a79b	-0.047767263
232	0x3bb2d016	0.0054569347
233	0xbd4a9a06	-0.049463294
234	0xbc7e0a4d	-0.015505386
235	0xbb61547d	-0.0034382634
236	0xbc07b183	-0.008282068
237	0xbc3477e3	-0.011014911
238	0x3bb2e1c6	0.005459043
239	0x3d8ec333	0.06970825
240	0x3d27768e	0.040884547
241	0x3d22cc41	0.039745573
242	0x3ce8ebf8	0.028432831
243	0x3d5fbb54	0.05462201
244	0xbb60205d	-0.0034198978
245	0x3bb23039	0.0054378775
246	0x3c71bd3c	0.01475459
247	0xbd7bc6eb	-0.061469
248	0xbd697f5d	-0.05700623
249	0x3c0b43a7	0.008500016
250	0xbce2bf82	-0.027679209
251	0xbaaa366c	-0.001298619
252	0xbc84312e	-0.016136732
253	0x3c34e3b1	0.011040614
254	0x3d3c61a5	0.04599156
255	0xbcc01f8e	-0.023452546

bn2.weight f4 [16]
0	0x3f800107	1.0000314
1	0x3f7fedf5	0.9997247
2	0x3f7fef3b	0.9997441
3	0x3f7fef56	0.9997457
4	0x3f7ff8f3	0.9998924
5	0x3f7fffc2	0.9999963
6	0x3f80096e	1.0002878
7	0x3f7ff76a	0.999869
8	0x3f80065e	1.0001943
9	0x3f7feb3a	0.999683
10	0x3f7fecde	0.99970806
11	0x3f7fee15	0.9997266
12	0x3f7ff335	0.9998048
13	0x3f7ffd7c	0.9999616
14	0x3f7ffa76	0.9999155
15	0x3f7fec06	0.9996952

bn2.bias f4 [16]
0	0xb95284f8	-0.00020076695
1	0xb9346029	-0.0001720196
2	0xb97b94cf	-0.00023992661
3	0xb9a2982e	-0.0003101243
4	0x38cfff63	9.918099e-05
5	0xb97f38df	-0.00024339881
6	0xb9211bb3	-0.00015364475
7	0xb97b84eb	-0.00023986741
8	0x38c6ab2e	9.4732604e-05
9	0xb9824893	-0.00024849604
10	0xb93809ae	-0.00017551213
11	0xb941775e	-0.00018450382
12	0xb9874046	-0.00025797094
13	0xb97bcfab	-0.00024014588
14	0x395c89dc	0.00021032192
15	0x38a78b2e	7.989105e-05

bn2.running_mean f4 [16]
0	0x3e5c1060	0.21490622
1	0x3e856875	0.26056257
2	0x3e90e418	0.28299022
3	0x3e0179f6	0.1264418
4	0x3e1f80fb	0.15576546
5	0x3e1788b9	0.1479825
6	0x3eb8a4f5	0.36063352
7	0x3e85aa96	0.2610671
8	0x3ea383f7	0.3193662
9	0x3e110aad	0.14164229
10	0x3e820479	0.25394037
11	0x3ddd7fd8	0.108154
12	0x3e8ecde7	0.27891466
13	0x3ea9477d	0.33062354
14	0x3e6500ee	0.22363636
15	0x3e86c2a3	0.2632037

bn2.running_var f4 [16]
0	0x3e254e38	0.1614312
1	0x3e38d75e	0.18050906
2	0x3e46c85e	0.19412372
3	0x3d51b2f9	0.051196072
4	0x3db49b3d	0.08818672
5	0x3dd42a20	0.10359597
6	0x3ea56ec8	0.32311082
7	0x3e57ee6e	0.21087047
8	0x3e272ad4	0.16324931
9	0x3ddaed66	0.106898114
10	0x3e079578	0.13240612
11	0x3d6e5dc4	0.05819489
12	0x3e734614	0.23757201
13	0x3e246e3f	0.1605768
14	0x3e3efed0	0.18651891
15	0x3e538696	0.20656809

conv3.weight f4 [16, 8, 5, 5]
0	0x3b4576da	0.0030130656
1	0x3c7266b7	0.014794997
2	0x3d30b20f	0.04313856
3	0x3cc14b5b	0.023595503
4	0xbd3498f9	-0.0440912
5	0x3d6f68d6	0.05844959
6	0x3d314355	0.043277103
7	0xbd31cb28	-0.043406636
8	0x3d5bee17	0.053693857
9	0x3ca34630	0.019930929
10	0xbc687e8b	-0.014190326
11	0xbd4f9388	-0.050677806
12	0xbc3cc19b	-0.0115207685
13	0xbd8d9a4e	-0.06914197
14	0x3d247aaf	0.040156063
15	0x3d50a492	0.050938196
16	0xbca8f6b7	-0.020625455
17	0x3d86b6c6	0.0657783
18	0xbcd4d74b	-0.025981566
19	0x3c4301f7	0.011902324
20	0xbd4b0a0e	-0.049570136
21	0xbb4dff99	-0.0031432866
22	0x3cec5944	0.028851159
23	0x3cfa5459	0.030557798
24	0xbb273ea6	-0.002551952
25	0xbd11b2c3	-0.03557087
26	0x3d49af00	0.04923916
27	0x3d3f21ae	0.04666298
28	0x3c3e6402	0.011620523
29	0xbd058dd5	-0.032605965
30	0x3c77ec5f	0.015132039
31	0x37c65af8	2.36458e-05
32	0x3d83fe38	0.06444973
33	0x3c300687	0.010743744
34	0x3bb089c8	0.0053875186
35	0x3ba0a814	0.004902849
36	0x3d1954be	0.037434332
37	0xba8d4591	-0.0010778179
38	0x3d79306f	0.060837205
39	0x3d163809	0.036674533
40	0xbd5a9af2	-0.053370424
41	0xb9106817	-0.00013771687
42	0xbd766178	-0.060151547
43	0xbd5d65fa	-0.05405233
44	0x3c5f7405	0.013638501
45	0x3c831988	0.016003385
46	0xbbce08a7	-0.0062876525
47	0x3d898751	0.06715263
48	0xbd1a6f48	-0.037703782
49	0xbcf39e71	-0.029738637
50	0xbc3b9c34	-0.011450816
51	0x393dc066	0.00018096119
52	0xbbc4995f	-0.0059997286
53	0x3d82b332	0.06381835
54	0xbcf3dc6b	-0.02976819
55	0xbd180e18	-0.037122816
56	0x3bc068de	0.005871876
57	0x3d59c717	0.053168382
58	0x3c8b256d	0.01698562
59	0x3d1cbcb0	0.038265884
60	0x3c5dbe6d	0.013534171
61	0x3d75e82a	0.060035862
62	0x3d2d9118	0.0423747
63	0x3d5017db	0.050804
64	0xbc1ac5a9	-0.00944654
65	0xbd6fea6e	-0.05857318
66	0xbd0a429c	-0.03375493
67	0x3cc4a54a	0.024004597
68	0x3d4c03af	0.0498082
69	0xbce24db2	-0.027624939
70	0x3d6f3355	0.058398563
71	0x3c224c74	0.009905923
72	0x39c0ea30	0.00036795577
73	0x3b424717	0.0029644424
74	0xbc4cca25	-0.012499367
75	0x3d873f4f	0.06603872
76	0x3b4062e2	0.0029355814
77	0x3d32462e	0.04352396
78	0xbd745e0b	-0.05966
79	0xbd14a24a	-0.036287583
80	0x3bfd3218	0.007726919
81	0x3d6654ab	0.05623309
82	0x3d0abc08	0.033870727
83	0x3c5c28b7	0.013437442
84	0xbd8ed018	-0.069732845
85	0x3a8dd02f	0.001081949
86	0xbd402541	-0.046910528
87	0xbd764f19	-0.060134027
88	0x3c1c7d8d	0.009551418
89	0xbd36c43e	-0.044620745
90	0x3d83029f	0.06396984
91	0xbd1debf1	-0.03855509
92	0x3cbc87a3	0.023013895
93	0x3d2a29ee	0.041543894
94	0xbd6020d5	-0.05471881
95	0x3d13366f	0.035940584
96	0xbc1dfe7b	-0.009643192
97	0x3d16eb01	0.03684521
98	0x3d8c4b59	0.06850309
99	0xbcf55071	-0.029945584
100	0xbcfb6658	-0.03068845
101	0x3d651ea4	0.055937424
102	0x3bf8982b	0.007586499
103	0xbbe7a6a8	-0.0070694275
104	0x3d5b2f39	0.053511832
105	0xbd0c6d4c	-0.03428392
106	0xbb757645	-0.0037454527
107	0x3d45ca6e	0.048288755
108	0x3ce1eadf	0.027577816
109	0xbd3c27f2	-0.045936532
110	0x3c962ccf	0.018331913
111	0xbd5dc084	-0.054138675
112	0xbd1e6d00	-0.03867817
113	0x3d39e9c5	0.045388956
114	0xbc9bdc72	-0.019026015
115	0xbd137f14	-0.036009863
116	0x3b9ccda0	0.0047852546
117	0x3c8b504b	0.01700606
118	0xbd34342d	-0.04399507
119	0xbd43fe54	-0.047849968
120	0xbd8c0a67	-0.068379216
121	0x3c9419d4	0.018078722
122	0xbd3be823	-0.04587568
123	0x3bb24753	0.0054406314
124	0xbc825d1f	-0.015913544
125	0xbd3da32f	-0.046298202
126	0xbcba4cc1	-0.022741677
127	0xbd5e9694	-0.05434282
128	0xbd183333	-0.037158202
129	0xbb09514d	-0.0020953
130	0xbd780208	-0.060548812
131	0xbd7eebad	-0.062236477
132	0x3d58f33b	0.052966338
133	0x3be30ad0	0.006928779
134	0xbd0008e8	-0.031258494
135	0xbb22fd4b	-0.0024870213
136	0x3d55b5cb	0.052175324
137	0xbd718925	-0.05896868
138	0xbd1874a1	-0.0372206
139	0xbd51baa0	-0.05120337
140	0xbbacba5e	-0.00527124
141	0xbb288756	-0.0025715432
142	0xbd6165cc	-0.05502872
143	0x3d4a1614	0.04933746
144	0xbd5f1586	-0.054463886
145	0x3d872762	0.065993086
146	0xbd481ef2	-0.048857637
147	0xbc1cf275	-0.009579291
148	0x3c5d0dba	0.013492042
149	0xbd014881	-0.031563286
150	0x3d84cf31	0.06484831
151	0xbd483766	-0.048880957
152	0xbb851be0	-0.004062161
153	0xbd5456f3	-0.051840734
154	0x3ca185a9	0.019717054
155	0x3d7615fd	0.060079563
156	0x3d860413	0.06543746
157	0x3c06e8c3	0.008234206
158	0xbd10acaa	-0.035320915
159	0x3d8c7a2a	0.068592384
160	0x3ba87f91	0.00514216
161	0x3d42e06e	0.047577314
162	0xbd174823	-0.03693403
163	0xbd060411	-0.03271872
164	0xbd70d844	-0.058799997
165	0x3d8500ce	0.06494294
166	0x3c3cb5f1	0.011517988
167	0xbd50e1d6	-0.050996624
168	0x3bca098f	0.0061656903
169	0xbcf901d0	-0.030396372
170	0x3b61e375	0.003446785
171	0x3cbe4351	0.023225458
172	0xbd107c11	-0.03527457
173	0x3c49dc07	0.012320525
174	0xbd36f783	-0.04466964
175	0x3c609c79	0.013709181
176	0xbd8c3dcc	-0.06847724
177	0x3c3bc057	0.011459432
178	0x3d907c33	0.07054939
179	0x3d8597f8	0.06523126
180	0x3cd40400	0.025880814
181	0x3d5426df	0.051794883
182	0x3d8d29f4	0.068927675
183	0x3ca6aaa4	0.02034504
184	0x3cc244bf	0.023714421
185	0x3c15b1fb	0.009136672
186	0x3d7f5975	0.062341172
187	0x3d7925e8	0.060827166
188	0xbd0700ce	-0.03295975
189	0xbb3be322	-0.0028669317
190	0xbd117624	-0.03551306
191	0x3cce0131	0.025147052
192	0xbd8c2b41	-0.068441875
193	0x3ccf5ac5	0.025311837
194	0xbc9f90a9	-0.019478159
195	0x3cd1be20	0.025603354
196	0x3cb28005	0.02178956
197	0xbd0fae62	-0.035078414
198	0x3d177bca	0.03698329
199	0x3cf5958d	0.029978538
200	0xbd76e45d	-0.060276378
201	0x3d90c846	0.07069449
202	0x3d791c55	0.060818035
203	0x3d34b72c	0.04412
204	0xbbe53240	-0.0069945157
205	0x3ccb2161	0.02479619
206	0xbd1c70bd	-0.038193453
207	0xbcc6371a	-0.024196196
208	0x3d086eed	0.033308912
209	0x3d00ffda	0.031494
210	0x3ce37327	0.02776487
211	0xbd8a1ee8	-0.06744176
212	0x3d7013fa	0.0586128
213	0xbcf1a361	-0.02949685
214	0x3d7ad499	0.061237905
215	0x3d6dd9cb	0.05806903
216	0x3cd88fd2	0.026435766
217	0x3d90662f	0.0705074
218	0x3d26a5f5	0.040685613
219	0x3d2a895b	0.0416349
220	0xbcc62325	-0.02418668
221	0x3d86ce6b	0.0658234
222	0x3c991bed	0.018690074
223	0x3d2b7fa4	0.041869774
224	0xbc8124fa	-0.015764702
225	0x3d51167b	0.05104683
226	0x3d805184	0.06265548
227	0xbd5e01b8	-0.054200858
228	0x3d6c9642	0.057760485
229	0xbd3f65a9	-0.04672781
230	0xbd484866	-0.04889717
231	0xbd725940	-0.059167147
232	0x3ca7273f	0.020404456
233	0xbd5a4e1a	-0.05329714
234	0xbcda4492	-0.026644025
235	0xbd12a567	-0.03580227
236	0x3c98bddb	0.018645218
237	0xbd8e65f5	-0.069530405
238	0xbd05badc	-0.032648906
239	0x39abd14c	0.000327716
240	0x3bc7f6eb	0.006102433
241	0xbd03b44c	-0.032154366
242	0x3ccf6eaf	0.025321333
243	0xbd3fee17	-0.04685792
244	0xbd75d67e	-0.06001901
245	0xbc288dc8	-0.0102877095
246	0xbd1d015c	-0.038331375
247	0x3d36da8d	0.04464202
248	0xbd46b1a4	-0.048509255
249	0xbbc290fc	-0.0059376936
250	0x3ceef37f	0.029168842
251	0xbd7e34cd	-0.062062073
252	0x3d60b056	0.054855667
253	0xbd037c8a	-0.03210119
254	0xbc9c0d9a	-0.019049454
255	0xbd32185c	-0.043480262

conv4.weight f4 [16, 16, 5, 5]
0	0x3d39e5a9	0.045385037
1	0xbc931dbc	-0.017958514
2	0x3d01d4da	0.03169713
3	0xbc4424da	-0.011971677
4	0xbd225a95	-0.039637167
5	0x3d1f2309	0.03885177
6	0xbc61a63c	-0.0137725435
7	0xbca89b6b	-0.020581922
8	0x3b6f7227	0.0036536546
9	0xba3e4a30	-0.00072589796
10	0x3c6875e9	0.014188268
11	0xbc45d434	-0.012074519
12	0xbc68e0b2	-0.014213728
13	0x3cdf117d	0.027230019
14	0x3cba0fe0	0.022712648
15	0x3d359943	0.044335615
16	0x3bb3b600	0.0054843426
17	0xbc505fd3	-0.012718159
18	0xbc2fcf9b	-0.010730649
19	0xbc29ce79	-0.010364168
20	0xbc805ee8	-0.015670255
21	0xbc8c71f7	-0.017144186
22	0xbc6304cc	-0.013856124
23	0x3c73da12	0.014883535
24	0x3c9fed2b	0.01952227
25	0x3d1b4956	0.037911735
26	0xbd47b05b	-0.04875217
27	0x3d1d9ede	0.038481586
28	0xbc29a0d5	-0.010353287
29	0xbd494d6a	-0.049146093
30	0x3d053639	0.032522414
31	0xbce9f387	-0.028558506
32	0xbcba646a	-0.02275296
33	0x3c85b1df	0.016320167
34	0x3c018958	0.00790628
35	0x3d0aeff0	0.03392023
36	0xbd0f3227	-0.03495994
37	0x3cde49b3	0.027134752
38	0x3cd3400b	0.025787374
39	0x3cfb2d0b	0.030661127
40	0xbc8a001c	-0.016845755
41	0x3c07d91b	0.008291508
42	0x3c721753	0.014776069
43	0x3d3fe982	0.04685355
44	0xbcfb2ac7	-0.030660046
45	0xbd3cdaef	-0.04610723
46	0xbd39a077	-0.045319047
47	0x3bdb345c	0.0066895913
48	0xbd1ccbd1	-0.038280312
49	0xbc1c4912	-0.009538906
50	0xbcbfba03	-0.023404127
51	0x3c0fcb95	0.008776565
52	0xbd11330a	-0.035449065
53	0x3cfa22a9	0.030534105
54	0xbd4a5641	-0.049398664
55	0xbcdfa010	-0.027298003
56	0x3c25b4d7	0.010113916
57	0xbd492abb	-0.049113017
58	0x3c452c1f	0.012034445
59	0xbc9b89fc	-0.018986695
60	0xbccee890	-0.025257379
61	0x3d11be8e	0.035582118
62	0xbc82b2f2	-0.015954468
63	0x3c3cfd35	0.011534979
64	0xbca057d2	-0.019573126
65	0x3cc07867	0.023494912
66	0x3d39c6c3	0.04535557
67	0x3d457fff	0.04821777
68	0xbcf9f5f4	-0.030512787
69	0xbd4c6f98	-0.04991111
70	0xbd0f2ad6	-0.03495296
71	0x3c626c40	0.013819754
72	0x3ca66048	0.020309582
73	0x3cd4f71c	0.025996737
74	0x3cafb9aa	0.021450836
75	0x3d48360f	0.04887968
76	0xbd1a56f0	-0.037680566
77	0xbd1f5d30	-0.03890723
78	0xbc7c9258	-0.01541575
79	0x3d1fdb8e	0.039027743
80	0xbd1c1b0f	-0.038111743
81	0x3d19dbe9	0.03756324
82	0x3c0c5208	0.00856448
83	0x3cff126d	0.031136716
84	0x3d4ba8d3	0.04972155
85	0x3d486a98	0.04892978
86	0x3d45162c	0.048116848
87	0xbc4465cf	-0.011987164
88	0xbcad0ffe	-0.02112579
89	0x3cafd982	0.02146602
90	0x3d2fcbb1	0.042918865
91	0x3ac1d16b	0.0014787143
92	0xbc3d39d0	-0.011549428
93	0xbc0019a9	-0.007818618
94	0xbc901627	-0.017588688
95	0x3cc6ec6b	0.024282655
96	0xbd4abf3a	-0.049498774
97	0x3d2f4a3b	0.0427954
98	0xbad31dab	-0.0016106864
99	0xbcf62ea1	-0.030051531
100	0xbc91fc88	-0.017820612
101	0xbcfc20f1	-0.030777426
102	0xbd32f957	-0.04369482
103	0x3ba2e70b	0.00497139
104	0xbc3c2eaa	-0.011485735
105	0xbcb6d60c	-0.022318862
106	0xbc0dd5c9	-0.008656927
107	0xbbe2a6e7	-0.006916869
108	0x3cb1e0de	0.02171367
109	0xbd26d4d8	-0.040730327
110	0xbaa1c2fa	-0.0012341433
111	0xba796933	-0.0009514272
112	0xbd285a8b	-0.041101974
113	0x3d3bd391	0.045856062
114	0xbcc41bb2	-0.023938987
115	0x3d21aac8	0.03946951
116	0x3d1bfad0	0.03808099
117	0x3a8c7303	0.0010715429
118	0x3d1749a8	0.03693548
119	0xbd1afd87	-0.03783944
120	0xbbb80db5	-0.0056168684
121	0xbd286814	-0.04111488
122	0xbcfae144	-0.030624993
123	0x3c7ff013	0.015621203
124	0x3d1784a9	0.03699175
125	0xbcf0de12	-0.029402766
126	0xbca338b7	-0.019924505
127	0xbce30760	-0.027713478
128	0xbb842303	-0.004032494
129	0xbd28d762	-0.04122103
130	0xbd210430	-0.039310634
131	0xbc2daf02	-0.010600807
132	0x3d4612bb	0.048357707
133	0x3c124d14	0.00892951
134	0xbca802a7	-0.020509077
135	0x3d0a0c53	0.03370316
136	0x3d184c84	0.037182346
137	0x3d0d402f	0.03448504
138	0x3a49fb74	0.0007705011
139	0xbba79214	-0.0051138494
140	0x3d062998	0.03275451
141	0x3cde93c8	0.027170077
142	0x3d1c8962	0.038216956
143	0x3d14b72f	0.03630751
144	0xbc63ae88	-0.013896592
145	0x3d2ea7ce	0.0426405
146	0x3c24ea45	0.01006562
147	0x3d4d241f	0.050083276
148	0x3d4cf955	0.05004247
149	0x3d2d0572	0.04224152
150	0x3d096b79	0.03354976
151	0x3d21e8dc	0.039528713
152	0xbcbe0dfb	-0.023200026
153	0xbc9ce0e7	-0.01915021
154	0xbc39c493	-0.011338371
155	0xbccf4ecb	-0.025306126
156	0x3d17ab14	0.037028387
157	0x3ba359df	0.0049850787
158	0xbc4a7339	-0.012356573
159	0xbcb4f16d	-0.022087777
160	0xbd352f13	-0.044234347
161	0x3b7e4e35	0.003880394
162	0x3d354783	0.044257652
163	0x3d07e69a	0.033178903
164	0x3d239252	0.039934464
165	0x3d0d2ca6	0.03446641
166	0x3caecacc	0.021336935
167	0xba95371a	-0.0011384219
168	0xbd164740	-0.036689043
169	0x3d17d445	0.03706767
170	0xbd0ee495	-0.03488596
171	0xbcf3e0b3	-0.02977023
172	0x3ca6d7a0	0.02036649
173	0x3ce35daf	0.027754633
174	0xbcd2ac86	-0.025717031
175	0x3d02b2bd	0.03190874
176	0xbd3e753d	-0.046498526
177	0x3c4845a5	0.012223636
178	0x3cb76d79	0.022391068
179	0x3c1d6ebd	0.009608922
180	0xbce42554	-0.02784983
181	0xbd091003	-0.033462536
182	0x3d24efd3	0.040267777
183	0x3c399c34	0.011328746
184	0xbcad518e	-0.021157052
185	0x3d467cd9	0.048458908
186	0xbc260412	-0.010132806
187	0xbc1268ae	-0.00893609
188	0x3c57f90e	0.013181938
189	0x3d2bce12	0.04194457
190	0xbcb3d048	-0.021949902
191	0x3a132ec2	0.00056145724
192	0xbcb553e2	-0.022134725
193	0xbcb6f7ff	-0.02233505
194	0xbbd549bc	-0.006509034
195	0x39843f7e	0.00025224307
196	0x3cde2b13	0.027120149
197	0xbd17b478	-0.037037343
198	0x3cf03815	0.029323617
199	0x3d214164	0.039369002
200	0xbbb49e19	-0.005512011
201	0xbb89bbc3	-0.004203291
202	0x3c4de2bd	0.012566266
203	0xbd3a3a24	-0.045465603
204	0x3d17e449	0.037082944
205	0xbc0bd66e	-0.008535011
206	0x3b15a22a	0.0022832253
207	0x3cc376e5	0.023860404
208	0x3cacf782	0.021114115
209	0xbcbb0060	-0.022827327
210	0xbd1578c7	-0.036492135
211	0xbd4462ae	-0.04794567
212	0xbd29e360	-0.041476607
213	0xbc27764d	-0.010221076
214	0xbd1db4c2	-0.038502462
215	0xbb9caccb	-0.0047813407
216	0xbcd5fc34	-0.026121236
217	0x3cea44c7	0.028597249
218	0x3d0d5da0	0.034513116
219	0x3d2e81ef	0.042604383
220	0xbd05a374	-0.032626584
221	0xbd0f5181	-0.034989838
222	0x3c9040ca	0.017609019
223	0xbc35fb3e	-0.011107264
224	0x3d1c94db	0.038227897
225	0xbd3cfa29	-0.04613701
226	0x3d3cde64	0.046110526
227	0xbd0f22e1	-0.034945372
228	0xbd2574d2	-0.04039461
229	0xbbb640ca	-0.0055619227
230	0xbcb79118	-0.022408053
231	0xbd0212a2	-0.03175605
232	0x3ce77251	0.028252752
233	0x3d1ce250	0.038301766
234	0x3ce1b11d	0.027550275
235	0x3bbf11e0	0.0058309883
236	0xbbf2386f	-0.0073919813
237	0xbce1eb26	-0.027577948
238	0x3d41e8d1	0.04734117
239	0xbce17255	-0.027520338
240	0xbd3468da	-0.044045307
241	0x3d2d0638	0.04224226
242	0xbb8e3ebe	-0.0043409755
243	0x3d08539f	0.033282872
244	0xbc8a180d	-0.016857171
245	0x3d1eb114	0.038743094
246	0xbd10bcd2	-0.035336323
247	0x3cf46349	0.0298325
248	0x3d1e5488	0.038654834
249	0xba7e1450	-0.0009692358
250	0x3d073afc	0.033015236
251	0x3b0150c6	0.0019731983
252	0xbd3bdb8f	-0.045863684
253	0x3cb5f134	0.022209741
254	0xbd1e24be	-0.03860926
255	0x3ab6e954	0.0013955035

fc1.weight f4 [16, 784]
0	0x3c6b6715	0.014367838
1	0xbc357059	-0.011074149
2	0xbb650303	-0.0034944422
3	0xbcd17eee	-0.02557322
4	0x3cfaa061	0.030594053
5	0xbd0e493d	-0.034737814
6	0xbcaf255a	-0.021380115
7	0xbce91368	-0.028451636
8	0xbc827612	-0.015925441
9	0xbc9f2250	-0.019425541
10	0x3c38db91	0.011282817
11	0x3cfd189c	0.030895524
12	0x3ab06728	0.0013458477
13	0x3c023399	0.007946872
14	0x3cdadc5a	0.0267164
15	0xbd11f96c	-0.035638258
16	0x3b1e7fe6	0.002418512
17	0x3c833ab4	0.016019203
18	0x3bd57999	0.0065147397
19	0xbc75e244	-0.015007559
20	0xbc475667	-0.012166596
21	0xbc9b3404	-0.018945701
22	0x3d1094ab	0.03529803
23	0xbc81831d	-0.01580959
24	0xbbcce09e	-0.0062523624
25	0x3a1a4948	0.00058855535
26	0xbcdd2c1c	-0.026998572
27	0xbcc1c5ac	-0.023653828
28	0xbcc7df82	-0.024398569
29	0x3bf1f248	0.0073836185
30	0xbcb097b4	-0.021556713
31	0xbce6c3fb	-0.028169623
32	0xbca63f80	-0.020293951
33	0xbc4c2355	-0.012459596
34	0xbc2294bf	-0.009923159
35	0xbcb855c3	-0.022501832
36	0x3c29af04	0.010356668
37	0xbb8fa507	-0.0043836865
38	0xbcd29de8	-0.025710061
39	0x3c88e815	0.016712228
40	0x3c078e39	0.008273655
41	0x3bb65737	0.005564596
42	0x3d0f1985	0.034936447
43	0xbbc68bbd	-0.0060591386
44	0x3cb92dfe	0.022604939
45	0xbc9469ad	-0.018116796
46	0xbc8e3f55	-0.017364183
47	0x3c0f39d7	0.008741817
48	0xbc9aa7e4	-0.018878885
49	0x3c78d10f	0.015186562
50	0xbd09aa77	-0.033609834
51	0xbc554984	-0.013018016
52	0x3d12b027	0.035812523
53	0xbad6c015	-0.0016384149
54	0x3c9fff2a	0.019530851
55	0x3d03047b	0.031986695
56	0xbc2b1f7a	-0.010444516
57	0xbc07d1da	-0.008289779
58	0xbba9cb9a	-0.005181742
59	0xbc91230a	-0.017716903
60	0xba8814ad	-0.0010382138
61	0x3c8b0a78	0.016972765
62	0x3cfc30ac	0.030784927
63	0x3cc87538	0.024469957
64	0x3d100fe1	0.035171393
65	0xbc9407bf	-0.0180701
66	0xbcca4fcf	-0.024696259
67	0xbd10af2e	-0.035323314
68	0x3cac06ed	0.020999396
69	0x3c805b47	0.015668524
70	0xbc105014	-0.008808155
71	0x3cf1af46	0.029502522
72	0xbcd303fe	-0.02575874
73	0xbbc12153	-0.005893865
74	0xba8c59cf	-0.0010707917
75	0x3c68aa34	0.014200736
76	0x3cf2eb69	0.029653268
77	0xbca8854e	-0.020571377
78	0x3d127333	0.035754394
79	0x3d0b6dfb	0.034040432
80	0x3c19ffb6	0.009399345
81	0xbcc149fe	-0.023594853
82	0x3c4111ef	0.011784061
83	0x3bf15765	0.0073651546
84	0xbc5882e0	-0.013214797
85	0x3d0cf375	0.034411866
86	0xbceb1e78	-0.028701052
87	0xbc50cb55	-0.012743791
88	0xbc5db31b	-0.013531472
89	0xbc2523d0	-0.010079339
90	0x3cd835c2	0.026392821
91	0xbb073459	-0.0020630567
92	0x3b9aa5fc	0.004719494
93	0xbd031a2a	-0.032007374
94	0xbcc751e7	-0.024331046
95	0x3cb6c8f9	0.022312628
96	0xbc36e77b	-0.011163588
97	0x3c4d3783	0.012525442
98	0xbce30003	-0.027709967
99	0xbca7fee0	-0.020507276
100	0x3c8b3fd0	0.016998202
101	0x3ccd430f	0.02505639
102	0x3b096e91	0.0020970444
103	0xbd04dfba	-0.032439925
104	0xbcb9a38b	-0.022660991
105	0xbc598f11	-0.013278739
106	0x3c864137	0.016388519
107	0xbceef9cc	-0.029171847
108	0xbcbcd733	-0.023051834
109	0xbd11d05a	-0.03559909
110	0xbcd08520	-0.025454104
111	0x3cd178e6	0.025570344
112	0xbc5ecb07	-0.01359821
113	0xbc0df9ec	-0.008665543
114	0x3a711dc0	0.00091978535
115	0xbbeb8c46	-0.0071883528
116	0xbc4ac259	-0.012375438
117	0xba6f44f3	-0.00091274007
118	0xbc94faae	-0.01818594
119	0x3cb75b4d	0.022382403
120	0xbad7b725	-0.001645778
121	0x3c822eac	0.015891396
122	0x3b897c0d	0.004195696
123	0x3cdc81ba	0.026917327
124	0x3c8d2e23	0.017233914
125	0xbc957b7c	-0.018247359
126	0xbc0debd2	-0.008662181
127	0x3c078325	0.008271013
128	0xbc53a817	-0.012918494
129	0xbccbc540	-0.02487433
130	0x3cf4de39	0.02989112
131	0x3cc3f689	0.023921268
132	0xbc943e63	-0.018096155
133	0x3c0335b3	0.008008408
134	0x3cd51a86	0.026013624
135	0xbcb015fb	-0.021494856
136	0xbbc2523d	-0.0059302137
137	0xbcf10c2a	-0.029424746
138	0xbd05ee57	-0.032698
139	0x3ce7a12f	0.0282751
140	0x3c487e8a	0.0122372005
141	0xbcbdedc3	-0.023184663
142	0xbb2e7661	-0.0026620852
143	0xbc8835b7	-0.016627176
144	0xbbd78831	-0.0065775146
145	0xbbff3111	-0.0077878316
146	0x3c35e1c8	0.011101194
147	0x3bc9a6d5	0.006153921
148	0xbcc4772a	-0.023982603
149	0x3c94054c	0.018068932
150	0x3b389243	0.002816335
151	0xbc97c469	-0.018526273
152	0xbca864c3	-0.02055586
153	0xba7803d8	-0.0009461022
154	0x3c50d441	0.012745918
155	0xbd060386	-0.032718204
156	0xbc0514ed	-0.008122665
157	0xbcd1ec2e	-0.025625315
158	0xbd083d70	-0.033261716
159	0x3c9f49c4	0.019444354
160	0xbc4a871c	-0.012361314
161	0xbd0a9861	-0.033836726
162	0xbc248147	-0.010040588
163	0xbca083a4	-0.019594021
164	0x3c9f9629	0.019480782
165	0xbbb305c8	-0.0054633357
166	0xbcaf63bf	-0.021409867
167	0xbc704333	-0.014664459
168	0xbbfa4321	-0.007637397
169	0x3ce147d0	0.027500063
170	0x3b5e2bf5	0.0033900712
171	0xbce73229	-0.02822216
172	0xbc14f365	-0.009091233
173	0x3d079e08	0.033109695
174	0xbcfb2936	-0.0306593
175	0xbc569298	-0.013096474
176	0x3d004df7	0.031324353
177	0xbc6a04ca	-0.014283368
178	0x3cde8802	0.027164463
179	0xbcbf627f	-0.023362396
180	0x3cdee08a	0.027206678
181	0x3cc019a9	0.023449736
182	0xbbd2f1a5	-0.0064374977
183	0xbd06d37a	-0.032916524
184	0xbc43582f	-0.01192288
185	0x3c153cb3	0.00910871
186	0xbc4352ae	-0.011921568
187	0xbce84136	-0.028351407
188	0xbd01e7f6	-0.031715356
189	0x3c8d247a	0.017229307
190	0x3cd464fa	0.025927056
191	0xbc5baaa4	-0.013407383
192	0x3aba0a3c	0.0014193724
193	0xbcb2f20b	-0.02184393
194	0x3ca9a3c3	0.02070797
195	0xbcc1be78	-0.023650393
196	0xbca754e3	-0.02042622
197	0xbc6f44a7	-0.01460377
198	0xbbd759f8	-0.0065720044
199	0x3b8f09bf	0.0043651755
200	0xbd0967f2	-0.033546396
201	0xbc55413d	-0.013016042
202	0xbc80b878	-0.015712962
203	0xbbf61f21	-0.007511035
204	0xbb0cd3f0	-0.002148863
205	0x3ad7c76a	0.0016462628
206	0x3c94bdf9	0.018156992
207	0xbca5da38	-0.020245656
208	0x3a4eed89	0.0007893672
209	0x3d03d717	0.032187548
210	0x3b8d5295	0.004312823
211	0xbcdaa646	-0.026690613
212	0x3cc775d6	0.02434818
213	0xbd020283	-0.031740677
214	0x3c703996	0.014662167
215	0x3cf37866	0.029720496
216	0x3b898962	0.0041972855
217	0x3c9abc4e	0.018888619
218	0x3ce6f772	0.028194163
219	0x3c857d59	0.016295122
220	0xbc3075bf	-0.01077026
221	0x3c022564	0.007943485
222	0x3cedf689	0.029048221
223	0x3c04abaa	0.0080975685
224	0xbceaa941	-0.02864516
225	0x3cfe59b2	0.03104863
226	0x3d0da105	0.03457739
227	0x3ca9a61c	0.02070909
228	0x3ca06686	0.019580137
229	0x3ca574fb	0.020197382
230	0xbcb366df	-0.021899639
231	0xbc33ac63	-0.010966393
232	0x3c7e2d21	0.015513689
233	0x3c173775	0.009229531
234	0x3c78f624	0.015195403
235	0xba324880	-0.00068009645
236	0xbd0c1ddc	-0.034208164
237	0x3c889880	0.01667428
238	0xbcb96e08	-0.022635475
239	0xbcf1a155	-0.029495874
240	0x3d106abf	0.03525805
241	0x3c805f6c	0.0156705
242	0x3c922d4a	0.017843861
243	0xbc7f6520	-0.015588075
244	0x3c53d247	0.012928552
245	0x3b39be73	0.0028342276
246	0x3cc59513	0.024118936
247	0x3b85b28e	0.0040801233
248	0x3d020975	0.0317473
249	0xbc0b8263	-0.008514973
250	0x3d066a6e	0.032816343
251	0x3d1020f9	0.035187695
252	0x3b8126d2	0.0039413953
253	0xbcd8b995	-0.02645568
254	0xb8c8ce21	-9.575138e-05
255	0x3ce81461	0.02833003

fc1.bias f4 [16]
0	0xbcc66780	-0.024219275
1	0x3ce3b89d	0.027797991
2	0x3be03e85	0.0068433904
3	0x3cc386b5	0.023867944
4	0x3b3250b9	0.002720876
5	0xbc3682e4	-0.011139605
6	0xbd0f431c	-0.03497611
7	0xbb725e17	-0.0036982351
8	0xbc1f46da	-0.009721482
9	0x3b615483	0.0034382648
10	0xbcc1b7f3	-0.023647284
11	0x3cdd4a51	0.027012976
12	0xbaaa2f51	-0.0012984072
13	0x3cf0ad7f	0.029379604
14	0x3c902f25	0.017600605
15	0xbca1f138	-0.019768342

fc2.weight f4 [2, 16]
0	0xbccd8289	-0.025086658
1	0xbce2492a	-0.027622778
2	0xbdf8a463	-0.12140729
3	0x3db5fbb1	0.08885897
4	0x3c8a5697	0.016886992
5	0x3e72b0da	0.23700276
6	0x3d085c68	0.03329125
7	0x3e38b986	0.18039522
8	0x3e1f0442	0.15528968
9	0x3dbde922	0.09272982
10	0xbe6757f2	-0.22592142
11	0x3e05cfb9	0.13067521
12	0xbbd4382c	-0.006476423
13	0x3aa30753	0.0012438096
14	0xbe2fd926	-0.1717268
15	0xbe2c6d7e	-0.16838643
16	0x3e02fb1b	0.12791102
17	0x3d9f3432	0.07773627
18	0x3dd81b23	0.10552051
19	0xbe65dc0a	-0.2244722
20	0xbdd13fc0	-0.102172375
21	0xbe1c291e	-0.1525006
22	0xbe223a06	-0.15842447
23	0x3df65c90	0.12029374
24	0x3c202973	0.009775507
25	0xbd9302da	-0.07178278
26	0x3be65e9b	0.007030321
27	0xbd93652b	-0.07197031
28	0x3bdf752c	0.006819388
29	0xbe59348b	-0.2121145
30	0x3d1e3225	0.03862204
31	0x3e353be0	0.17698622

fc2.bias f4 [2]
0	0x3e583451	0.21113707
1	0x3e26534d	0.16242714
